results/testing_better_stopping/SNGP/SNGP_R3750_LS1.23_OS1.81_75000Sin/model.pt (torch, 46435 bytes, 3 tensors)

feature_weight f4 [3750, 1]
00000000: aeed c53f 4983 303f 38cb 9cbf 7c34 0bbe
00000010: 2804 953c a319 dc3f ba60 5fbf 9d98 f43e
00000020: 1373 e63f 6808 38be a963 943f 73a6 033f
00000030: c2b1 9b3f 4466 7cbf bce0 3bbe fb50 2640
00000040: 62b1 b6be 11b7 0fbf 382e f8be 1f66 5abe
00000050: 159e de3e 9cf5 32bf bf9e ccbd 7f16 e33c
00000060: 9f1f cc3e 6de4 163f 3ecb 2a3e 0094 4dbe
00000070: d998 ec3f 3a2d b3be 775c adbe cd3b b03e
00000080: e952 f8be d373 8d3f d7a9 a5bf db39 ec3f
00000090: 9e6d 5f3f 86bf a33e 6cd2 cabe 185e babf
000000a0: ccbb b23c 3063 38be 26cd 5abf aada 53bf
000000b0: f086 973f fe63 b5bf 1878 aa3e 332d 2ebe
000000c0: efd4 2abf 4732 b2be 4fb4 ae3d 4ddb 88bf
000000d0: bdf7 9e3e a6d4 bfbf 9a27 b63d 4e9d 143e
000000e0: 15bf 1bbf 75b3 bc3e 896a c2bf 87d0 d03a
000000f0: cdec 1d3f 4e71 873f f864 513e a5fa 9c3e
00000100: db12 d3bf ad8a fa3e 7050 1340 c883 b93f
00000110: aa6b cd3e abcc b03f 4c0b 37bf f0f1 30bf
00000120: 69cf 93bf f9ed df3e e135 233f 344a 573f
00000130: 8342 5bbf 4459 bfbf 6906 1cc0 5a73 a13f
00000140: 1108 703e 42ea f4bf 630c 823f 764a aebe
00000150: e04e bebf 704d 74bf bf94 dfbe c6e9 683f
00000160: cddc 85bf 3212 98bf ec59 70bf ad42 c63e
00000170: bf53 eb3e 2f69 1c40 d2ad a33e 83ea 9ebf
00000180: 43dd 063f 0de3 b83f 49b8 41bf 1dd5 513f
00000190: cb28 133f aec0 a83f c781 583f 01b2 3b3e
000001a0: 41b9 873f 83e6 2040 eba7 d8bf 3885 51bf
000001b0: c04a 50bf d051 3c3e af2f 05bf 59a7 06be
000001c0: 79e4 453f 2aaf eabf 48dc c4be 96b8 153f
000001d0: c94d c1be 6c78 5b3f 38e6 8a3f f4da f7bf
000001e0: 88fb 613e 3e88 d43e 20bf b6bf bebf afbd
000001f0: b416 4bbf 5a20 9bbe 33ca f13f faf7 383f
00000200: 595c 743d 1da3 a23f 44ba cfbd f55a 13c0
00000210: c01e e3bf 030b 8f3e 06ac 6f3f 7a47 3bbd
00000220: 4afe c43c 57a6 59bf 12ce c8be 7efe b1bf
00000230: d0a9 b0bf f02b 103f 6fc1 c73f 8fa8 68bf
00000240: 3cd3 243f c098 dc3d 20af 67be 05aa 00c0
00000250: 1314 ae3f 9fc1 d3bf 75f9 94bf a971 13bf
00000260: cde5 0c3f 6080 06c0 9685 0d3e 9068 8cbf
00000270: 8a93 c4bf 902e 9bbf ce82 9b3f aebb c93e
00000280: 5320 acbf 4a1b fabf 04b8 16be 3e08 8e3e
00000290: 1a62 693e 853a b4be 5868 d03e f9e1 dbbd
000002a0: acdc 9a3e c49e b4bf 728e cd3a 7581 b93e
000002b0: cb2d c33f d684 c43f 726e 94bf b80c 08c0
000002c0: ccf4 913f 7f14 533f 7f20 393e 5ed5 1b3f
000002d0: e5b7 63bd e9eb b93e 9781 04bf dee1 eb3e
000002e0: e421 f83e e1b5 a4bf e940 a93e d052 af3e
000002f0: e41f ac3f d804 b7bf 449a 463f 87b7 893e
00000300: 48be 883f df2b 1c3f f542 e93f a185 dc3e
00000310: 78bd 873f 2424 3f3f baa2 a63e 47bf bfbd
00000320: e76f 81bf aa2f d53f b800 f23e 9f95 213f
00000330: 71fd 17c0 0ac7 a63e d379 d3bf ae88 b3bc
00000340: affe 383f 18c9 ae3f f5bd e6bf db46 bcbf
00000350: 0c7a d73e 12cd 26bf 5cdb 2d3e 2d90 cfbf
00000360: 191d 8d3f 1de3 093f 7eff 2b3f b908 183f
00000370: f78f 1ebe 107d b7bf cf2a 25bf 7621 66bf
00000380: 8107 4cbf 08df f23d 8fbc 64bf 5cad c83f
00000390: 6b5d 973e 2686 45be 77b3 7ebf fbb3 4bbf
000003a0: fb36 f7bf 7aff 45bf 7afe 8a3c bafa 7e3f
000003b0: 53fd f8be c903 17bf 73de 2640 c81c 97be
000003c0: 3a70 bc3d 72e4 403f 0a93 323f 0e75 d53e
000003d0: e473 813e 25ba e0bd 2c4c 0fbd 503b 623f
000003e0: f48c 3bbf 424b 72bf 4862 943e c829 5dbf
000003f0: 8a80 67bf 1853 053f 0ba1 f63f ad95 a3bd
1.5463159 0.68950325 -1.2249517 -0.1359424 0.018190458 1.7195324 -0.8725697 0.47772685
1.8003868 -0.17971957 1.1592914 0.51425856 1.2163622 -0.98593545 -0.18347448 2.5986927
-0.35682207 -0.5613871 -0.48472762 -0.21328019 0.43479982 -0.6990602 -0.09991216 0.027720688
0.39867875 0.589423 0.16679093 -0.20075989 1.8484145 -0.34995443 -0.33859608 0.34420624
-0.48500755 1.1050972 -1.2942456 1.8455156 0.8727664 0.31982058 -0.39613664 -1.4559965
0.021818064 -0.18006587 -0.8546928 -0.8275553 1.1838055 -1.417114 0.3329475 -0.1700943
-0.6673116 -0.34803984 0.08530485 -1.0691925 0.31048384 -1.498677 0.08894272 0.14513132
-0.60838443 0.36855665 -1.5188762 0.0015931287 0.61689454 1.0581453 0.20448673 0.30659977
-1.6490129 0.48933926 2.3017845 1.4493341 0.40121204 1.381246 -0.7150161 -0.6911917
-1.1547672 0.43736246 0.6375409 0.840976 -0.85648364 -1.4949117 -2.4378912 1.2613328
0.23440577 -1.913399 1.016003 -0.34041184 -1.4867821 -0.9543066 -0.43668172 0.9098171
-1.0458008 -1.1880553 -0.9388721 0.38722745 0.4596233 2.44392 0.31968552 -1.2415317
0.5268137 1.444429 -0.7567182 0.8196581 0.5748412 1.3183801 0.84573025 0.18329622
1.060341 2.5140693 -1.6926244 -0.818439 -0.8136406 0.18390584 -0.52025884 -0.13149776
0.77301747 -1.8334706 -0.3844931 0.5848478 -0.37754658 0.85730624 1.0851507 -1.9363694
0.22068608 0.41510195 -1.4277077 -0.08581494 -0.7933152 -0.3029812 1.8889831 0.7225338
0.059658382 1.2706028 -0.10142949 -2.3024266 -1.7743759 0.2793809 0.9362186 -0.045722462
0.024047036 -0.8501944 -0.3921972 -1.390579 -1.3801823 0.56317043 1.5605906 -0.908822
0.6438482 0.10771322 -0.22625399 -2.0103772 1.3599876 -1.6543463 -1.1638628 -0.57595307
0.5503815 -2.1015854 0.1382049 -1.096941 -1.5357525 -1.2123585 1.2149293 0.39401
-1.3447365 -1.9539578 -0.14718634 0.27740663 0.22791329 -0.35200897 0.40704608 -0.1073646
0.30246484 -1.4110951 0.0015682711 0.3623158 1.524835 1.5353038 -1.1596205 -2.1257763
1.1402831 0.8245315 0.18078803 0.6087245 -0.055595297 0.36312798 -0.5176024 0.4607076
0.48463356 -1.2868005 0.33057335 0.34242868 1.3447232 -1.4298353 0.7757914 0.26897833
1.0683069 0.6100444 1.8223559 0.430707 1.0604696 0.7466452 0.32546026 -0.09362655
-1.0112275 1.6655171 0.47266173 0.6311893 -2.3748438 0.3257373 -1.6521553 -0.02191576
0.72263616 1.3655119 -1.802672 -1.4709123 0.42085302 -0.6515666 0.1697821 -1.6215874
1.1024505 0.5386217 0.67186725 0.5938831 -0.15484606 -1.4335041 -0.64518446 -0.8989481
-0.7969895 0.11858946 -0.8935022 1.5677905 0.2956346 -0.19289455 -0.9949259 -0.79571503
-1.9313654 -0.7734295 0.016967047 0.9960133 -0.4863077 -0.5899015 2.6073272 -0.29514146
0.09201093 0.7534858 0.69755614 0.41690868 0.2528373 -0.10973004 -0.034984753 0.88371754
-0.7326195 -0.94646084 0.28981233 -0.8639188 -0.9043051 0.52079916 1.9267896 -0.07987533

feature_bias f4 [3750]
00000000: 3636 6640 3ab0 be3e 8c9e b640 f9e1 4f40
00000010: 2ffe 3940 4e21 6e40 8940 8540 aeb1 863f
00000020: 1519 9540 6f31 4240 eb0a 9640 7b38 9f40
00000030: 1f7b d93f 66fa 4e40 fffc 3740 fffb 8840
00000040: 6061 833f 193a 463f d527 9640 7ffe 9d40
00000050: 48b8 2c40 e14c 603f 404e 3440 a0e4 9c40
00000060: f9da 6840 4a15 303f 33b6 553f 723e 6640
00000070: 3363 f43e 5c45 e93f 39cf c53f db79 9a40
00000080: f2b8 4040 38d9 f93f 615e 2740 9cbb 2d40
00000090: b8a1 943f dcd9 2e40 ffb3 e33f 283f 1740
000000a0: c6d5 a640 fcf0 a440 fa01 c93f 7611 6140
000000b0: a01b 2640 b371 0a40 45bb 663f 61ec c540
000000c0: 5939 8440 9763 7c3f 2781 a93f 51b9 1440
000000d0: 7a91 b240 1d9e c740 1536 1240 f192 7740
000000e0: 924d 3d40 deaa b73f adfe aa40 5167 873f
000000f0: d3fc 9d40 5e0e 8c40 8d4d 2440 f479 6e40
00000100: 7ffc b93f cd52 6a3f f063 a640 140f ba40
00000110: 20a4 7d40 3a20 ad40 4d59 6540 73c2 983e
00000120: 1eb6 ba3f 3c2b 5140 a2e5 8440 e051 b83f
00000130: b9bb c440 213a c140 18ed 4640 dae0 3d40
00000140: 3650 b13f 8ac2 aa3f fc7e 7740 bea6 a740
00000150: 6b2b 9540 f605 cc3d 9273 7e40 c1dd 2640
00000160: c300 5640 9f9d 413f 6edc df3f 11e7 bd3f
00000170: 3be1 673f b24a c140 da22 e23f 8b5d 263f
00000180: 6be9 333e df20 2a40 2a27 1940 54d6 1240
00000190: db38 b840 aa4b 7b40 003b 8b40 8ed1 c13f
000001a0: c5ac af40 c326 8340 826c a340 d414 5440
000001b0: 3eb1 6240 156c 2140 67c3 b240 1a9e 903f
000001c0: 8d41 b440 6332 9c40 725f 2a40 6901 a040
000001d0: e1b5 2640 7b2d af40 17d0 3740 4696 2340
000001e0: cea8 aa3f b170 5340 6b0c a540 7c35 b640
000001f0: 025b b93f 138b 8d40 0029 dd3e 7b62 2e40
00000200: cca4 8440 29d6 a540 3c07 d33f 1d44 7140
00000210: 9bbd 3240 9f64 0240 796f 2640 5300 7140
00000220: 06a4 9140 cd39 9940 fdca 983d aa33 7040
00000230: af94 9940 c8c3 4c3f 6920 8040 4b40 3f40
00000240: c9c9 9b40 9c48 4a40 732c 8e40 ee25 8940
00000250: 8dc3 a840 f5ca 0740 fdec 5940 b6a3 cb3f
00000260: 627b ce3f 229d 7b3f 86ae b23f bbca 413f
00000270: 8554 3640 c218 ad40 6d37 893f c7bd 0540
00000280: 46ad 5440 6afc 9a3f ac9a 8740 07ee a440
00000290: 4ea4 0e3d 60bb 0e3e fdcd a340 b37a 1b40
000002a0: dc66 7540 9334 1640 a8cb d73f 49c1 be40
000002b0: bbc7 473f 1afe 5840 ed2d a740 84dc 3e40
000002c0: 9c81 923e b8a8 c140 0265 653d 35d1 be40
000002d0: 839f bd40 4572 9340 28b3 c840 7e25 6840
000002e0: ed66 be40 c303 3640 fcdc db3f 039b 2c40
000002f0: 2f4d 1740 576b 7140 b2e2 8640 906b 9540
00000300: b0f7 8340 8839 883f 860d b540 b080 9440
00000310: f108 fd3f ddbd 2c40 bb03 af40 2288 5a40
00000320: 6c64 6a3c 3837 9940 ffa2 cd3f 53c5 c23f
00000330: 9fb6 853f 02e1 6540 ceea b73f 238a c840
00000340: 3a06 3a3e e0b2 c53f f893 d73f a107 4c3f
00000350: 90e7 c340 7c53 b040 d695 123f e264 b440
00000360: 22a6 a340 cbfe 8e40 5a6b 8c40 7040 b140
00000370: 7381 9640 a362 2140 72c4 8b40 a35d aa40
00000380: 33f6 8440 c762 b040 c884 9440 90e3 bb3f
00000390: 6af2 5a40 654e 9d40 918a d73f 2500 543f
000003a0: a7bd c840 b4ae a640 0ce4 6340 c2e8 4240
000003b0: 2c58 9940 f861 c240 eaa6 ab40 6652 163f
000003c0: 17dd 1140 b775 803f 376b 1c40 64bd 3040
000003d0: 2fe2 0e40 a57b c040 7ff8 b840 5109 c53f
000003e0: f7f6 a23f edf9 8f3f f8ba 8040 5d28 aa40
000003f0: 0ad0 e83f a1ca 4e40 15d3 4940 758b c640
3.5970588 0.37243825 5.706854 3.2481673 2.9061391 3.7207828 4.164128 1.0522974
4.659312 3.0342672 4.6888328 4.9756446 1.6990699 3.234033 2.8748167 4.2807612
1.0264091 0.774324 4.6923623 4.9373164 2.6987476 0.8761731 2.817276 4.9029083
3.638365 0.68782485 0.8348114 3.5975614 0.47731933 1.8224292 1.5453864 4.827375
3.0112882 1.9519415 2.6151354 2.7145758 1.1611853 2.732047 1.7789305 2.3632298
5.2135954 5.154417 1.5703728 3.5166907 2.595436 2.1631896 0.901295 6.185105
4.1320004 0.9858946 1.3242539 2.3238108 5.5802584 6.238051 2.284551 3.8683436
2.9578595 1.434902 5.3435884 1.0578405 4.9371123 4.376754 2.5672333 3.7261934
1.4530181 0.91532594 5.1996994 5.8143406 3.9631424 5.410184 3.5835755 0.29835853
1.4586828 3.2682638 4.1530313 1.4399986 6.1479154 6.038346 3.108221 2.9668489
1.3852603 1.3340619 3.8671255 5.2391043 4.66155 0.099620745 3.9758039 2.6072848
3.3437965 0.75631136 1.7489145 1.4836141 0.9057805 6.040368 1.7666886 0.64986485
0.1756951 2.6582563 2.3930154 2.2943316 5.7569404 3.9264932 4.350952 1.5142076
5.48984 4.0984817 5.1069956 3.3137712 3.542068 2.5222218 5.586353 1.1298249
5.633002 4.8811507 2.6620755 5.000172 2.604851 5.474302 2.8720758 2.556047
1.3332765 3.3037531 5.157766 5.694029 1.4480898 4.423227 0.43195343 2.7247608
4.145117 5.1823926 1.6486583 3.7697823 2.7928226 2.0373914 2.6005538 3.7656448
4.5512724 4.7883058 0.07460592 3.7531533 4.7994 0.7998624 4.0039563 2.9882991
4.868382 3.1606817 4.442926 4.28588 5.273871 2.1217625 3.4050896 1.5909336
1.6131403 0.9828664 1.395951 0.7569997 2.8489087 5.409272 1.072004 2.089708
3.3230758 1.2108281 4.237631 5.154056 0.034824662 0.13938665 5.118895 2.429364
3.834403 2.3469589 1.6859026 5.9610944 0.7803914 3.3905091 5.224356 2.9822092
0.2861451 6.0518456 0.05600453 5.963038 5.9257216 4.607699 6.2718697 3.6272883
5.950064 2.8439796 1.7176814 2.6969612 2.364086 3.7721765 4.215173 4.66938
4.1239853 1.0642557 5.657901 4.640709 1.9768354 2.6990883 5.4692054 3.414559
0.014306169 4.7879906 1.6065367 1.5216469 1.0446357 3.5918584 1.4368532 6.2668624
0.18166438 1.5445213 1.6842031 0.7969914 6.122017 5.510191 0.5725988 5.637315
5.11403 4.4686027 4.3881044 5.539116 4.703302 2.5216453 4.36773 5.3239303
4.1550536 5.512058 4.6412086 1.4678822 3.4210458 4.9158196 1.6839162 0.8281272
6.273151 5.208826 3.5607939 3.0454564 4.792013 6.074459 5.3641253 0.5871948
2.2791193 1.0035924 2.4440439 2.7615595 2.2325552 6.0150933 5.780334 1.5393468
1.2731618 1.1248146 4.0228233 5.317427 1.8188488 3.2311175 3.1535084 6.2045236

linear.weight f4 [1, 3750]
00000000: 1673 863e c8b6 9ebf 6e6e 1bbf d004 d33f
00000010: 19b8 cf3f c75f f23d 16db 8c3e 4fcc 63bf
00000020: dc67 d83d 7e78 d23f 5426 8e3e 4c36 15be
00000030: 1f24 2bbe c182 573f 449b ce3f dc05 b13c
00000040: 8638 26bf 65a2 53bf c9ce 36be 0c56 f1be
00000050: 2d34 a03f 2a96 12bf 2dcf ce3f eab4 a4be
00000060: 26ec b73f 1ae6 96bf 38da 95bf f95b b73f
00000070: b80f 24bd c677 0e3f 8e3e e93d 6816 f6bc
00000080: 1562 bb3f a17b 1a3d ce23 033f 5442 83bc
00000090: 432d 25bf 6955 b33f 414c 013f 34dd a93e
000000a0: 444e 50bf bfc9 46bf 66e8 933e e4f3 643f
000000b0: 8b14 c83e c225 ad3e b0d2 8cbf 9a73 d2bf
000000c0: 2a6d fa3e a5e6 37bf 66e2 dfbe 2595 323f
000000d0: d3e6 8fbf cc4f 83be fa20 893f e5d1 a43f
000000e0: 04b6 ad3f db2c c3be a5ad 8dbe 7841 58bf
000000f0: a4f3 29bd 1cbd 013f b542 aa3f 5d00 b33f
00000100: ed3d ea3d 5266 86bf 422d dd3d 880c 47be
00000110: ab45 953f 7f19 afbd 969d 7c3f 2d35 8bbf
00000120: 9083 2d3e 6791 c03f 9c2c 6a3f 982f d0be
00000130: 2836 87bf 7528 93be 5826 dcbd 2158 ee3e
00000140: 30d8 cdbe 9644 7d3d 259b 483f c20a 6cbf
00000150: 1627 1abe f695 5ebf 011e 5e3f 8b6f 333f
00000160: 3d95 333f 032f 8fbe 3338 d93e 8f35 98be
00000170: 3480 8abf c546 f33d 1128 2b3e 2bf6 97be
00000180: a158 b5bf d468 4d3e 3357 853f 22c4 003f
00000190: 7d18 88bf 1069 ed3e 07c6 213f 42ec 42be
000001a0: 9a9e b6be 656f 77bc ea85 0ebe 0915 813f
000001b0: 3080 663f 8d1d a53f dcc0 9cbf 0f3c 26bf
000001c0: 3b2d 3fbf 639c bfbd f446 b83f f672 0ebe
000001d0: 6a25 b43f 60b5 05bf 6560 1f3f 350b c338
000001e0: 50b4 f9be b145 c43f e7b8 a2be fee9 b4bf
000001f0: ac46 113e 58f4 a63e 5089 a7bc 46df 7b3f
00000200: ffd8 6c3f 8b3d 08bd 59bb 3d3e adcb d2bd
00000210: 63de 943d c09b 193f 01d0 263f ec70 ac3f
00000220: 9e79 8d3e aaa2 b3be accc c2bf ba4c 483e
00000230: 2ec6 65be ebaa 8fbf ffab 743e dda8 7e3f
00000240: d980 433d 6362 d63f ce1b af3e cf99 78bd
00000250: 5d68 38bd 7b89 203e 9b18 103f 22cf 8f3e
00000260: 3e3b 32be f0ba cf3d 169e bcbe cb8e afbe
00000270: cac1 893e 3986 0cbf 37c9 f3be 36da 183f
00000280: c9a8 b73e 06b4 863d 49b9 333f 348d 0ebf
00000290: cbac d0bf fb79 c3bf 3851 d4be c89e a53f
000002a0: a4c4 a93f 33f5 c33e 0719 493e a9ed b5bf
000002b0: 2bba 96be 6301 7f3e 6ac3 09bf 261f a0bd
000002c0: 671e 33bf 13d5 76bf c464 d4bf 6fd9 97bf
000002d0: f4cf cbbf b41a a83e 47b3 b7bf e65f b13f
000002e0: b2e7 a6bf 6b31 053f f439 bc3d 3713 ac3f
000002f0: eced 103e 757f 233e cd94 453f 0075 4a3e
00000300: b26a 233f 6eaa 59bf e9d0 153d d0a2 9f3e
00000310: 656c 763d 2e2a 6f3f 4f41 79bf c241 ce3f
00000320: 8b4e 50bf acf5 df3d c66e 20be 9ebd 9fbe
00000330: 76fb c43d 4fc7 bd3f 5ba1 fb3d 55e4 d5bf
00000340: bb4a 9bbf cd30 4fbe f3a0 ab3d 8009 a2bd
00000350: 0b20 bcbf f878 8bbf c1de b9bf 72fb 47be
00000360: faf7 5cbd 559d 0d3f d87c 273f 5f8e 53bf
00000370: ec2f 3ebd 7d6b ba3e b31f 4a3e 40e1 48bf
00000380: 916b b33e 18ee 93bf 44de 5ebe 7cfd 2cbe
00000390: bb2b c93f e112 d2be fa4e c13e ccd9 0dbf
000003a0: cf8f ce3c 1c9b 43bf 0139 c63f cf63 4d3f
000003b0: 6387 9fbe 4df9 aebf 3a6d ed3d 5ca3 9fbf
000003c0: 0ab8 863f 0f39 55bf 3c97 473f cff1 a93f
000003d0: d5dd 623f 192c d1bf 3b70 bfbf e11a 96be
000003e0: 6261 9fbd 1b32 0cbe d128 913f 3090 4bbf
000003f0: 9148 043f 72d6 b53f 06af 40bd a4fc d7bf
0.2625968 -1.239953 -0.6071538 1.6485844 1.6228057 0.11834674 0.275109 -0.88983625
0.105666846 1.6443021 0.27763617 -0.14571494 -0.16712998 0.8418389 1.6141133 0.02160924
-0.6493 -0.8266967 -0.1785232 -0.4713596 1.2515923 -0.5726038 1.6156975 -0.32169276
1.4368942 -1.1788971 -1.170722 1.4324943 -0.040054053 0.5565151 0.113888845 -0.030039981
1.4639307 0.037715558 0.5122651 -0.016022839 -0.6452219 1.401044 0.5050698 0.33176577
-0.81369424 -0.7765159 0.28888243 0.8943465 0.39078173 0.3381787 -1.1001797 -1.6441529
0.4891141 -0.7183631 -0.43727416 0.69758826 -1.1242317 -0.25646818 1.0713189 1.2876555
1.3571172 -0.3812016 -0.27671543 -0.844749 -0.04149212 0.50679183 1.3301607 1.3984486
0.11437593 -1.0499976 0.10799648 -0.19438374 1.1661886 -0.08549785 0.9867796 -1.0875603
0.16944718 1.5044373 0.9147432 -0.4066131 -1.0563402 -0.28741804 -0.10749501 0.46551612
-0.40204 0.061832987 0.7836173 -0.92203915 -0.15053973 -0.8694757 0.8676453 0.70092076
0.70149595 -0.27965555 0.4242569 -0.29728362 -1.0820374 0.118787326 0.16714503 -0.2968
-1.4167672 0.2005952 1.0417236 0.50299275 -1.0632473 0.4636922 0.6319279 -0.19035438
-0.35667878 -0.015102242 -0.13918272 1.0084544 0.9003935 1.2899643 -1.2246356 -0.6493539
-0.7467839 -0.09356 1.4396653 -0.13911042 1.4073918 -0.5222988 0.6225646 9.300412e-05
-0.4877038 1.5333768 -0.31781694 -1.4133909 0.14187115 0.32608294 -0.020451218 0.98387563
0.9251861 -0.033261817 0.18528499 -0.10292754 0.072689794 0.6000328 0.6516114 1.3471961
0.2763185 -0.3508504 -1.5218711 0.19560519 -0.22438881 -1.1224035 0.23893736 0.99476415
0.0477303 1.6748775 0.342009 -0.06069356 -0.045021404 0.15677445 0.56287545 0.28087717
-0.17405412 0.101430774 -0.3683936 -0.3428863 0.26905662 -0.5489231 -0.47614452 0.59707963
0.3587096 0.065773055 0.702046 -0.5568421 -1.6302732 -1.52716 -0.41468215 1.2939081
1.3263135 0.3827301 0.19638453 -1.4213153 -0.2943891 0.24902873 -0.53813803 -0.07818441
-0.69968265 -0.96418875 -1.6593251 -1.186323 -1.5922837 0.32832873 -1.4351586 1.3857391
-1.3039458 0.5202853 0.09190741 1.3443364 0.1415326 0.1596659 0.77180177 0.19771194
0.6383468 -0.8502568 0.036576185 0.31178904 0.060161967 0.93423736 -0.9736528 1.6113818
-0.8136985 0.1093553 -0.15667257 -0.31199354 0.09618275 1.4826449 0.122866355 -1.6710306
-1.2132181 -0.2023346 0.08380308 -0.07911968 -1.4697279 -1.0896292 -1.4521104 -0.19529513
-0.053947426 0.55318195 0.6542487 -0.82639116 -0.04643242 0.36410132 0.19738655 -0.78468704
0.35043004 -1.1557035 -0.21764475 -0.16893572 1.571647 -0.41030028 0.37755567 -0.55410457
0.025215058 -0.76408553 1.5486146 0.8023042 -0.3115798 -1.366983 0.11593099 -1.2471728
1.0524914 -0.8329019 0.7796514 1.3276919 0.8861974 -1.6341583 -1.4956125 -0.29317382
-0.07782246 -0.13690989 1.1340581 -0.7951689 0.5167323 1.4206069 -0.047041915 -1.6873975
