results/SNGP_FINAL_RESULTS/SNGP/SNGP_R250_LS0.25_OS2.75_25000CrazySin/model.pt (torch, 4806 bytes, 3 tensors)

feature_weight f4 [250, 1]
000000 a2 dd 2c bf e8 a5 d6 3f a3 8b c6 be 5e 5e a6 3f
       -0.67525685 1.676938 -0.3877841 1.2997549
000010 9c 4c 94 be 64 b3 3f 3f 8d d6 1f 3d 42 fe 91 3f
       -0.28964698 0.74883103 0.03902297 1.1405718
000020 f1 5a 81 3f 40 11 25 3f 85 b6 c0 bf a5 a4 ec 3f
       1.0105878 0.64479446 -1.50557 1.8487746
000030 04 89 8b bf e1 b9 72 3d 72 dc a6 3f 52 eb 0c 3f
       -1.0901189 0.0592593 1.3036025 0.5504657
000040 cc d9 5f 3e 80 13 a1 3e 72 59 f9 3e 90 2c 98 3f
       0.21860427 0.3146019 0.48701054 1.1888599
000050 54 1a 9a 3f b5 db 61 3f 97 25 4f bf 63 10 3a bf
       1.2039285 0.8822587 -0.8091673 -0.72681254
000060 0f 9c 23 bf e1 ad 8b bc 8a 8a 0e 3f 3a 16 d7 bf
       -0.6391 -0.017050685 0.55680144 -1.6803658
000070 e3 2e a2 3d bc 2f 42 3d 03 65 10 c0 4d 3d 04 3f
       0.07919099 0.047408804 -2.2561653 0.5165604
000080 dd 3a d1 be c3 e6 9d 3f 50 0a 8f 3f 57 1f 07 40
       -0.40865222 1.2336048 1.1175022 2.1112878
000090 3f 0c 1e 40 3a 61 10 bf 7c 34 56 3e a8 da 99 bf
       2.4694974 -0.56398356 0.20918459 -1.2019854
0000a0 a4 6f 2f 3e 9e 02 50 bd 66 a7 9a bf 0a 7d 71 3f
       0.17132431 -0.050783746 -1.2082336 0.9433142
0000b0 f8 a7 99 bf 21 54 00 3f 43 95 eb 3d d9 a2 f4 3e
       -1.2004385 0.5012837 0.11503079 0.47780493
0000c0 5e c1 b9 3f 40 8b 3e bf 49 1f ed be d6 13 8b 3f
       1.4512136 -0.7443123 -0.4631293 1.0865428
0000d0 35 c3 ac 3f 7f 35 e1 3e c0 fe df be 48 67 e3 3e
       1.3497072 0.43986127 -0.43749046 0.44414735
0000e0 d4 e8 cd 3f 28 0b 1a bf 32 e1 42 3f eb 5c 69 3f
       1.6086679 -0.60173273 0.7612487 0.91157407
0000f0 43 fb 4c bf b5 b3 80 3f a6 6f 0e 3f bc fa 23 bf
       -0.80070895 1.0054842 0.5563911 -0.64054465
000100 5c 93 96 3f ed 5a 06 40 b1 74 f3 3c 06 77 46 3f
       1.176372 2.0992997 0.029718729 0.77525365
000110 3e 46 bf be e5 ea f8 3e 27 f1 3a bf f9 49 5c be
       -0.37358278 0.4861671 -0.7302422 -0.21512593
000120 0f d3 c4 bc 76 c9 32 3e 8d 96 93 3f 08 f8 33 3f
       -0.024026422 0.17459664 1.153032 0.7030034
000130 b7 8a 60 3f 59 24 fa 3f 84 41 29 bf 38 13 92 3f
       0.8771166 1.9542342 -0.66115594 1.1412115
000140 82 05 db bf d5 34 54 bf 05 df d5 bf ac 5d bb 3f
       -1.7111056 -0.82893115 -1.6708685 1.4637961
000150 a0 bd 64 bf 71 23 01 bf 01 83 07 bf f4 1c 83 3f
       -0.89351845 -0.50444704 -0.5293427 1.0243211
000160 b1 56 c0 3e 9f ca 1d 40 c4 00 d2 3e f0 e5 c0 bf
       0.3756614 2.465492 0.4101621 -1.5070171
000170 7d 3b 04 c0 7a 6f 56 3f 3b 32 af 3f 04 22 3b bf
       -2.0661309 0.8376385 1.3687204 -0.7309878
000180 71 11 98 3f 25 60 04 3f 0c e7 ea bf 01 58 c2 bd
       1.1880323 0.51709205 -1.835176 -0.09489442
000190 5f cf 87 be 9b 55 d3 3e 52 c5 55 be df a0 3e 3f
       -0.265254 0.4127625 -0.20876053 0.7446422
0001a0 dd 27 11 3f 99 3f d9 3e 64 a4 bb 3e 8b 29 f8 be
       0.5670145 0.42431334 0.36648858 -0.48469195
0001b0 ad 11 9d 3e eb a4 1b bc 6f 5f 09 3f 73 43 77 3d
       0.30677548 -0.009499769 0.53661245 0.06036706
0001c0 bc 2a 6c bf d7 b9 57 3f 6c 31 4d bf 22 8f 92 bf
       -0.9225271 0.84267944 -0.80153537 -1.1449931
0001d0 72 2d 73 bd be 78 a7 3f d4 b4 2b be eb 75 c6 bf
       -0.059369512 1.3083723 -0.16768199 -1.5504736
0001e0 3d 8e df bf af fe 81 3f 1b f0 98 bf 4e df a5 be
       -1.7465283 1.0155848 -1.1948274 -0.3239693
0001f0 76 c7 2d 3f 86 23 7e bf 9d 60 79 bf 21 3e 9c 3f
       0.6788248 -0.99272954 -0.97413045 1.220646
000200 0c 51 c3 bf 97 87 89 3f 6d 89 1c c0 04 10 16 3f
       -1.5259109 1.0744504 -2.4458878 0.5861819
000210 94 4e c5 be ec 7d 31 3f 8a 1d e0 3f ae f0 b6 3f
       -0.38536513 0.69332767 1.7509015 1.42922
000220 09 cb 4f bc 79 68 e7 3e e1 c6 74 bd 4c 05 2f 3e
       -0.012682685 0.45196894 -0.05975998 0.17091864
000230 81 2b 42 40 7e f5 2d bf 5f ad b3 bf 80 eb e1 bd
       3.0339053 -0.67952716 -1.4037284 -0.11031246
000240 fe 2d c8 3e 54 7f 48 bf 73 95 66 3f 8f 16 b2 be
       0.3909759 -0.7831929 0.9007179 -0.34782836
000250 ee 58 c1 3e 1f a9 c8 3f 59 74 1b bb 45 76 27 3e
       0.3776316 1.5676612 -0.0023720472 0.1635371
000260 54 e7 ce bf 18 ce 8b 3e 35 a2 d0 3f ce b5 54 3f
       -1.6164346 0.27305675 1.6299502 0.8308991
000270 50 07 f2 be e1 7b c2 3e a3 4f 0f 3f 69 0b 43 be
       -0.47271204 0.37985137 0.5598089 -0.19047321
000280 3c bd 77 3f a2 af 26 3f d7 03 1f 3f c4 08 e6 bf
       0.96773124 0.65111744 0.62115234 -1.7971425
000290 7e da 8c bf 83 58 fd be 53 8c 94 be c3 21 3d 3f
       -1.1004179 -0.49481592 -0.2901331 0.7387964
0002a0 e5 a0 c5 3f 48 ba 6c bf 72 ac 8d be f5 19 f6 be
       1.5439726 -0.9247174 -0.27670628 -0.4806668
0002b0 f7 2b 09 bf bd d5 d2 be 16 56 60 3f 08 70 7e 3f
       -0.5358271 -0.41178694 0.87631357 0.99389696
0002c0 f3 e0 be be 46 d6 4f bf e0 dd 16 3f 38 dd e9 be
       -0.37280998 -0.8118633 0.58932304 -0.4567659
0002d0 29 e0 06 be f3 31 04 3f 0a cb 88 3f 20 04 f2 bf
       -0.13171448 0.51638716 1.0686963 -1.8907509
0002e0 48 30 e2 bf 2f e6 13 3f ce 7d 1f be 9a 65 e2 be
       -1.7670984 0.5777311 -0.15575334 -0.4421814
0002f0 da b8 26 3e 1c 6b ad bf 87 83 8b 3f d2 a5 b4 3f
       0.16281453 -1.3548312 1.0899514 1.4113104
000300 26 4a 21 3e fe fd 04 c0 cc 78 91 3f 7d 63 80 be
       0.15750942 -2.0780025 1.1364989 -0.25075904
000310 96 26 69 3f 05 d2 9a 3f 9b ed 10 3f ae 18 e0 3e
       0.910745 1.2095343 0.5661256 0.4376883
000320 09 58 15 bd ce f8 ab be 8d 05 15 3f 6e 7a 85 be
       -0.03646091 -0.3358826 0.58211595 -0.2606997
000330 de 59 4a c0 5f 8e 20 bf f8 ad c0 be 47 ce c3 3e
       -3.161735 -0.6271724 -0.37632728 0.38243315
000340 ba ae ce bf 10 e2 95 3f 00 ae 83 3e f6 09 2a bf
       -1.6147072 1.1709614 0.2571869 -0.6642145
000350 0e 3b 05 bf 93 9f 63 be 28 9d 25 3e 9d f8 87 be
       -0.52043235 -0.22228841 0.16173232 -0.26556864
000360 e7 98 0f c0 6e 65 9a 3f f2 51 b0 3f 12 f2 45 3f
       -2.2437074 1.2062204 1.3775008 0.77322495
000370 76 12 f1 be cf ea 7f bf 00 8e f1 be 81 9a d0 3f
       -0.47084397 -0.99967664 -0.4717865 1.6297151
000380 7f f4 40 be 7c e5 7c bf a5 b7 3d 3f c4 5a b8 3e
       -0.18843268 -0.98787665 0.74108344 0.3600675
000390 7c c6 67 3e d5 a1 e0 bf d5 39 90 be 1e 99 c2 bf
       0.2263431 -1.7549387 -0.28169122 -1.5202978
0003a0 4f 2a 4a 3e db e5 ac bf 55 ee 4a bd 0f f6 ec 3e
       0.19742702 -1.3507646 -0.049543697 0.46281478
0003b0 7c 51 3e be 6a c9 51 3c 16 51 40 3e a4 2c cf 3e
       -0.18585771 0.0128043685 0.18780932 0.40463746
0003c0 4a 19 c6 be 53 a0 ea 3f 64 a0 c5 3e 1b 95 e0 3d
       -0.3869117 1.8330177 0.3859893 0.109659396
0003d0 79 e7 82 bd cb e0 34 be b7 1b 9b 3e c1 ac 9c 3e
       -0.06391806 -0.17663877 0.30294582 0.3060055
0003e0 61 f9 c4 bf fc ee bc 3e
       -1.5388604 0.3690108

feature_bias f4 [250]
000000 45 fb 83 40 ca c2 82 40 1e 08 9c 40 70 2f 03 40
       4.1244226 4.086278 4.875991 2.0497704
000010 ab ab 35 40 1e 8c 36 40 29 95 04 40 c2 89 60 40
       2.8386028 2.852302 2.071604 3.508408
000020 bc 19 97 40 bc bd c5 3f cf 67 7c 40 26 5a 22 40
       4.7218914 1.5448527 3.943836 2.5367522
000030 38 31 12 40 cf 06 b7 40 87 38 a5 3f 4b e3 a2 40
       2.284254 5.719581 1.2907876 5.0902457
000040 97 3c b5 40 34 f3 e5 3f 4b a4 52 40 29 9b 80 40
       5.663646 1.7964845 3.2912776 4.0189404
000050 34 25 97 40 da ea 3e 40 2d 0c 4a 40 ec d0 1e 3d
       4.7232914 2.9830842 3.1569932 0.038773462
000060 82 89 a9 3f 8e 6c b6 40 fc a5 c7 3d 42 f8 65 40
       1.3245089 5.7007513 0.09748456 3.5932775
000070 52 b2 fa 3f 4e 16 ab 3f a9 99 80 40 a7 92 3e 3f
       1.9585669 1.3366182 4.0187573 0.74442524
000080 eb 5a dc 3f df 41 cb 3f 74 c6 eb 3f a7 cc ae 3e
       1.7215246 1.5879477 1.8419938 0.34140512
000090 2d 2c e5 3f 7f cb 28 40 71 66 e9 3e c9 af 4e 3f
       1.7904106 2.6374204 0.4558597 0.80736977
0000a0 47 8b 19 40 e5 c7 23 3e 99 66 aa 40 11 25 97 40
       2.3991258 0.15994222 5.325024 4.7232747
0000b0 6f e9 c6 40 05 55 a8 3f f9 71 87 40 19 9a f2 3f
       6.2159953 1.3150946 4.2326627 1.8953277
0000c0 1a e1 55 40 1e 6d f0 3f 44 da a8 3f 74 c2 15 3f
       3.341864 1.87833 1.3191609 0.58499837
0000d0 a6 c0 6b 3e 51 f3 6b 40 af c9 ab 3e 5d 8b 3a 40
       0.23022708 3.6867259 0.3355231 2.914756
0000e0 63 c6 8c 3d 58 87 73 40 c8 c6 b1 3e 12 fb 3b 40
       0.06873777 3.8051357 0.3472197 2.937199
0000f0 4e 89 ae 3f 66 0f 56 40 ac 6b cc 3e 96 d0 de 3f
       1.3635652 3.3446898 0.39925897 1.7407405
000100 a3 9a 83 3f 9d 5f ca 3f e5 1b b0 40 4c 2e d0 3f
       1.0281566 1.5810429 5.503405 1.6264129
000110 1d 94 a4 40 a3 9b f3 3f cc ae bf 40 23 f1 2b 40
       5.14308 1.9031872 5.9900875 2.6865928
000120 4c 0e 89 40 35 56 9f 40 cd ab 85 40 e3 7c b5 40
       4.282995 4.9792733 4.177222 5.671495
000130 b3 ee 92 40 7c 9c 41 40 00 e5 78 3e a4 94 9c 40
       4.591638 3.025176 0.24306107 4.8931446
000140 65 23 9d 40 ed cc a0 40 ee f0 b8 40 d6 bc 35 40
       4.9105706 5.0250154 5.7794104 2.8396506
000150 d0 48 90 40 af 86 c5 40 b9 99 26 40 2e ef f6 3e
       4.5088882 6.172691 2.6031325 0.48229355
000160 3b 7d b9 40 70 63 a1 40 a9 91 57 3f 26 37 ac 3e
       5.796537 5.0433884 0.84206635 0.33635825
000170 4a 76 03 40 3d 48 ba 40 89 0e 05 40 85 01 92 40
       2.0540948 5.821318 2.0790122 4.5626855
000180 ee 5b 4e 40 9e ab c3 40 b5 6c da 3f 47 2e 6a 3f
       3.224361 6.1146994 1.7064425 0.91476864
000190 1c c2 c5 40 72 07 16 3e fa 9f 37 40 3e 95 80 40
       6.179945 0.14651278 2.8691392 4.018218
0001a0 5e 85 50 40 ec 30 b7 40 87 67 a2 40 1a 0d bf 40
       3.25814 5.724722 5.0751376 5.9703493
0001b0 ee 4b af 40 e2 b5 46 40 bf fb 37 40 ba 1d 2a 40
       5.4780188 3.1048512 2.8747404 2.6580644
0001c0 3d 9f 3e 40 8a 03 78 3f df 10 07 40 6b 25 4d 3e
       2.9784691 0.968804 2.1104047 0.20033805
0001d0 01 b5 c3 40 8a d8 31 40 c0 6f b5 40 f5 57 ce 3f
       6.115845 2.7788415 5.6698914 1.6120592
0001e0 11 ab b3 3f 49 71 6f 3f c5 99 89 40 89 2f 43 40
       1.403658 0.93532234 4.3000207 3.0497763
0001f0 e7 e0 97 3f 2b 61 89 40 a6 ed 15 3f b4 fb 78 40
       1.186551 4.2931113 0.5856575 3.8903627
000200 85 7a e9 3e c2 e4 a3 40 5c 1c 20 3f 5a 13 57 40
       0.45601287 5.1216745 0.6254327 3.3605561
000210 74 38 2f 40 d2 86 aa 40 1a 7d 88 3f 1d 47 83 40
       2.7378206 5.3289576 1.0663178 4.102431
000220 c7 43 bd 40 22 39 d4 3d fb e1 06 3f f6 4c 7f 3f
       5.9145236 0.1036246 0.5268857 0.9972681
000230 6d 5d 51 40 91 fc 98 40 ac 7c 39 40 96 c5 17 40
       3.2713273 4.780831 2.8982344 2.3714347
000240 00 c3 0f 3f 2a e5 12 40 9e 87 ce 3f b0 b1 5f 40
       0.5615692 2.295237 1.6135137 3.4952202
000250 31 e8 6b 40 6d de 20 3f e6 41 ee 3f e3 35 a4 3f
       3.6860468 0.62839395 1.8613861 1.2828945
000260 1f 9a a6 40 46 16 9b 40 16 d6 b1 3f 5a dd b9 40
       5.2063136 4.846469 1.3893459 5.8082705
000270 c0 6c 44 3f 79 1d 1d 40 66 29 53 40 e5 ae f0 3f
       0.7672844 2.4549239 3.2994018 1.8803374
000280 d9 56 1e 40 09 35 0a 3f e7 56 f4 3f d6 aa 81 40
       2.4740508 0.53987175 1.908902 4.052104
000290 20 a2 a2 40 5b d2 38 40 7b 55 f4 3f b1 6c 98 40
       5.0822906 2.887839 1.9088587 4.763268
0002a0 7e 9c 14 3f 0e 65 a2 40 fd 26 28 3e 94 23 7f 3f
       0.5805129 5.074836 0.16421123 0.9966366
0002b0 c7 6e 45 3f ae fd af 40 11 49 a9 40 2c 46 a9 3f
       0.7712216 5.4997168 5.2901692 1.322454
0002c0 0d c4 75 40 b4 11 43 3f 62 c0 50 40 c4 34 62 40
       3.840091 0.7619889 3.261742 3.5344706
0002d0 97 8f e1 3f 45 86 8a 40 9a 53 76 40 ac 43 a3 40
       1.7621945 4.3288903 3.8488526 5.1020107
0002e0 c2 0c aa 3e 7a 51 1b 40 80 f7 b9 3f f8 57 d3 3f
       0.33212858 2.426848 1.4528656 1.6511221
0002f0 51 b0 a6 40 7a 10 3f 40 9f 11 9e 40 c8 b5 93 3e
       5.209023 2.9853806 4.939651 0.28849626
000300 b8 e7 a1 3f 3d 07 51 3e e6 6b 91 40 58 9e 8b 3f
       1.264884 0.20412917 4.544421 1.0907698
000310 7d 32 f3 3f 6b 7f 40 3f 53 41 04 40 c4 f7 5f 40
       1.8999783 0.75194424 2.066487 3.4994974
000320 3e 0c 7c 40 56 d4 50 40 72 56 17 40 a5 66 bd 3f
       3.9382472 3.26296 2.3646512 1.479695
000330 51 ab 3b 40 22 8e 6a 40 2d c3 9f 40 32 ca 82 40
       2.9323313 3.664925 4.992575 4.087182
000340 3d 63 9c 40 fe ee 7d 3f 5e fd b6 40 28 36 da 3f
       4.887114 0.991928 5.7184286 1.7047777
000350 00 81 99 40 a8 3c a5 40 d0 d4 07 40 ac cb 1c 40
       4.796997 5.1636543 2.122364 2.4499311
000360 b0 90 3e 3f a5 c1 b2 40 3c e3 e0 3f 6d 5c 86 40
       0.74439526 5.5861382 1.7569346 4.1987824
000370 76 53 31 40 59 42 8d 3f 4d 71 9d 40 c5 b5 b2 40
       2.770719 1.1035873 4.9200807 5.5846887
000380 f3 c9 fc 3f 0c 89 96 40 c4 c0 d1 3f e1 b2 a1 3f
       1.974913 4.7042294 1.6386952 1.2632715
000390 97 f8 83 3f 2a 9b 13 40 9d 5c 01 40 db 68 30 40
       1.0310239 2.3063455 2.0212777 2.7563999
0003a0 21 72 24 3e cf 5a 58 40 8e a0 9d 40 c7 61 9d 40
       0.16059162 3.3805425 4.925849 4.9181857
0003b0 15 32 8d 40 66 9f 3c 40 fe a7 a8 40 09 b4 c6 40
       4.4123635 2.947229 5.270507 6.209477
0003c0 bf 70 15 40 15 c1 33 40 5d 53 47 40 d5 e0 c4 40
       2.3350065 2.8086598 3.114463 6.1524453
0003d0 10 d4 63 3f 22 e1 b2 3f d1 0f f1 3f 53 e7 8e 40
       0.88995457 1.3974955 1.8832952 4.465738
0003e0 4d fc a1 3f 93 bb 20 3f
       1.2655121 0.62786216

linear.weight f4 [1, 250]
000000 64 0b 33 bc d3 d6 16 3e 19 b3 aa 3d d8 84 06 3d
       -0.010928009 0.14730386 0.083349414 0.032841533
000010 64 04 89 bd 5a f6 b9 3c 17 f9 fa bc 64 f2 80 bc
       -0.066902906 0.022700477 -0.030636353 -0.01574058
000020 da 3f 9a 3c 0a 82 8f 3c 4d 7c 6e 3c 38 05 20 3f
       0.018829275 0.017518062 0.014556003 0.62507963
000030 ee 76 1d 3d b1 42 00 bd e3 99 ce 3d ea c0 f4 3c
       0.0384435 -0.031313602 0.10087945 0.029877145
000040 e9 62 93 3d d0 4a 24 bc f4 a2 5f 3d 33 c0 82 bd
       0.071966 -0.010027602 0.054598764 -0.06384315
000050 4e 4b 2c bd a9 1b 95 3c 84 eb 13 bb 43 2a 75 bc
       -0.042064004 0.018201666 -0.0022570798 -0.014963689
000060 82 cd 74 3d 90 dc 04 bd 02 42 8c 3c 08 7f e4 3e
       0.0597663 -0.032436907 0.017121319 0.44628167
000070 eb 3c 8d 3c 3f 78 e4 bc b4 79 15 3f db 1d 92 bd
       0.017240962 -0.027889369 0.5838883 -0.07134601
000080 cf 19 9e bd dc c9 45 3d 91 e6 a0 bd 71 76 20 3f
       -0.07719766 0.04828821 -0.07856477 0.6268073
000090 a8 91 41 c0 ce 29 90 3d ff 18 48 3b 24 fa aa bd
       -3.0245152 0.070392236 0.0030532477 -0.08348492
0000a0 45 0b 82 bd f7 aa 66 3d 95 77 8c 3d a0 08 22 3d
       -0.06349806 0.05631539 0.06858746 0.039559007
0000b0 b9 5a 1d 3c 6f 77 b6 bc 9d e6 bc 3c e4 6a c3 bc
       0.0096041495 -0.022273747 0.023059184 -0.02385468
0000c0 4a a5 c4 3a 95 f1 93 bd 95 98 8d 3c 9f 98 93 bd
       0.0015002873 -0.072238125 0.01728467 -0.072068445
0000d0 60 cf 38 3d e4 6f 07 3d b0 18 9e bd 45 89 d0 bc
       0.045119643 0.03306569 -0.077195525 -0.02545608
0000e0 64 34 89 be 1e c9 ab bd ae 05 37 bb 07 f8 13 bc
       -0.26797783 -0.083879694 -0.002792697 -0.009031302
0000f0 9c 51 1a bd 62 27 65 bc a8 0d eb bc 64 56 05 bd
       -0.037675485 -0.01398644 -0.028693035 -0.03255309
000100 bb a0 09 bc 84 86 68 be 29 fe c9 bc f2 73 33 3d
       -0.008400138 -0.22707564 -0.024657326 0.043811746
000110 32 1e 1d 3d b6 2b 4d 3d ab 36 e7 bc ff 69 0e bd
       0.038358875 0.050090514 -0.02822431 -0.034769055
000120 3b 99 4c 3d ab 0f de 3c 93 d4 30 bd 24 70 3f bc
       0.04995082 0.02710708 -0.043171477 -0.011684451
000130 c0 c3 e0 b8 49 d1 c2 3e d5 9c c2 3d c5 b0 16 3d
       -0.000107176136 0.38050297 0.095025696 0.036789674
000140 7f b9 58 bd 83 30 19 3d 13 86 b4 be 64 cd 65 bd
       -0.052911278 0.03739978 -0.3525854 -0.05610408
000150 77 c7 e7 3c a6 5a 7a bc 7b 01 89 bb eb de 13 bb
       0.028293354 -0.015280401 -0.0041810847 -0.002256329
000160 9e 10 65 bd bf 7f 12 40 0f ba 02 3d 75 7a 0a 3d
       -0.05592405 2.289047 0.03191572 0.03380819
000170 c8 1f 84 3e 74 e7 83 bc 61 9f 92 bc 9a 55 00 bc
       0.25805497 -0.016101576 -0.017898263 -0.007832909
000180 9a 25 16 3d cd d4 46 bd 39 e3 61 3e 8d 09 84 3c
       0.036656953 -0.048542786 0.22059335 0.016117835
000190 2c 15 20 3d 2f d4 30 3d 83 e0 ed 3c 6d 01 b6 bd
       0.03908269 0.043171104 0.02903772 -0.08886991
0001a0 69 01 86 bd 49 11 59 bd e4 58 8b bd 5c 3e 3d 3d
       -0.06543238 -0.052995 -0.06804064 0.04620205
0001b0 1f b4 b0 3c e8 be 5d bd c8 6f 32 3d bb 6b 81 3c
       0.021570263 -0.05413714 0.043563634 0.01579844
0001c0 14 15 5e 3c 7a b6 cd 3d da 85 05 3c af b7 b9 bb
       0.01355483 0.1004457 0.0081495885 -0.0056676487
0001d0 fb 68 16 bb c8 32 14 3d 9c 8c bc bc aa 7b b3 3d
       -0.0022950757 0.03618124 -0.023016267 0.087638214
0001e0 9b 16 5d be 17 31 73 bd 2e bd a8 bc 4d 17 f5 3c
       -0.21590655 -0.059372988 -0.02059802 0.029918337
0001f0 b9 a8 a2 bb 62 f5 5f 3b 12 eb 6c bd b6 ea 89 bd
       -0.004963961 0.003417336 -0.057841368 -0.06734221
000200 7c a3 34 3c 08 c1 5e 3d cc 9d b9 bf b4 10 78 3c
       0.011025306 0.054383308 -1.4501281 0.015140701
000210 b8 41 22 bd 79 64 91 3d a9 03 57 be d3 f9 25 bd
       -0.039613456 0.07099242 -0.2099749 -0.040521454
000220 4f a0 6a bd 45 a2 94 3a 5f e1 80 bc 3c 23 53 bd
       -0.05728179 0.0011339864 -0.015732465 -0.051547274
000230 90 89 32 be f4 93 7c bd 7f 07 98 3b d0 b3 77 3d
       -0.17435288 -0.061664537 0.0046395655 0.060474217
000240 fa 4d 0f 3c 57 d6 69 bd f5 4d 87 bc 69 35 b2 3c
       0.008746618 -0.057089176 -0.016516665 0.021753984
000250 5c da 0d 3d 25 b7 88 bd ca 84 c4 3c b9 5c 99 bd
       0.03463207 -0.06675557 0.0239891 -0.074883886
000260 31 47 fa bd 2b 81 0b bc 51 40 65 bb 58 bf 87 bd
       -0.1222061 -0.008514683 -0.0034980963 -0.06628293
000270 1c 16 94 bb 32 fa 91 3d 37 fa 33 3d cb a6 0f 3d
       -0.004519237 0.07127799 0.043939795 0.035071176
000280 13 28 9e 3c 63 61 02 bc f0 af 72 bd 50 e4 0b 3f
       0.019306218 -0.007957789 -0.05924982 0.5464525
000290 dd e2 4a bd 10 84 e0 3c 3e 2d b1 bd 33 8f 90 bd
       -0.04953276 0.027406722 -0.086512074 -0.07058563
0002a0 20 17 b2 bd 60 51 ad 3c 59 01 22 bd a4 9c 7d 3b
       -0.08695817 0.021156967 -0.039552066 0.0038698101
0002b0 8a 2d ac 3d 7e 8f ff bc 27 0b 10 bd 62 aa ab bd
       0.084071234 -0.031196352 -0.035166886 -0.08382107
0002c0 3e 90 fa 3c 9f 78 08 3d 73 2c a5 bb fc 3d 51 3d
       0.030586358 0.03331816 -0.005040699 0.051084504
0002d0 f2 a7 0a 3d 6f c1 3e 3d 0d db 30 3d 49 09 1c bf
       0.03385157 0.04657119 0.043177653 -0.6095167
0002e0 43 1c 43 bf 88 b8 d5 3c c6 0d 94 bc 5e e7 0f 3d
       -0.76215 0.026088968 -0.018072974 0.03513276
0002f0 c0 3f d8 3c f9 06 2e bd 29 10 ce 3d 7e 0b a1 bc
       0.026397586 -0.04248712 0.10061676 -0.0196588
000300 72 c3 0b bd 45 1a 1d 3f a1 ed 26 bc 8f 47 2b 3d
       -0.034121938 0.6136821 -0.010188491 0.04181629
000310 44 4b 2a 3d 95 7d 6d bb 7d 78 a1 3b 27 34 05 bc
       0.041575685 -0.0036238183 0.0049276934 -0.00813011
000320 b3 52 0d 3d e3 2b 0c bd 22 ee 65 bd 66 cc f2 bc
       0.034502696 -0.03422154 -0.056135304 -0.02963848
000330 1f 7a d7 3d 13 bc 37 bd b3 38 d5 3b 8d c0 82 3c
       0.105213396 -0.044857096 0.006507003 0.015960956
000340 76 29 61 3d b9 ea 5f 3d d5 c1 4a 3c 42 42 39 3d
       0.05497118 0.05466721 0.012375315 0.045229204
000350 02 9c 91 bd f0 5d a2 3c 5d 10 9c bd 0e f2 7d bd
       -0.07109834 0.019820184 -0.076203085 -0.06199842
000360 f4 2b bf be cf 52 b6 3c e7 4c 43 bc 95 c9 47 bc
       -0.3733822 0.022256283 -0.01192019 -0.012194057
000370 7e 97 45 3d d6 2b d0 3c 28 e5 7c bc 02 0b 8b be
       0.048240177 0.025411528 -0.0154354945 -0.27156836
000380 11 b8 22 3c 3f 5e 1e bd d0 df 44 3d 85 4c 5a 3d
       0.00993158 -0.0386641 0.048065007 0.05329563
000390 10 18 f0 3c 49 33 d0 3e 2b 7e 21 bd dc 3e a7 3d
       0.029308349 0.40664127 -0.039426964 0.08166286
0003a0 20 ea 1f 3d 71 8b 12 bd 39 eb c6 3c 98 b0 69 3c
       0.03904164 -0.035777513 0.024282085 0.014263295
0003b0 d4 5b 84 bd cc f3 18 3d 53 18 1a bd db 6c c7 bc
       -0.06462827 0.037341878 -0.037620854 -0.024343899
0003c0 28 89 60 bd 6e c2 46 3f e3 0d d4 bb 31 f2 71 3c
       -0.054818302 0.77640426 -0.006471382 0.014767216
0003d0 1a 19 a7 3a 74 4f 44 3b ab c7 d7 bc df 2b 04 3c
       0.001274857 0.0029954584 -0.026340326 0.0080671
0003e0 e8 8b 95 3d de 92 90 3d
       0.073020756 0.07059263
