results/SNGP_FINAL_RESULTS/SNGP/SNGP_R5000_LS1.25_OS26.00_1000Friedman/model.pt (torch, 141830 bytes, 3 tensors)

feature_weight f4 [5000, 5]
000000 cf 08 8c bf 54 17 0a be e2 76 8c 3e 11 22 d0 3f
       -1.0940188 -0.13485461 0.2743445 1.6260396
000010 ec ca 52 bd 28 16 b4 bd 8d 5a 92 3f 24 66 94 3f
       -0.051463053 -0.087932885 1.1433884 1.1593671
000020 ea 97 3c bf a5 c1 f2 3e 81 9f 4c bf 88 af 0b 3f
       -0.736693 0.47413364 -0.79930884 0.54564714
000030 8c 1e 99 be 75 35 bb 3f d4 02 ec be bf 11 64 bf
       -0.29906118 1.4625689 -0.46095908 -0.8908958
000040 23 ec 9a 3f 97 d3 49 bf 04 0c 59 3e ae fc 5f bf
       1.2103313 -0.78838485 0.2119599 -0.87494934
000050 00 6e 1e 3f c6 a6 7e 3e 7a e1 e1 be 0b 15 41 3f
       0.61886597 0.24868307 -0.44117337 0.75422734
000060 2a 88 71 bf 07 cc 8a bf f9 a8 94 3f d3 05 d7 be
       -0.94348395 -1.0843514 1.1614066 -0.4199663
000070 59 97 9b bc d5 58 87 3f f5 3a 16 3f 19 15 c2 3f
       -0.018993067 1.0573984 0.5868371 1.5162688
000080 82 b6 5f 3e ce 54 74 3e 9b 9a 1b bf 09 3e 2f be
       0.21846965 0.23860475 -0.60782784 -0.17113508
000090 46 2c ea bc b5 c1 f4 3c 15 4c 12 bf 00 2f 9c 3e
       -0.028585564 0.029877523 -0.5714734 0.30504608
0000a0 7d 8f b5 3e d8 3f 99 bf 60 0f 38 bf e5 f5 85 bf
       0.35461035 -1.1972609 -0.7189846 -1.0465666
0000b0 87 83 95 bf 2a 14 b4 3f 1a 84 95 3e 1c 2c ef 3f
       -1.1680764 1.4068654 0.29202348 1.8685336
0000c0 53 9b ef bd db 59 f2 3e 5b 0a 89 3f e0 03 c9 be
       -0.116995476 0.4733418 1.0706285 -0.3926077
0000d0 ee a2 21 c0 e7 d9 2a 3e af 88 e5 bf e5 9d 60 3f
       -2.5255694 0.16684686 -1.7932338 0.8774093
0000e0 e2 b7 2e 3d 64 0f 13 bd a8 4d 60 bf 8a 4d 4a bf
       0.042655833 -0.03590335 -0.87618494 -0.79024565
0000f0 3a 38 93 bf 2a 78 28 bb af db 88 3f ba 40 ee be
       -1.1501534 -0.002570639 1.0692042 -0.46533757
000100 b9 03 83 bf b8 72 22 40 08 c7 32 3f 13 d1 89 bf
       -1.0235511 2.5382519 0.6983495 -1.0766929
000110 5d bf 08 bf 41 be c2 bf f1 bd 7d bf b9 49 ae bf
       -0.53417 -1.5214311 -0.9911795 -1.3616248
000120 fc 16 84 3f 76 5e 12 3e 99 b0 91 bf 0b 12 d4 3e
       1.0319514 0.14293846 -1.1382018 0.41420016
000130 d3 d2 c5 3f 3e e6 84 3d 71 7e 17 3f 3c 5c e6 3d
       1.5454963 0.06489228 0.5917731 0.11248061
000140 0f a5 68 3f 03 02 83 bf 3a e3 0e be 51 1e b2 3d
       0.9087686 -1.0234989 -0.13953868 0.08697189
000150 4a 7e 06 3f 4e be 9d bf 6a 4b a6 3e 89 37 61 3d
       0.5253645 -1.2323701 0.3247941 0.054984603
000160 4f 28 a5 bf 94 02 14 40 eb 08 42 be 48 c6 e7 3e
       -1.2902926 2.3126574 -0.18948714 0.45268464
000170 aa 79 46 3f d5 3c da bf d9 de 1a 3e e9 5c 2c 3e
       0.77529395 -1.7049814 0.15124072 0.16832317
000180 01 06 90 3e d2 ed f3 be 82 25 8a 3f 81 8e e3 3f
       0.2812958 -0.4764238 1.0792696 1.7777864
000190 cb dc ad bd 6d a0 92 3f 66 fa 71 3f 0b 76 9d be
       -0.084893785 1.1455208 0.945227 -0.30754122
0001a0 76 c4 3e be e1 08 25 3f 75 9b 86 be 6f 3e 0e bf
       -0.18629631 0.64466673 -0.2629048 -0.55564016
0001b0 11 e1 cc 3e 38 8a b5 3e 70 a5 35 3f bc c3 25 3f
       0.40015462 0.35457015 0.7095556 0.6475179
0001c0 c3 50 e7 bd e8 04 9b 3f d2 cd 33 40 a9 d3 00 3f
       -0.11294701 1.2110872 2.8094373 0.5032297
0001d0 3a b1 bb 3e 6f fe 81 be 22 85 d7 bf d4 89 aa bf
       0.3665865 -0.2538943 -1.6837504 -1.3323312
0001e0 20 e6 24 3f 1c 96 af bf 01 9d 17 be 45 ea 41 be
       0.6441364 -1.3717685 -0.14805986 -0.18937023
0001f0 ed 33 47 3e 46 b7 c2 bf 55 b4 81 3e 64 76 0d 3f
       0.19453402 -1.5212181 0.25332895 0.55258775
000200 7d a5 93 bf 05 00 dd 3f ea e2 49 be de 43 0a bf
       -1.1534878 1.7265631 -0.19715467 -0.5400981
000210 91 8e 57 bf da 29 3b bf 1a 08 0e bd 77 aa 4b 3f
       -0.84201914 -0.73110735 -0.034675695 0.79556984
000220 b6 5a 7c 3f 11 04 93 bf 69 e8 dc be 20 b6 7c 3c
       0.98575914 -1.1485616 -0.43146065 0.015424281
000230 cb 2f 1f bf c2 38 88 bf 5f 54 88 bf f4 5d 6e 3e
       -0.621823 -1.0642321 -1.0650748 0.23278028
000240 4f a8 ac 3d 03 1a d5 3e 8e 45 f9 be 8d c0 d8 be
       0.0843054 0.41621408 -0.4868588 -0.42334405
000250 76 95 10 40 81 a2 07 3f a6 cc d3 3f 9b 1d 19 3e
       2.2591224 0.52982336 1.6546829 0.149527
000260 22 02 25 3f 97 89 9a 3f 24 03 8c 3f 8a 95 c1 3f
       0.6445638 1.2073239 1.0938458 1.5123761
000270 d4 05 fc 3e 52 c6 f5 3e dc 57 8d 3d 85 b8 b7 3e
       0.49223197 0.4800287 0.069015235 0.35882965
000280 94 30 37 3f 4c ab 59 be ef 08 8e 3d cf ac 99 bf
       0.715585 -0.21256751 0.06935298 -1.2005862
000290 a6 84 e8 3b e2 25 a3 3e 96 d5 a0 bf 6f c1 8d bc
       0.007095891 0.3186484 -1.2565181 -0.01730415
0002a0 f8 27 8a 3d 79 28 f9 3d 75 5c 68 3e 30 0a 45 bf
       0.06745905 0.12165923 0.2269152 -0.7696867
0002b0 c9 d9 e5 bf da 9f 9f 3f ea d9 68 bf ac 5a fe be
       -1.7957088 1.2470658 -0.9095751 -0.49678552
0002c0 3d d1 d6 3d 8f e0 0e bf 8f 53 04 3f ba 02 a7 bd
       0.10489128 -0.558114 0.5169 -0.08154817
0002d0 e0 4e 88 3e 33 d3 12 c0 99 86 d8 be a6 5f 3c bf
       0.26622677 -2.2941406 -0.4229019 -0.7358345
0002e0 63 b4 31 be 19 a5 62 bf 0b e7 e9 3f 21 6c 51 3f
       -0.17353968 -0.8853317 1.8273634 0.81805617
0002f0 08 98 d6 3f 2c 5a 4e 3f 00 9f bf bf 1f 12 90 bf
       1.6765146 0.8060634 -1.4970398 -1.125553
000300 38 7d 6d bf ed fc 08 be cc a1 b2 3f 69 48 52 3f
       -0.92769194 -0.13377734 1.3955626 0.8214174
000310 d1 62 a4 3f 58 06 85 3f 15 ab e3 3e 7c 93 ad be
       1.2842656 1.0392561 0.44466463 -0.33901584
000320 52 95 7a 3f 9a 8a d9 be 5d 49 f1 be 8a cc eb 3f
       0.97884095 -0.42488557 -0.47126284 1.8421795
000330 9a a4 c8 bf 51 ec 03 c0 f6 7f e9 bd a0 92 fb 3e
       -1.5675232 -2.0612986 -0.1140136 0.49135303
000340 f4 e4 97 bf ab f9 90 3f 6a 67 00 bf 79 e4 e8 be
       -1.1866746 1.1326193 -0.501578 -0.4548681
000350 44 ee 21 bf 8f 27 93 bf 18 af 48 3f 81 30 a1 be
       -0.6325419 -1.1496447 0.7839217 -0.31482318
000360 90 01 1c bf 25 8c a1 3f 1c 29 d2 3f 9d 38 14 3f
       -0.60939884 1.2620894 1.6418796 0.57898885
000370 c9 0c ef bf b0 4b 11 bf 99 17 05 3f 07 d8 98 3f
       -1.8675777 -0.56756115 0.5198913 1.1940926
000380 15 b5 57 3e 7c bd 4d 3f 57 01 f9 be ef 9f fb bd
       0.21065171 0.80367255 -0.48633835 -0.12286364
000390 b5 8a a9 3f 94 3c 4c 3f 82 96 8a bf 99 7e f5 be
       1.3245455 0.79779935 -1.0827181 -0.4794815
0003a0 9b 91 a5 bf de a4 87 3d 06 d0 c1 be 33 f9 47 bf
       -1.293506 0.06623243 -0.37854022 -0.7811462
0003b0 22 14 81 bf 8e 91 ec be 5a 3d dd 3f 1b 3c 6e bf
       -1.0084269 -0.462048 1.7284348 -0.93060464
0003c0 e3 3d 93 be 22 37 11 3e ac e5 02 bf a6 9f a7 bf
       -0.28758153 0.14181188 -0.511317 -1.3095596
0003d0 91 99 db 3f 51 02 46 bf 9c 4f 14 c0 f6 13 29 3f
       1.715624 -0.77347285 -2.317359 0.6604608
0003e0 c8 79 1d 3f f7 e4 5d bf b9 88 0a 3f c6 ae 6f 3e
       0.6151395 -0.866775 0.5411487 0.23406515
0003f0 46 0c 00 40 91 7e f0 bf 79 03 81 3f 00 a4 47 3e
       2.000749 -1.8788625 1.0079185 0.19496155

feature_bias f4 [5000]
000000 72 e2 3a 40 92 f2 9e 40 dd f7 44 40 5f 47 76 40
       2.9200711 4.9671106 3.0776284 3.8481061
000010 03 3a 8c 3f 5c 95 c8 40 ee 4e 3c 3f cb fd 8e 40
       1.0955204 6.2682323 0.7355794 4.4684806
000020 e2 fc b8 40 62 8d 84 40 86 3a b2 40 f5 50 b8 40
       5.7808695 4.1422586 5.569644 5.7598825
000030 cb 7f 8c 40 8d 3b c0 40 46 5f bb 3f ea e8 be 40
       4.3905997 6.0072694 1.463845 5.965932
000040 cb 35 4f 3d 4e ea 8f 40 f5 50 be 40 2f 60 0c 40
       0.05058841 4.4973516 5.9473825 2.1933706
000050 28 6c a7 40 74 b0 b3 40 bf 16 76 40 fd eb e2 3f
       5.2319527 5.6152897 3.8451383 1.7728268
000060 eb 36 0e 40 00 06 c4 40 8a 6d d6 3e 19 7b c3 40
       2.222102 6.1257324 0.41880447 6.1087766
000070 52 99 45 40 71 af a3 40 1e 8e b7 40 44 56 a5 40
       3.087483 5.115166 5.7360983 5.1667805
000080 78 be b5 40 c6 57 7e 40 34 87 95 40 e9 55 91 40
       5.6795006 3.9741073 4.6727543 4.541737
000090 98 5e be 3f d4 8c 0c 40 c6 11 87 40 07 8f a8 40
       1.4872618 2.1960955 4.2209196 5.2674594
0000a0 b6 11 1b 40 97 77 b1 40 80 99 0d 40 78 91 4f 40
       2.422956 5.5458484 2.212494 3.2432537
0000b0 6f 7e 99 40 32 9c 76 40 61 6a db 3f 4c b3 88 40
       4.796684 3.8532834 1.7141839 4.271887
0000c0 2e a2 af 3e e9 85 40 40 53 1f a6 40 8a 2f fd 3f
       0.3430342 3.0081732 5.1913238 1.9780133
0000d0 95 57 be 40 ad dd 36 40 f0 36 31 40 a2 22 76 40
       5.948191 2.85728 2.768978 3.8458638
0000e0 29 ce 99 3f 6c e4 0c 40 ae e7 99 40 91 82 c1 40
       1.201604 2.2014418 4.809531 6.0471883
0000f0 78 fe 9f 40 18 31 57 40 87 96 85 40 f5 dd f5 3f
       4.999813 3.3623714 4.174625 1.9208361
000100 a0 f9 c2 3e 72 47 be 40 c9 43 a0 40 ff 8f bc 3f
       0.38081074 5.9462214 5.0082746 1.4731444
000110 03 01 c1 40 29 dc f7 3f 4f 4d 8a 3f 98 39 10 3f
       6.0313735 1.9364063 1.0804843 0.5633788
000120 68 c5 be 40 f0 81 b6 40 de ff 26 40 c1 9c 6a 40
       5.9615974 5.7033615 2.609367 3.6658175
000130 57 ef 98 3f 30 ea 0d 3f 2e 03 b6 40 b9 cd 48 40
       1.1948041 0.55435467 5.687888 3.1375563
000140 3f 46 7b 3f 63 82 ac 3f 5a ff 81 40 f3 38 71 40
       0.9815406 1.3477291 4.062421 3.769101
000150 8a c3 fe 3f 98 3a 49 40 90 b6 b6 40 79 da ae 40
       1.9903424 3.1442013 5.7097855 5.464169
000160 fb d5 c6 40 35 e1 9f 40 68 56 a6 40 e1 e4 94 40
       6.2136207 4.996241 5.1980476 4.6529393
000170 2f b4 c3 40 68 e7 b8 40 e4 e7 25 40 aa 3a 7c 40
       6.115745 5.778248 2.5922785 3.9410806
000180 b6 4b 67 3f a3 bd a8 3f a9 75 be 40 95 ae 98 40
       0.903499 1.3182873 5.951863 4.7713113
000190 f8 01 97 40 05 10 b0 40 b1 a4 89 40 aa 62 f9 3c
       4.7189903 5.5019555 4.301354 0.030442555
0001a0 17 88 3f 3f 5d 5a aa 40 ab 30 4e 40 55 e5 d0 3f
       0.7481703 5.3235307 3.2217205 1.6319987
0001b0 a4 d0 85 40 33 08 a4 3f 17 1c 40 40 e9 8c cb 3f
       4.181719 1.2815002 3.0017145 1.5902377
0001c0 10 31 85 40 09 c1 2c 3f 07 c9 43 40 c2 3c 5b 40
       4.162239 0.6748205 3.0591447 3.4255834
0001d0 24 39 7b 40 ae 03 85 40 86 66 c0 40 be d4 0b 40
       3.9253626 4.156699 6.012515 2.1848598
0001e0 a9 3f 60 40 2b c3 88 40 72 f8 9a 40 c5 9d 94 40
       3.5038855 4.273824 4.842828 4.644259
0001f0 13 75 fe 3f 3b 42 bd 3d 34 b1 83 3f 5e a5 87 40
       1.9879478 0.09241148 1.0288453 4.2389364
000200 09 7d 54 40 77 68 2b 3f 63 80 93 40 3e 9e 61 40
       3.3201315 0.66956276 4.609422 3.5252833
000210 5d d7 75 40 79 de 54 40 21 27 87 40 ec 66 5f 40
       3.8412697 3.3260787 4.2235265 3.4906569
000220 f8 d0 63 40 de 26 45 40 83 b0 91 40 94 55 b8 40
       3.5596294 3.0804973 4.552797 5.7604465
000230 e3 d4 08 40 d8 3c 03 40 5d 15 b6 40 07 29 c6 3f
       2.1379936 2.0505886 5.690108 1.548127
000240 8e 79 b9 3f c9 52 5d 40 9d 41 9b 3f 2d d5 b9 3f
       1.449022 3.4581778 1.2129399 1.4518181
000250 57 2f 6c 40 5a 8a 97 3d f4 97 5b 40 9e 33 41 40
       3.6903894 0.07399435 3.4311495 3.0187755
000260 17 25 9c 40 de c3 bd 40 35 c1 9a 40 dc 10 83 3f
       4.8795276 5.9301596 4.836085 1.023952
000270 59 f4 8f 40 a8 e2 51 40 f0 72 1e 40 61 20 1e 3f
       4.4985776 3.279459 2.4757652 0.61768156
000280 4c a8 b0 40 9b 27 73 40 2b e0 d1 3f 0e a5 9c 40
       5.520544 3.7992923 1.6396536 4.8951483
000290 d1 b1 93 3f 9a 16 8d 40 7b ab 2a 3f ad b5 36 3f
       1.153864 4.409009 0.6666791 0.71370965
0002a0 22 b7 05 40 0a 52 98 3f 07 c5 9a 40 44 7d 26 40
       2.0893025 1.1900036 4.836551 2.6013956
0002b0 04 04 e3 3f c0 25 bc 40 ce e9 80 40 fe c7 85 40
       1.77356 5.879608 4.0285406 4.180663
0002c0 2c d1 b8 3e a2 ea 54 3b 03 83 90 40 da 94 ec 3e
       0.36097085 0.0032488485 4.5159926 0.46207315
0002d0 4a 35 03 40 35 22 3f 40 3d b6 b9 3f 77 69 d1 3e
       2.0501275 2.9864628 1.450874 0.40900776
0002e0 96 66 19 40 76 fe 8a 40 7b 1e 19 40 a7 79 b4 40
       2.3968863 4.343562 2.3924854 5.63985
0002f0 2b 4a 93 40 87 5d a0 40 d2 f3 33 40 45 89 c5 40
       4.6028037 5.011417 2.8117566 6.1730065
000300 ab 12 9d 3e a4 83 a8 40 02 6a 83 40 6b 24 6c 3f
       0.30678305 5.2660694 4.1066904 0.9224307
000310 43 1f 57 40 29 ce 42 40 94 31 61 40 92 d9 98 3f
       3.361283 3.043833 3.518651 1.1941397
000320 a3 6e cf 3f ab d2 42 40 f0 c9 63 40 d3 9b c4 40
       1.6205639 3.0441082 3.5592003 6.1440215
000330 03 a3 8e 40 3c b2 85 40 92 3c 99 40 5f b6 30 40
       4.457399 4.178007 4.788644 2.761131
000340 e5 cd 6d 40 e5 84 e7 3e 30 1e 43 40 eb 96 3c 3f
       3.7156918 0.45218578 3.0487175 0.7366778
000350 c6 de e2 3e 72 2b 46 40 97 6c a9 40 47 54 8e 40
       0.44310588 3.0964017 5.2945056 4.447788
000360 89 25 3f 40 b0 2d 95 40 85 e3 ba 40 98 fc 95 3f
       2.986666 4.661827 5.8402734 1.171771
000370 ce 27 a0 40 3f f9 84 40 0e 10 b1 3f c5 37 91 40
       5.004859 4.1554255 1.3833025 4.538058
000380 14 7a 0b 40 16 e5 9a 3f b1 6b 89 40 5d 35 96 40
       2.179326 1.2101161 4.294396 4.694014
000390 86 2f 70 40 e2 14 62 40 2c a6 a6 40 bb e6 4f 40
       3.7529006 3.5325246 5.2077847 3.2484577
0003a0 75 a0 ad 40 7c 4c 8e 40 2f 1c 90 40 4b e0 34 40
       5.425837 4.4468365 4.5034404 2.8261898
0003b0 eb f3 a6 40 a5 27 8d 40 cb 24 00 40 05 0c c3 40
       5.217275 4.4110894 2.0022457 6.095217
0003c0 c5 f7 ae 40 b8 f2 49 40 48 cb ac 40 32 34 ac 40
       5.4677453 3.1554394 5.3998146 5.3813715
0003d0 ce bc 75 40 26 5d b6 40 66 f0 b6 40 aa d6 b4 40
       3.8396487 5.6988707 5.7168455 5.651204
0003e0 fb 95 ba 3f 04 26 ac 40 4a 1e 75 40 1f 44 03 3f
       1.457702 5.3796406 3.8299737 0.5127582
0003f0 f8 f5 05 40 35 68 10 40 68 74 fd 3f 90 65 b3 40
       2.0931377 2.2563603 1.9801149 5.606148

linear.weight f4 [1, 5000]
000000 2b d3 fd bc 44 4e a0 38 59 66 13 bd 6b 32 19 bd
       -0.030984482 7.643973e-05 -0.03598628 -0.037401598
000010 73 e6 e0 3b a8 b8 63 3d fc 01 2b bc 88 af 0b bd
       0.006863409 0.055596024 -0.010437485 -0.034102947
000020 b7 2d db bc a4 1a 7c bd ab e7 b2 3d d3 a9 8e 3c
       -0.026755197 -0.061548844 0.087355934 0.017414963
000030 51 ae 8a bc 7b 8b ae 3d 33 d5 5a 3d 03 c3 21 3d
       -0.016928824 0.085226975 0.05342598 0.03949262
000040 47 3f 23 3d f5 28 be 3b 7a ce 96 bc f3 29 99 3c
       0.039855268 0.0058032223 -0.018409003 0.01869676
000050 e5 98 c4 3b 2a 56 36 3d a3 31 ae bc cf 74 ba 3c
       0.0059996718 0.044515766 -0.021263903 0.022760777
000060 72 5f dc bc 30 6e 7b 3c e7 bf fb 3a f4 d0 c9 3b
       -0.02690098 0.015346095 0.0019206972 0.0061589424
000070 5e 8e 4e 3c 06 3c e6 bb f3 98 ac bc 2c 0f 43 3d
       0.012607185 -0.0070261983 -0.021069026 0.04762189
000080 fd 40 5d 3c ad b5 55 bd 12 c2 a5 3d f1 22 75 bc
       0.013504264 -0.052175213 0.080936566 -0.014961944
000090 82 bf 8c 3d ee 2f d9 bc 18 c9 40 bd 84 d5 9c 3c
       0.06872465 -0.026512112 -0.047066778 0.019144781
0000a0 18 b5 0e bc 0d b0 2e 3c 01 da c2 3a 04 04 c0 3c
       -0.008710168 0.010662091 0.0014865996 0.023439415
0000b0 fe 54 ed bc 73 a2 8b 3c fe d9 81 bc 7d e1 82 bc
       -0.028971191 0.017045235 -0.015851017 -0.015976662
0000c0 7c 5b b1 39 85 0d 58 ba cd d0 fe bd c1 14 bb bb
       0.00033828232 -0.00082417607 -0.12442169 -0.005709261
0000d0 58 7b 1a be 47 8f 2a bd e8 31 57 bd f0 20 f9 3b
       -0.15086114 -0.041640546 -0.05253783 0.0076028034
0000e0 f9 f5 55 3c a4 19 c1 3b 51 16 83 3c dd b5 2b 3b
       0.013059133 0.005892949 0.016001852 0.0026200928
0000f0 57 2e b6 3c b3 df 4b 3c e9 e7 51 bb 0f 77 0b bd
       0.022238893 0.012443471 -0.0032029098 -0.03404909
000100 7b a9 89 bb 01 db 30 bc 06 c2 aa bb 8b 97 fc bc
       -0.004201112 -0.010794402 -0.0052111177 -0.03083398
000110 ce 77 2e bc 49 44 0d 3e a5 3c f9 bc b3 eb f1 3b
       -0.010648681 0.1379558 -0.030424425 0.007382834
000120 bc f6 71 3d ea 8e 1c 3d 30 d2 2c 3c a4 6f 8f bc
       0.059073195 0.03822223 0.0105481595 -0.01750929
000130 a4 08 17 3b 1f fc 1c bc 7e 9d 56 3c e8 ae be 3d
       0.0023045922 -0.009581595 0.0130990725 0.093107045
000140 84 9a a9 bb 11 27 c7 3c f8 b4 07 bd 47 34 87 3c
       -0.0051758904 0.02431062 -0.03313157 0.01650442
000150 94 2c f8 bc 39 45 3b bc 7f d3 8b 3c 77 a2 0d 3d
       -0.030294694 -0.011430078 0.017068623 0.034578767
000160 eb e3 11 bd d6 21 f8 bc a6 f5 bb bc 38 3f 72 bc
       -0.03561775 -0.030289572 -0.022944283 -0.01478558
000170 bb 33 87 bb 30 ef 30 3d ed d6 0f 3c ce b2 dd bb
       -0.00412604 0.043196857 0.00877927 -0.0067657
000180 ae a1 81 3d 3f 95 73 3d 24 7d 62 bd a0 d1 c1 3d
       0.06329666 0.059468504 -0.055295125 0.09463811
000190 08 b1 4b 3c 8d 4e 19 3d b6 10 82 3d 86 5c b5 3c
       0.012432344 0.037428427 0.063508436 0.022138845
0001a0 82 a1 b0 3c fc 48 a6 3c 68 2b 81 bc 47 18 f9 bc
       0.021561388 0.020298474 -0.015767768 -0.030407084
0001b0 6e 75 5c 3d f3 c7 9e 3c 6d 0e 07 3c 69 b5 61 3c
       0.053822927 0.019382453 0.0082431855 0.013776162
0001c0 f7 b1 6b bc 04 98 4e 3d 99 28 63 3d a2 db 17 3d
       -0.014385692 0.050437942 0.05545864 0.037074693
0001d0 20 52 d5 bb 6d fa c2 bc 51 d2 fc 3b 7f f7 04 3d
       -0.006510034 -0.023801053 0.0077155014 0.032462593
0001e0 b9 01 0c 3a 43 6a 5f bc b6 b7 bf bc 1f 8b a4 bd
       0.0005340833 -0.013636175 -0.02340303 -0.08034348
0001f0 7b 15 15 bc 8d 8d 86 3c 8b b8 78 bb b2 c3 16 bd
       -0.00909936 0.016424919 -0.0037951793 -0.036807723
000200 0c c7 80 3c 96 5f 9e 3d c8 26 d1 ba 96 54 56 bd
       0.015719913 0.07733075 -0.0015956992 -0.05232676
000210 3e 19 97 3d fc 80 26 3d 14 03 00 3e 51 3c 55 be
       0.073778614 0.040650353 0.12501174 -0.2082379
000220 c4 8f 9f bb 4e 6c 5a bd 31 69 55 bd 27 9b 21 bd
       -0.004869433 -0.053325944 -0.05210227 -0.039454605
000230 35 12 6f bd b1 6d 28 bd 4f dd b9 bb e4 72 d1 bb
       -0.058366973 -0.041120235 -0.005672134 -0.00639187
000240 da 01 b5 bb 17 39 98 3c a8 e9 8f 3b 7a 62 07 bd
       -0.0055239024 0.01858191 0.0043918677 -0.0330529
000250 89 11 78 bb ae 4d 63 3d ea 0c 5e 3a cb 96 0d ba
       -0.0037852249 0.055494003 0.0008470552 -0.0005401193
000260 b4 aa c9 bc 05 c3 86 3d 40 ce 92 3c 43 23 ae 3d
       -0.02461753 0.06580166 0.017920613 0.085028194
000270 37 a5 2d 3c e4 16 15 3b 2a 28 15 bd 94 7d 98 bd
       0.010598472 0.002274924 -0.036415257 -0.07445827
000280 e7 91 68 3c 2c bd 09 3a ed 5a 99 3c ee 95 6b bb
       0.014194942 0.0005254324 0.018720115 -0.003594752
000290 02 66 96 3d 0e fb a5 bb b2 0d b6 3c 7d 13 44 bd
       0.07343675 -0.0050653284 0.022223327 -0.047870148
0002a0 f6 b1 36 3c 37 55 b7 3c b7 8c aa 3c c6 7d bf bc
       0.011150828 0.0223795 0.020819051 -0.023375403
0002b0 69 7b 6c 3d 27 0f a1 3c ea 01 93 bd ec de 4e bd
       0.05773488 0.019660546 -0.071780995 -0.050505564
0002c0 b8 e2 44 bc b9 46 af bc 11 e3 ee bb 0f 14 7b 3d
       -0.012016945 -0.021396028 -0.007290252 0.061298426
0002d0 4f 97 9f bc 82 6b d0 bd 33 36 1d be 45 b0 40 bc
       -0.01948133 -0.101767555 -0.15352707 -0.011760776
0002e0 ea 6d 51 3c d6 22 a3 3d 9b 3c 4b bd ca 57 94 3c
       0.012782553 0.07965629 -0.049618345 0.018108267
0002f0 4c d0 a2 bc 86 e6 98 3c 37 e5 6d 3b 6d aa 56 bc
       -0.019874714 0.01866461 0.0036299953 -0.013102156
000300 1b f2 7c bc 65 1b ac bc be 4d 93 3d 12 19 34 3d
       -0.015438582 -0.021009156 0.071925625 0.04396922
000310 1e 2d 44 bd 37 95 d4 3c eb 1d 15 bd 28 fe 92 3c
       -0.04789459 0.025950057 -0.036405485 0.017943457
000320 b7 00 80 3c c8 15 22 3c fa 34 c5 bc 70 7c 90 3c
       0.01562534 0.009892888 -0.024073113 0.017637461
000330 c4 cc f3 3c 4a bf c1 3d 5d 6a 99 3c ab 2a 26 3c
       0.029760726 0.094603136 0.018727476 0.010142009
000340 0d f2 77 bc 8b 7b a5 3b d1 8d ed bc f9 db af 3c
       -0.015133393 0.005050128 -0.028998287 0.021467196
000350 7b 47 17 3d f0 f6 1b 3d 5b 62 28 3d 44 23 4a bc
       0.036933403 0.038077295 0.041109424 -0.01233751
000360 70 c5 91 bc 31 fd 41 3d 76 07 b6 3c 3e bf 83 3c
       -0.01779434 0.047360603 0.022220355 0.016082402
000370 a0 1d 81 bd 22 69 5a 3b d7 e5 8f bd f1 1d 5e 3c
       -0.06304479 0.0033326824 -0.0702626 0.013556943
000380 41 87 88 bc 23 2e 01 bd eb c1 05 bd 04 0f 9f 3c
       -0.016666057 -0.03153814 -0.032655638 0.01941634
000390 0e 41 b3 bc d7 88 13 bc 80 a7 bb 38 28 74 55 bd
       -0.021881606 -0.009004793 8.948054e-05 -0.05211273
0003a0 28 b8 39 3d 7b 56 07 bd d9 3f a6 3c 12 fc 46 3c
       0.04534164 -0.03304146 0.020294117 0.012145059
0003b0 89 73 99 bd fb 45 e7 bb 1b ff e1 bc 01 b6 a4 bc
       -0.0749274 -0.007057903 -0.027587464 -0.020106317
0003c0 e7 35 89 3c 3a 33 99 3c 0f 2d 1e 3c 90 48 07 3c
       0.016749335 0.018701185 0.0096542975 0.008257046
0003d0 e6 13 77 3d 5c 24 5c bc 37 ce 60 bd 7c 7b 1a bd
       0.06032171 -0.013436403 -0.05488416 -0.03771542
0003e0 b9 eb 51 3b 90 57 59 bd 91 b2 01 3d fc 5b 8d bc
       0.003203137 -0.05306202 0.031664435 -0.017255776
0003f0 43 6f 6f 3c 93 09 ea bb 5d 40 86 bc 24 2c dd 3a
       0.014613929 -0.0071422546 -0.016388113 0.0016874117
