results/large_N_sngp/SNGP/SNGP_R6250_LS1.23_OS1.81_25000Sin/model.pt (torch, 76387 bytes, 3 tensors)

feature_weight f4 [6250, 1]
00000000: ef97 803d 1d08 573f dc73 0e3b a999 96bf
00000010: 6e57 2b3f 15d9 893e 0ddd 4ebf 556d a5bd
00000020: 52cb a1bf 83be bbbe 4338 883f c87e fc3e
00000030: d138 34bf f938 87bf 6453 173f 6780 a9bf
00000040: d645 efbe e647 9bbf 0032 67bf 741c 9a3d
00000050: 342a 13be 55e4 51be 3529 4dbf f50d 8b3f
00000060: 3fcb 7e3f d1c4 c33f 7941 babe 0ad0 bebd
00000070: 6220 f4be fcc5 9c3f 9e01 44bf 4496 adbf
00000080: f383 b53e 8b3b b8bf 43ed 57bf f87b 0d40
00000090: bbee 143d 66d9 d83f 82f9 0ebf b478 98be
000000a0: 5ba2 1cbf b160 14bf f691 66bf 6bed 66bf
000000b0: a080 273f d302 4e3f 76d1 1a3e d40d 5e39
000000c0: 8e62 aebf e040 debf 4250 86be 135e bebe
000000d0: 2cc1 1bbf 691f 61bf 6e4c a8be cd5c 253f
000000e0: 626e 0c3f caba 95bf f567 a03f e56a 933f
000000f0: 518b 963f 6ad7 5fbf d653 f33f 1e4b d03e
00000100: 617e a03e a6d5 57be 0312 26bf f8d9 a5bf
00000110: 04d2 0a3f e6bf 913f 9721 25be 32c1 b7be
00000120: 9c50 a6bc 2f7e f7ba 5548 5c3f c798 333f
00000130: 60c4 b93d 3a59 793f b428 84bf 7bb3 2040
00000140: d7a2 6a3f 7383 79bf 0932 2fbf 133e 43bf
00000150: 0a7d 0abf b49b d13e 421d 1940 83af dabe
00000160: f558 79bf 4869 153f d29a d73f 897d 563f
00000170: 50d0 153f ea68 593e bc35 f8bf 799f 9f3f
00000180: 0e2b a53e 1418 bf3f 727b d3bf 6676 a43f
00000190: d3d4 5f3f 7e6c e53f 1728 903f 5aba 503f
000001a0: c0d4 3a3e 8f90 34bf fef3 d1bd b8de 5e3f
000001b0: 7804 4f3f 3b5a 923f 7fb1 c539 aed7 78be
000001c0: b93f 233f 4fc5 b0bf a2ad 15be defd 1d3f
000001d0: 8488 df3e 6ee1 203f 8196 f03e 9895 253e
000001e0: a2b0 9abf 7d33 7dbf 67a6 3abf 63d0 7a3f
000001f0: 80a0 083e bf2a be3f 5acf 173f 07e0 39bf
00000200: 7c4d 3b3e 46ef 00bf 1c52 053e d14a 63bf
00000210: d880 80bf 1be2 6bbf 7563 8c3d 4a55 cc3e
00000220: 7fb9 773d f5e2 4a3e 5838 88be 6cfc 6a3f
00000230: 10ff 383e 70ce db3e a585 66bf 289c 05be
00000240: be6c 5ebf 0edd 373f 1056 b8bf 5a5b 26bf
00000250: f7a4 463f 8bd6 10be a7c5 d73f b1c1 853e
00000260: d41d 293f ecbb 963e dac0 33bf 1473 99bf
00000270: bfe0 10c0 d853 913e 2c66 9cbd 1294 0a3f
00000280: d38d b13f 0e6e 803f 6c7e f83f bbb5 ab3e
00000290: 203c 0e3f e9c9 b13f 73ea a13d 278e f83e
000002a0: a454 cbbe 7183 473e 38cb 4e3f 6df4 b23f
000002b0: 3108 6c3f 9ab1 bf3e b13f 53bf 5814 bf3f
000002c0: 6be2 ad3f bddf 1bc0 172f 47bf 0c47 e03d
000002d0: 1d05 52bf e02c 1abd 983a c2bd 999d 733e
000002e0: 8fd6 9bbe 486b 093f 9710 6f3d ede3 64bf
000002f0: d684 9bbf 87d4 913f 20fb 09bf dcfa 453f
00000300: 921c d1bc 92fd 0ac0 8dda 64bd f941 a1bf
00000310: 15ef e1bd 91a6 043f e972 07bf 6ac1 7dbf
00000320: 071e 79bf 72b3 fdbe f53c 07be f53f 8bbf
00000330: 9fab 64bf 7e7d 75bf 06d5 c63f 2f00 9cbf
00000340: 5a41 803f c325 513f e78b 383f dbef 2240
00000350: 06d7 f33e 0e03 b83f 556a 9e3f 4282 a43f
00000360: 23c7 11bf 8a04 f8be 27fc 0ebf 40bb c5bf
00000370: 52fa 8bbe 06b4 d93f 98af dabf eb05 ecbf
00000380: 04e9 3b3f 11f7 a8bf e45e 333f e5a3 863e
00000390: 70ed f9be bbaa 0cbf 7996 563e 67e2 c43c
000003a0: 7ce7 f4be 7763 1e3f 9113 1fbf 946c 84bf
000003b0: 1ef8 cabf cd1c e2bf 1a14 923f 9bdf 48be
000003c0: 8a97 94bf f2dc cbbf 2baf 26bf 7fe6 d6bc
000003d0: b492 193f 8c66 c8bd 945d 31bf 5f4e 84bf
000003e0: 56e7 8cbf 11c1 ec3e f8ce f0bf 141d 37bf
000003f0: c22c c8be db22 e0bf 9a45 92bf 68cc c8be
0.06278979 0.83996755 0.0021736538 -1.1765643 0.6693028 0.26923433 -0.80806047 -0.08077494
-1.2640173 -0.36668786 1.064217 0.49315476 -0.70399195 -1.0564262 0.5911162 -1.324231
-0.46732968 -1.2131317 -0.9031067 0.07524958 -0.14371568 -0.20497258 -0.80141 1.0863634
0.9952888 1.5294439 -0.36378077 -0.09317024 -0.47680956 1.224792 -0.7656497 -1.3561482
0.35452232 -1.4393171 -0.8434641 2.2106915 0.036360484 1.6941345 -0.5584947 -0.2977959
-0.61185235 -0.5796004 -0.9006647 -0.9020602 0.6543064 0.8047306 0.15118966 0.00021176721
-1.3623827 -1.7363548 -0.26233107 -0.37181148 -0.6084163 -0.87938553 -0.3287081 0.6459473
0.5485593 -1.1697628 1.2531725 1.1516997 1.1761266 -0.8743807 1.900996 0.4068231
0.3134642 -0.21077594 -0.64871234 -1.2957144 0.5422671 1.1386688 -0.16126095 -0.35889584
-0.02030211 -0.001888221 0.8604787 0.70154995 0.09070659 0.97401774 -1.0324922 2.5109546
0.91654724 -0.974662 -0.6843572 -0.7626659 -0.54097044 0.40939105 2.3924108 -0.4271203
-0.9740136 0.5836377 1.6844122 0.837853 0.58520985 0.21231428 -1.9391398 1.2470542
0.3225941 1.4929223 -1.6522048 1.2848632 0.8743412 1.7923734 1.1262234 0.8153435
0.1824522 -0.7053308 -0.10251616 0.8705859 0.80866194 1.1433786 0.00037707013 -0.24301025
0.6376911 -1.3810214 -0.14617017 0.61715496 0.4365884 0.6284398 0.46989825 0.16170347
-1.2085154 -0.9890669 -0.7291016 0.9797422 0.13342476 1.4856795 0.5930077 -0.72607464
0.18291277 -0.503651 0.13019603 -0.88786036 -1.003932 -0.92141885 0.068549074 0.3990882
0.060479637 0.1981314 -0.26605487 0.91791415 0.18066049 0.42930937 -0.90047675 -0.1304785
-0.8688468 0.7182168 -1.4401264 -0.6498314 0.77595466 -0.14144342 1.6857194 0.26124337
0.6606114 0.29440248 -0.70216143 -1.1988244 -2.2637174 0.2838428 -0.07636675 0.5413219
1.3871406 1.0033586 1.9413581 0.33537087 0.55560493 1.3889743 0.07906046 0.48545954
-0.39713013 0.19483735 0.8077884 1.3980843 0.922 0.37440187 -0.8251906 1.4928083
1.3584722 -2.435531 -0.7780623 0.10951051 -0.8203905 -0.037640452 -0.09483832 0.23790587
-0.30437133 0.53679323 0.05836543 -0.8941029 -1.2149913 1.1392983 -0.5389881 0.77335906
-0.025526319 -2.1717267 -0.05587249 -1.2598258 -0.110319294 0.5181666 -0.52909714 -0.9912325
-0.97311443 -0.49550968 -0.13206847 -1.0878893 -0.89324373 -0.9589461 1.553376 -1.2187556
1.0019944 0.81698245 0.72088474 2.5458896 0.47624987 1.4375932 1.23762 1.2852252
-0.56944484 -0.48440963 -0.55853504 -1.5447769 -0.27339417 1.7008064 -1.7084837 -1.8439306
0.7340243 -1.3200399 0.70066667 0.26296917 -0.48813963 -0.54948014 0.20955838 0.024033738
-0.4783286 0.6187052 -0.6213923 -1.0345635 -1.5856969 -1.7665039 1.1412385 -0.19616549
-1.1608746 -1.5926802 -0.65111035 -0.026232956 0.59989476 -0.09785184 -0.69283414 -1.0336417
-1.1008098 0.46241048 -1.8813162 -0.71528745 -0.39096648 -1.7510637 -1.1427491 -0.3921845

feature_bias f4 [6250]
00000000: b772 fd3f 79e2 ed3f e449 8140 13a6 b83e
00000010: 963d cb3f be56 3e40 c05e e53f e13b ce3f
00000020: 23b9 8940 46b6 943f b402 6f40 d100 c240
00000030: 80ed bd3f 37d5 4640 b4c3 8a40 93fc 5140
00000040: d06f 5a40 f682 f93e 8500 aa40 019d 6940
00000050: 5181 6640 0dba c83f 5f2c b840 b4d3 083f
00000060: b167 8d40 fc66 9b40 bf34 9d3f d379 a340
00000070: 2bc0 8c40 6ad8 5140 ed8a b640 5f08 7d40
00000080: 5e89 973e 759b 3740 016f a740 3c2d 7c40
00000090: 9ac4 aa3f 72c7 463f 1092 c140 3723 0e40
000000a0: ac34 4e3f 7151 ad40 088e 8c40 6d80 a940
000000b0: d26c bd40 0bd4 8340 c503 1f40 2990 da3f
000000c0: aa06 b740 b097 7d40 feed 323e 6e69 d23f
000000d0: c2f3 c740 4410 c23f 7578 f53f 0394 0240
000000e0: f309 6d3f c991 643f 4b6f 403f 86bc a640
000000f0: b29e af3e eead 8c3f b0bd 7d40 9207 c740
00000100: 1411 a840 3e17 f23f fe14 9440 1853 ad40
00000110: 49f4 043f d6e3 2f40 bbd8 8140 e2ae ab3d
00000120: ec60 c03f 3781 7c40 0f68 b23f 113c 7640
00000130: ed53 9b3f 5d9e 9d40 ae2f 2740 0a90 323e
00000140: 11ab 4e40 dc10 8b3f 9a1a 8440 2885 703f
00000150: 9852 a840 f2f9 9e40 a145 9f40 ef67 883e
00000160: cc9f 1140 256f 553f 6bcc 373d 0f9c 8240
00000170: 2904 dd3f 1bdd 5a3f 53f9 6040 e29c 9540
00000180: d5ec 8d40 059b b740 bdea ff3f a01d 393f
00000190: fe37 cb3f a555 5f40 cf78 7940 fd47 8640
000001a0: 6765 b340 9b14 b340 1f79 a73e dd43 3740
000001b0: 2afe 5840 c2fd 0940 cabe a740 c600 8d40
000001c0: 86d6 cd3e 4cb6 833f 39f0 0440 76ce ad40
000001d0: 6f8a 333f 3269 513f 28e3 5f40 5442 a240
000001e0: 68ac 8040 4109 a240 99c0 6b3f b90a 4a40
000001f0: 408a 4d40 1c27 c240 9ab4 0640 28cd 3b40
00000200: 2121 9b40 73be 0c40 210e ce3f ab87 4240
00000210: 49e3 c140 b82f 963f 1903 0740 14b1 8840
00000220: edcc 5340 fc36 4140 9c46 bc3f 8219 7d40
00000230: 7d4e c140 e858 b640 9ceb 453a 021f 3740
00000240: 71ad d73e fae8 9c40 1eb1 0940 f921 ca3f
00000250: 5ee4 1c40 ac41 f03f 9c88 1b40 c5e1 ae40
00000260: 38cf 1d40 fa4f cd3f ffa5 d83f 55b9 9440
00000270: 3fe5 a33f 7a8a 6e3f afb4 cf3e e3d6 8a40
00000280: e316 b340 e392 c340 d4e0 5840 1394 c840
00000290: a9c4 8140 aff1 bb40 9ff5 b040 06c0 0540
000002a0: 3dbf b63f 2680 9840 ecc8 1440 a305 0640
000002b0: 1a5d c140 f5ba e83f 4fc3 103f 86c1 1940
000002c0: 4495 b640 3ae6 7c40 b7e0 ae3f 61fb c040
000002d0: 5a3f a240 dba8 c340 0bf2 1540 9ee4 8040
000002e0: fa03 a940 ce24 9040 5637 6040 f165 9640
000002f0: 3ea0 823e e867 dd3f 8c8c 823f e5be 8d40
00000300: 1c37 2b3d 46aa 353e 82f8 8d40 5553 8840
00000310: 9d13 113f 7978 c040 bbdd 7339 8ae7 9540
00000320: a4ea 993d 0a6e 2c40 1c94 3d3d 10ce b140
00000330: e07e ec3f 691b dc3d 23d7 fa3f 1203 9a40
00000340: b505 ab40 a136 e03f 84cd 1840 4164 9e40
00000350: 6fa5 0d40 a67f 0e40 7843 fe3f 3ebd 9640
00000360: 27fb 0040 af01 f73f 4e8e 0d40 802b 603f
00000370: 3120 4a40 2449 943f 6c35 9c40 3723 4540
00000380: d889 a540 e879 6b40 204e da3f 5cd7 6a3f
00000390: ac7e 2940 74ee 233f 7159 7e40 37b9 7d3f
000003a0: 4f43 b33f 3ae8 a440 5156 1440 2103 8b3e
000003b0: 8e1d c340 642c 7740 c1f4 0440 32b8 2940
000003c0: 440f 7440 e38b 9140 61f1 b340 6499 0f40
000003d0: 2ad9 943c a1a4 9840 10a8 9b40 d53f 5740
000003e0: 0a79 9a40 79b2 c23f 5d84 873e 9c27 7b40
000003f0: a0e5 ac40 c715 2d40 d105 7240 4315 9d40
1.9800633 1.8584739 4.04027 0.36064205 1.587817 2.9740443 1.791954 1.6112024
4.3038497 1.1618125 3.73454 6.0625997 1.4838104 3.1067636 4.3363895 3.281041
3.4130745 0.48732728 5.3125634 3.6502078 3.6016428 1.5681778 5.7554164 0.53448033
4.4189076 4.8563213 1.2281722 5.108621 4.398458 3.2788339 5.7044587 3.953636
0.2959699 2.8688633 5.2323003 3.940261 1.3341248 0.7764808 6.04908 2.2208993
0.8054912 5.4161916 4.392338 5.296927 5.9195337 4.119634 2.484605 1.7075244
5.7195635 3.9623833 0.174736 1.6438425 6.2485056 1.5161214 1.9177386 2.040284
0.92593306 0.8928495 0.7516982 5.210513 0.34300762 1.0990579 3.9647026 6.219674
5.2520847 1.8913343 4.6275625 5.4163933 0.5193525 2.748281 4.0577064 0.083829656
1.5029578 3.9453866 1.3938006 3.8474162 1.2134987 4.9255815 2.6122851 0.17437759
3.229191 1.086452 4.1282473 0.9395318 5.2600822 4.968011 4.9772496 0.26641795
2.2753782 0.8337272 0.044872683 4.08155 1.7266895 0.8549363 3.5152175 4.6754007
4.43516 5.7376733 1.9993511 0.7231083 1.5876462 3.4896023 3.8979986 4.1962876
5.606128 5.5962653 0.32709596 2.863517 3.390513 2.1561131 5.2420397 4.4063444
0.4020273 1.0290008 2.077162 5.4314528 0.7013311 0.8180114 3.4982395 5.0705967
4.0210457 5.0636296 0.92090756 3.1569045 3.211563 6.067274 2.104773 2.9343967
4.847794 2.199124 1.6098062 3.0395305 6.058995 1.1733313 2.109564 4.271616
3.3093827 3.018981 1.4709048 3.9546819 6.040831 5.698353 0.0007550062 2.8612676
0.42124513 4.9034395 2.1514354 1.5791618 2.4514384 1.8770041 2.430213 5.4650598
2.4657726 1.6040032 1.6925658 4.6476235 1.2804335 0.9318005 0.40567538 4.3387313
5.596544 6.1116805 3.3887224 6.2680755 4.0552564 5.8732524 5.529983 2.0898452
1.4277111 4.765643 2.3247633 2.094094 6.042615 1.8182055 0.5654802 2.4024367
5.705721 3.951552 1.3662328 6.030686 5.0702333 6.1143622 2.3428981 4.0279074
5.2817354 4.5044928 3.5033774 4.699944 0.2551288 1.7297335 1.0199142 4.4295526
0.041800603 0.17740735 4.4365854 4.2601724 0.5667055 6.014706 0.00023256887 4.684514
0.07515457 2.6942163 0.046283826 5.556404 1.8476219 0.107474156 1.9596905 4.812875
5.3444467 1.7516671 2.3875437 4.949738 2.2132223 2.226541 1.986434 4.710601
2.0153291 1.9297389 2.2118106 0.87566376 3.1582148 1.1584821 4.881521 3.0802743
5.1730766 3.6793156 1.7055092 0.9173486 2.6483564 0.64035726 3.974209 0.9911074
1.4004916 5.153348 2.3177683 0.27150825 6.0973577 3.8620844 2.0774386 2.6518674
3.8134317 4.548326 5.623215 2.2437372 0.018169958 4.7700963 4.8642654 3.363271
4.8272753 1.5210716 0.26468173 3.9242926 5.4030304 2.7044542 3.781605 4.9088454

linear.weight f4 [1, 6250]
00000000: 4f23 2fbb 4f87 943c 737f 663c 275c 58bc
00000010: 3ac5 32bb 017d 05bb 262a e9ba 93a7 103c
00000020: 5412 a43c 3a19 42bc 44db ce3a 5d31 93bb
00000030: 2efb 7fb9 4d6a ad3a 43f1 18bc 96d8 c23c
00000040: 995d 603c bb0d a1bc 7f3d e43b 527b 283b
00000050: 32e1 c9bb 437b 0dbb eff9 3abc f8a1 14bb
00000060: 2032 e93a fcfc 9c3b 1345 00bc bc85 0dbc
00000070: 69f9 6f3b 29cf f53b 8be4 af3b c855 cb3c
00000080: 77eb 0bbc 7f5f 7d3c 98a9 4c3c 2c91 cc3d
00000090: 9717 643b eb6a 6fbd 0d97 8bbb 8b8d 0abc
000000a0: eecb 06bc 3d4f 683b a5ee a53c cdc8 233c
000000b0: 4cad fbbb 7fe0 4cba 1496 023c 1219 d1ba
000000c0: 1a13 8ebc ea6b 263b 01d2 963b 5bb0 48bc
000000d0: 4fc9 1dbc eab3 41bb 726b 3fbc 9217 7a3a
000000e0: 223f 203c 0387 14bc f8f1 a3bc b0a6 abbc
000000f0: a060 5ebb f871 a0bc 39a4 a83d 2023 f23b
00000100: ab5f a5b8 d3b5 2ebc e6e4 073c fc09 90bc
00000110: 9e90 51bb 2bbf 833b 95c4 a63b bb92 513b
00000120: c88f 263c b6da 9eba d663 503c b410 46bc
00000130: d675 143b a1e8 a0bc 431f 5a3b 0edf b5bc
00000140: 8e96 c43b dbd7 9abb 6f49 b9b9 2696 3bbc
00000150: 7c38 7b3b 0839 8bbc b5dd 343e a439 83bc
00000160: 5928 19bb ac37 723c 3640 3fbd 4662 13bc
00000170: 65da 6a3b b6f9 89ba 965e bdba 5bd0 d4bb
00000180: 3862 283c 8efe e9bc 3a1e 083d e0e1 bcbc
00000190: dcf1 143c c3ad 323d 5540 cdb9 31b7 21bc
000001a0: c230 07bc c07b 473c fdf7 59bb eae4 baba
000001b0: 9b78 623c 66a2 373c d434 0e3c 1498 91bb
000001c0: 4a57 84bb 6335 523b f104 44bc 36eb 7d3b
000001d0: 3f14 d0bb 3c9f 9ebb ff08 8ebb d1f0 a838
000001e0: c7db cb3c cd07 de3b 85a3 25bc 8457 ab3a
000001f0: ad29 9bbb 9236 0ebd d2e8 0e3c c2fc 053c
00000200: 9f46 0a3c 8247 4b3b bcc2 94bb 2f7c e73a
00000210: 7e85 35bc da99 a5bc f5ff 323c b1c9 a8bb
00000220: 4d85 d73b 05e2 263c 28f4 bf3b 1c8a 443b
00000230: 498b 99ba 42e5 69bc 99e2 1cbc d5a5 cd3b
00000240: 1726 85bc a2f5 31bc 687c 953c aadf e9ba
00000250: 82ab a13c 1c07 35bc 660d 493b 8eed 29bc
00000260: 2817 353c d76a 18bc 5cd7 c9bb 721e 623c
00000270: 8b2c fe3d 8557 483b aee9 f1bb d9e0 66bc
00000280: 26a8 a9bc 41aa b0bb 4621 293d f324 2abc
00000290: 2065 7abc 06b4 d5bc 5323 c13b 267d 873c
000002a0: a88c c2bb 4cfb f23b d4b6 903c 1a00 10bb
000002b0: 6154 1dbc 7543 bcbb 836d b6b9 41b6 473c
000002c0: 62c7 dcbc 463d 0dbe e5be 0d3b b65b 053c
000002d0: d613 723c 0070 0f36 d2fa b23a 5cf0 de3b
000002e0: 197c 71bb d551 1ebc 4c14 4a3c 0218 5f3c
000002f0: e5ea 94bc e7d9 8a39 933e 7abc 43c0 b3bb
00000300: 4b84 ff3a c1a7 cb39 eec4 2fbb b49a fe3b
00000310: 438e 01bc 73cf 8abc d406 29bc a6ea 203b
00000320: 5298 253a 340a f9bb 2b7c 06bb b32d 133a
00000330: 0814 ecbb b3b9 82bc fb4f a2bb 3dc0 9b3b
00000340: 2c45 13bc e7cb 593b 278d 453c 83a0 483e
00000350: 470d 183b 5d34 993b 69cd 0a3c c3e3 c53b
00000360: fcc7 1fbb 458b b2bb 7a97 68bc ac88 63bc
00000370: bc49 953a 2437 6ebd 405a 03bd 813b 093d
00000380: 77d7 9ebc c964 cd3c 2535 a03c 5297 5d3a
00000390: b55d 3ebb 99e6 643b ffe8 d43b fa16 383b
000003a0: 112d 4bbc 4292 92bc 220a cc3b 6ba6 18bc
000003b0: 6467 08bd f2c9 01bc eaf5 173c 36d2 da3b
000003c0: 239a e33c 0d9a 4dbc b0a4 2dbc 3d9d 2dbc
000003d0: 6d63 0b3c 7182 3cbc e02d 833c 224f c03c
000003e0: 7a8c bc3b 21cb ac3b 9045 d9bc 2848 f03b
000003f0: 7acc 453c ef5e 5a3d 78aa 373c 44b2 10bc
-0.0026723926 0.018130926 0.014068472 -0.013205565 -0.00272782 -0.0020368698 -0.001778905 0.008829015
0.02002827 -0.011846835 0.0015781899 -0.0044919685 -0.00024412267 0.0013230533 -0.009334865 0.023784917
0.01369419 -0.019659868 0.0069653387 0.002570827 -0.0061608786 -0.0021588362 -0.011412128 -0.0022679549
0.0017791428 0.0047909003 -0.007828969 -0.008637842 0.0036617166 0.007501502 0.0053678206 0.024821177
-0.008540026 0.015464663 0.012491606 0.09988627 0.00348041 -0.058451574 -0.00425995 -0.008456598
-0.008227332 0.003544762 0.020255396 0.009996605 -0.0076805707 -0.0007815435 0.007970352 -0.0015952906
-0.017343093 0.0025393912 0.004602671 -0.012249078 -0.009630515 -0.00295567 -0.011683332 0.00095402554
0.009780677 -0.009065392 -0.02001284 -0.020953506 -0.0033932105 -0.019585595 0.08234448 0.007389441
-7.885633e-05 -0.010663467 0.00829432 -0.017582886 -0.0031977068 0.0040205917 0.0050893524 0.0031978327
0.010166116 -0.0012119624 0.012719115 -0.012088943 0.0022653244 -0.019642176 0.0033282794 -0.022201087
0.005999393 -0.004725439 -0.00035340662 -0.011449372 0.0038333228 -0.016994968 0.176627 -0.016018696
-0.0023369996 0.014783781 -0.046692096 -0.008995598 0.003583574 -0.001052669 -0.0014447744 -0.0064945645
0.010277323 -0.028563764 0.03323195 -0.023056924 0.009090867 0.043622743 -0.00039148578 -0.009870336
-0.008251371 0.0121755 -0.0033259385 -0.0014258896 0.0138227 0.011208152 0.008679587 -0.004443178
-0.004038726 0.0032075278 -0.011964069 0.0038744933 -0.00635007 -0.0048407596 -0.0043345685 8.05572e-05
0.024885071 0.0067758323 -0.010109787 0.0013072346 -0.0047351927 -0.03472001 0.008722501 0.008177938
0.008439689 0.0031017964 -0.0045398157 0.0017660911 -0.01107919 -0.020214964 0.010925283 -0.0051509966
0.00657717 0.010185723 0.005857963 0.0029989546 -0.0011714484 -0.014275851 -0.0095755095 0.0062758722
-0.016253514 -0.010861786 0.018247798 -0.0017843146 0.019735102 -0.011049058 0.0030678152 -0.010371579
0.011052884 -0.009302816 -0.006159706 0.013801204 0.1241084 0.0030569744 -0.007382593 -0.014091694
-0.020710062 -0.0053913896 0.041291498 -0.010384786 -0.015282899 -0.026086818 0.0058941036 0.016539168
-0.0059371777 0.007415211 0.017665304 -0.0021972717 -0.009602637 -0.005745346 -0.00034795338 0.012189449
-0.026950542 -0.13792905 0.0021628675 0.008139541 0.014775237 2.1373853e-06 0.0013655073 0.0068035554
-0.003684765 -0.009663065 0.012333941 0.013616564 -0.018178413 0.0002648376 -0.015273708 -0.005485566
0.0019494382 0.00038844164 -0.002682026 0.007769907 -0.007907453 -0.016944623 -0.010316569 0.0024553924
0.0006316948 -0.0076000933 -0.0020520787 0.00056144147 -0.0072045363 -0.015957689 -0.004953382 0.004753141
-0.00898866 0.0033233108 0.012057579 0.1959248 0.0023201273 0.0046754316 0.008471825 0.006039114
-0.0024380675 -0.005448731 -0.014196271 -0.013887566 0.0011389772 -0.058158055 -0.03206849 0.033504013
-0.019389851 0.025072472 0.019556591 0.00084530294 -0.0029047553 0.0034927486 0.006497502 0.0028089867
-0.012400881 -0.017892007 0.006226794 -0.009317021 -0.033301726 -0.007921683 0.009274939 0.006677891
0.027783459 -0.012548936 -0.010598347 -0.010596571 0.008507592 -0.011505709 0.016013086 0.023475233
0.005754051 0.0052732383 -0.026522428 0.0073328204 0.012072677 0.053313192 0.0112100765 -0.008831564
