results/testing_better_stopping/SNGP/SNGP_R500_LS1.23_OS1.81_50000Sin/model.pt (torch, 7459 bytes, 3 tensors)

feature_weight f4 [500, 1]
0	0x3e631556	0.22176108
1	0x3ebe8bcb	0.3721603
2	0xbf1d5e4f	-0.6147203
3	0x3f860c7a	1.0472558
4	0x3f3c95c9	0.73666054
5	0xc00342fe	-2.0509639
6	0xc07191d8	-3.7745266
7	0xbf1fe871	-0.6246405
8	0xbf7c188d	-0.9847496
9	0xbf9306d5	-1.148646
10	0x4002c135	2.0430424
11	0xbff0bcc2	-1.8807604
12	0x3f1e7304	0.6189425
13	0x3e1bb111	0.15204264
14	0xbe7d340c	-0.24726886
15	0x4016f981	2.3589785
16	0xbfb110a0	-1.3833199
17	0x3f878224	1.0586591
18	0x3fad4f3a	1.3539803
19	0xbf70909d	-0.9397066
20	0x3f7b408d	0.9814537
21	0x3f4ef596	0.80843484
22	0x3f79fc5d	0.976507
23	0x3f545966	0.8294891
24	0x3f134c2a	0.5753809
25	0xc02da50b	-2.7131984
26	0xbf041c3e	-0.51605594
27	0x3d962c84	0.073327094
28	0xbf977920	-1.183384
29	0x3eedda09	0.4645541
30	0xbfb08bc2	-1.3792651
31	0xbef15568	-0.47135472
32	0xbfbaad26	-1.4584091
33	0xbd032767	-0.03202
34	0x3fab71cb	1.3394102
35	0xbd26cb00	-0.04072094
36	0xbf5784b4	-0.84186864
37	0xbfdedaff	-1.7410582
38	0x3e52bae0	0.205791
39	0x3f91f2e7	1.1402253
40	0xbfe97630	-1.8239193
41	0xbed8a9e0	-0.42317104
42	0xbfc19036	-1.5122135
43	0xbf0fdcb8	-0.56196165
44	0x3ebfb97e	0.37446207
45	0xbe8a188e	-0.2697186
46	0x3fc36de3	1.526791
47	0x3f9f604c	1.2451262
48	0xbf87a2b8	-1.0596533
49	0x3fa77d97	1.3085202
50	0x3e232a4a	0.15934101
51	0x3ee6609e	0.44995588
52	0xbf67ea9c	-0.9059236
53	0xbe026136	-0.12732396
54	0xbfa64a09	-1.2991344
55	0xbefe20a5	-0.4963428
56	0x3f6790a2	0.9045507
57	0xbe46ed07	-0.19426356
58	0x40077449	2.1164725
59	0x3fe19b01	1.7625428
60	0xbedf0035	-0.43554845
61	0x3fb5d6c6	1.4206169
62	0xbeeb9268	-0.46010137
63	0x3f35d079	0.7102123
64	0xbf7184ad	-0.9434307
65	0xbf1d661d	-0.6148394
66	0x3f8f1ded	1.1181008
67	0x3f47fc64	0.7811949
68	0xbf64d15f	-0.89381975
69	0xc033bd0c	-2.8084135
70	0x3fdf9dc1	1.7470018
71	0x3f436a31	0.7633391
72	0x3e18d756	0.14925894
73	0x3f18c537	0.59675926
74	0x3f7f4111	0.9970866
75	0xbe5d83fd	-0.21632381
76	0xbeaf1998	-0.34199214
77	0x3f02b59a	0.5105835
78	0x3fb3a9cf	1.4036196
79	0x3f191e00	0.598114
80	0xbed9893d	-0.42487517
81	0xbe8464a8	-0.25858045
82	0x3fe0d449	1.7564784
83	0xbe5361c1	-0.20642759
84	0xbec4f8d7	-0.384711
85	0xbfc48813	-1.5354027
86	0x3f40c2e2	0.7529737
87	0xbf1d1b3a	-0.6136967
88	0xbefc70af	-0.4930472
89	0xbea5d97b	-0.32392487
90	0xbf50708d	-0.8142174
91	0x3f539435	0.8264802
92	0xbfaaceed	-1.3344399
93	0x3f6df6cf	0.92954725
94	0xc0079dd3	-2.1190078
95	0x3f0048bc	0.50110984
96	0xbf6baca5	-0.9206031
97	0xbc8372b5	-0.016045908
98	0x3f404e4d	0.7511948
99	0xc0254025	-2.58204
100	0x3cf4e7cf	0.029895691
101	0x3fd6a384	1.6768651
102	0x3dcc3b85	0.0997229
103	0x3fa9a22b	1.3252615
104	0x3f90ba46	1.1306846
105	0xbcfe6bfc	-0.03105735
106	0x3f9f9d0a	1.24698
107	0x3e42ca70	0.19022536
108	0xbeb403d4	-0.3515917
109	0xbd3c0b6b	-0.045909327
110	0xbf94eef0	-1.1635418
111	0x3eb5a574	0.35477793
112	0xbfdedcd6	-1.7411144
113	0x3f21142f	0.6292142
114	0x3ffa6f72	1.956526
115	0xbdeaa3fc	-0.11457059
116	0xbe83ef82	-0.25768667
117	0x3e373846	0.1789256
118	0xc013b857	-2.3081262
119	0xbf6170c7	-0.8806271
120	0x3e99214f	0.29908225
121	0xbf156c9c	-0.5836885
122	0xbe9fc556	-0.31205243
123	0xbfc09215	-1.5044581
124	0xbf187303	-0.59550494
125	0xbf4775ac	-0.7791393
126	0xbe896f7a	-0.26842862
127	0x3e1ba762	0.1520057
128	0x3ea79666	0.32731932
129	0x3f778af5	0.96696407
130	0x3f4305f8	0.7618098
131	0xbfcfd6d7	-1.6237439
132	0xbf102f8a	-0.5632254
133	0xbfb1e6a9	-1.3898517
134	0xbf33c839	-0.7022739
135	0xbeefa0c3	-0.4680234
136	0xbec24d42	-0.37949568
137	0xbea7c339	-0.3276613
138	0xbe41a0c6	-0.18908986
139	0xbf3dc3ae	-0.7412671
140	0xbde40b18	-0.111349285
141	0x3f59df83	0.85106677
142	0x3eee491e	0.4654016
143	0xbf3d64ac	-0.7398174
144	0xbe420940	-0.18948841
145	0xbf1be4da	-0.60896075
146	0x3e74cecb	0.2390701
147	0x3ba1bea7	0.0049360576
148	0x400112e4	2.016778
149	0xbeec854a	-0.4619544
150	0xbfa06d32	-1.2533324
151	0xbebb262c	-0.3655256
152	0x3f81e93e	1.0149305
153	0xbf999977	-1.1999959
154	0x3f4ac123	0.79200953
155	0x3ff75e7f	1.9325713
156	0xbf60829b	-0.8769929
157	0xbf62fc2d	-0.8866604
158	0xbf3eb723	-0.74498194
159	0xbf17dc82	-0.59320843
160	0xbed2d355	-0.4117686
161	0xc001de40	-2.02919
162	0xbf5a6b1b	-0.8531968
163	0xbee7263d	-0.4514636
164	0xbee7c27f	-0.45265576
165	0xbe89b0df	-0.26892754
166	0x3c1075ba	0.008817131
167	0x3f245c62	0.64203465
168	0x3fcfa849	1.6223232
169	0xbf9dd6b6	-1.233115
170	0xbd4b391d	-0.049615014
171	0x3f8a0dc9	1.0785457
172	0x3f7bb228	0.9831872
173	0x3f062c53	0.52411383
174	0x3e2ed454	0.17073184
175	0xbeb034b3	-0.34415206
176	0xbf0e3d4c	-0.5556228
177	0x3e67b3bd	0.22627158
178	0xbe706bbf	-0.23478602
179	0x3e9df8d8	0.30853915
180	0x3e773c3e	0.24144074
181	0x3e8ef809	0.2792361
182	0x3f7c826d	0.98636514
183	0x3ea99d2e	0.3312773
184	0xbe4bd666	-0.19906005
185	0x3ef5cf90	0.4800992
186	0x3f3fd529	0.7493463
187	0x3f590ca6	0.84784925
188	0x3fadfc38	1.3592596
189	0xbf4f8256	-0.8105825
190	0xbf87d006	-1.0610359
191	0xbeab370d	-0.33440438
192	0x3f34a8e1	0.7057019
193	0x3eb22d6b	0.34800276
194	0x3f07581c	0.5286882
195	0xbebde203	-0.37086496
196	0xbff14b63	-1.8851131
197	0xbecfe15f	-0.40601632
198	0xbfa741ea	-1.306699
199	0x3f497980	0.7870102
200	0xbf5e0548	-0.8672681
201	0x3fdd9ff7	1.7314442
202	0xbd41adcc	-0.047284886
203	0x3f9981e3	1.1992763
204	0x3ead6e06	0.33873004
205	0x3facd93b	1.3503793
206	0x3f522ede	0.82102764
207	0x3e98e3ae	0.29861206
208	0x3f486e0d	0.78292924
209	0xbe8dbf15	-0.27684847
210	0x3ed4cc26	0.41562003
211	0x3f803b72	1.0018141
212	0x3e309d2e	0.1724746
213	0xbfb9038b	-1.4454206
214	0x3f2f90de	0.68580425
215	0x3fe0ef94	1.7573113
216	0xbec39f89	-0.38207653
217	0xbf8f1477	-1.117812
218	0xbf5facd5	-0.87373096
219	0xbee286ad	-0.44243374
220	0xbf6ced75	-0.9254983
221	0x3cd1519e	0.025551613
222	0x3fa58db3	1.2933868
223	0xbe37dbbe	-0.17954919
224	0x3f5f9092	0.8732997
225	0xbf892f10	-1.0717487
226	0x3f9613f1	1.1724836
227	0xbf1d91a8	-0.6155038
228	0xbd922240	-0.07135439
229	0xbfde5c80	-1.7371979
230	0xbfaf79fd	-1.3709103
231	0xbe16b7fb	-0.1471862
232	0xbebda35f	-0.37038705
233	0x3e5711c8	0.21002877
234	0x3ebeb076	0.37244004
235	0x3f73299f	0.94985384
236	0xbf27450c	-0.6533973
237	0xbfc5f101	-1.5464174
238	0xbe4f371f	-0.20235871
239	0x3dabc3ab	0.0838693
240	0xbf5d04ac	-0.86335254
241	0x3e370320	0.17872286
242	0x3f35b9b4	0.70986485
243	0xbe41aa14	-0.18912536
244	0x3f1f59d3	0.62246436
245	0x3f0c653f	0.5484199
246	0x3f385c27	0.72015613
247	0x3f670d36	0.90254533
248	0x3fbf9a0d	1.4968888
249	0x3f929c09	1.1453868
250	0xbef95b9c	-0.48702705
251	0x3e5a6a6c	0.21329659
252	0xc0318f64	-2.7743769
253	0x3ea8dacf	0.32979438
254	0x3f81e8e9	1.0149204
255	0x3f230220	0.6367512

feature_bias f4 [500]
0	0x408a5503	4.3228774
1	0x4009d88b	2.1538417
2	0x40abe1d9	5.3713193
3	0x4061faed	3.5309403
4	0x40727259	3.7882292
5	0x403a4578	2.91049
6	0x40719176	3.7745032
7	0x408309d9	4.094952
8	0x40966c40	4.700714
9	0x40a0767e	5.0144644
10	0x4093a464	4.613817
11	0x3f88cfb7	1.068839
12	0x3f00b6ea	0.50279105
13	0x408af556	4.342448
14	0x3e6dcccd	0.23222657
15	0x404dc6b0	3.215252
16	0x4021c52b	2.5276592
17	0x4013075c	2.2973242
18	0x408865e4	4.262438
19	0x3fe857d3	1.8151802
20	0x3fe0d6a1	1.75655
21	0x3fe0f572	1.7574904
22	0x3f4063d4	0.75152326
23	0x40a01c27	5.0034366
24	0x40250fdc	2.579093
25	0x3ef7277b	0.4827231
26	0x3f54c204	0.83108544
27	0x3f9d89be	1.230766
28	0x40704b43	3.7545936
29	0x40524aa1	3.285805
30	0x409a055e	4.813155
31	0x40374c6a	2.864039
32	0x40aa538c	5.3226986
33	0x40a8198e	5.2531195
34	0x405a39e2	3.409783
35	0x40c194ec	6.049429
36	0x4086a9b9	4.208218
37	0x3fed0e1c	1.8519931
38	0x409864ae	4.76229
39	0x3f8302e5	1.0235258
40	0x40baa9a0	5.833206
41	0x4095509d	4.6660905
42	0x40c4daa7	6.151691
43	0x40a9380c	5.2880917
44	0x405cea1e	3.4517894
45	0x400a844b	2.1643245
46	0x3fbe22e1	1.4854394
47	0x4069950f	3.6497228
48	0x3f8e6b24	1.1126447
49	0x404b39f7	3.175413
50	0x3fe4abe3	1.7864956
51	0x40878a8c	4.2356625
52	0x40a02b69	5.005299
53	0x3fbf3659	1.493846
54	0x3f741eeb	0.9535968
55	0x4074646d	3.8186295
56	0x3f9dafb9	1.2319251
57	0x3f85306b	1.0405401
58	0x4099e51b	4.809217
59	0x3fcc041c	1.5938754
60	0x403b84c5	2.9299786
61	0x3fb02d3c	1.3763804
62	0x40c35116	6.103648
63	0x40b6fc5a	5.7183046
64	0x40a2a47c	5.0825787
65	0x40c2a012	6.08204
66	0x4079a5d2	3.9007459
67	0x3fc55f93	1.5419792
68	0x408e334f	4.4437633
69	0x4099c8e4	4.805773
70	0x3feeec16	1.8665798
71	0x3fb74815	1.4318873
72	0x402744d4	2.613576
73	0x3f132207	0.57473797
74	0x3fbcf2e2	1.4761622
75	0x3e7e9d2d	0.24864645
76	0x3fedb17c	1.8569789
77	0x408feba0	4.497513
78	0x3f04d054	0.51880383
79	0x409257ae	4.573203
80	0x400cef6b	2.202113
81	0x4097d15d	4.744307
82	0x40b38e7d	5.6111436
83	0x3eb5037a	0.35354215
84	0x3f1418a5	0.57850105
85	0x3da2fb7e	0.079581246
86	0x3f82dd03	1.0223697
87	0x40af5994	5.479685
88	0x406b78db	3.6792514
89	0x3e9c3bf6	0.30514497
90	0x3f9cf801	1.2263185
91	0x3e2cae88	0.16863453
92	0x3edaa118	0.4270103
93	0x3f40bed0	0.75291157
94	0x3f0c12a8	0.5471597
95	0x3df1b406	0.11801915
96	0x3fb03178	1.3765097
97	0x4033cbe3	2.8093193
98	0x40971fe1	4.7226415
99	0x3f509eaf	0.8149213
100	0x3e1431c7	0.14472114
101	0x40c35d8a	6.1051683
102	0x3f2c2bcf	0.67254347
103	0x4007dc3e	2.1228175
104	0x3fd435c6	1.657891
105	0x3eddd3ec	0.43325746
106	0x3d8a0e22	0.06740977
107	0x4013a206	2.3067641
108	0x408442e5	4.133166
109	0x40b6ef06	5.7166777
110	0x40bdf2ae	5.935874
111	0x40861f27	4.191303
112	0x3e8e5247	0.27797148
113	0x3fd5d047	1.6704186
114	0x3fc29341	1.5201188
115	0x4090ce66	4.525195
116	0x40bdd32a	5.932027
117	0x4001e612	2.0296674
118	0x3dc3ab20	0.09554124
119	0x3f6032d0	0.87577534
120	0x401426e1	2.314873
121	0x3fcc56bc	1.5963969
122	0x4022bb2d	2.5426743
123	0x3fe40c80	1.7816315
124	0x40c03da5	6.007525
125	0x401d0357	2.4533288
126	0x3fee8451	1.863413
127	0x40a5e843	5.1846023
128	0x4098b62b	4.7722373
129	0x3f8e4460	1.1114616
130	0x40c0af0e	6.021369
131	0x408d33f4	4.412592
132	0x40b2668c	5.575018
133	0x40069468	2.102808
134	0x4089ef99	4.3104978
135	0x40baa8c2	5.8331003
136	0x407e0cb5	3.9695256
137	0x40c6f910	6.217903
138	0x40c90a31	6.282494
139	0x3fe2e600	1.772644
140	0x409fab59	4.9896665
141	0x40746595	3.8187
142	0x40b0333d	5.5062547
143	0x40a5fde8	5.1872444
144	0x40656c6f	3.5847433
145	0x40845c67	4.1362796
146	0x40b6252b	5.692037
147	0x3fc741a6	1.5566909
148	0x3ffe4ba8	1.9866838
149	0x40041d8c	2.0643034
150	0x3f56a91c	0.8385179
151	0x40c423ae	6.1293554
152	0x403019a7	2.7515657
153	0x3c053147	0.008129424
154	0x3eac66b7	0.33672115
155	0x3f4c3da7	0.79781574
156	0x3edef70f	0.43547866
157	0x409a3552	4.819009
158	0x3e49f3b8	0.19721878
159	0x407ab025	3.917001
160	0x3fb614bf	1.4225081
161	0x40a1ece5	5.060168
162	0x4081999e	4.050002
163	0x3f65291f	0.8951587
164	0x3f2b54c2	0.66926205
165	0x409a864b	4.828893
166	0x3e6b7edf	0.22997616
167	0x4069c096	3.6523795
168	0x4003e31f	2.0607374
169	0x406ec6a0	3.730873
170	0x40afe63e	5.4968557
171	0x40a58527	5.172504
172	0x403352e0	2.8019333
173	0x405da952	3.4634595
174	0x40c7f05f	6.248092
175	0x3f97db4f	1.1863803
176	0x3fad87c1	1.3557054
177	0x4022cac6	2.5436263
178	0x3fbf7799	1.4958373
179	0x4093fbac	4.6244717
180	0x40bc8420	5.8911285
181	0x3c35529b	0.011067058
182	0x40b236e6	5.5692015
183	0x40936695	4.606272
184	0x400489d5	2.0709126
185	0x40308e0a	2.7586694
186	0x405239a5	3.2847683
187	0x408572ea	4.1702776
188	0x3ef363e5	0.4753715
189	0x402c5b34	2.6930666
190	0x3f78ca78	0.9718394
191	0x3e8b34f4	0.27188838
192	0x40be9dc8	5.9567604
193	0x406a8fc1	3.665024
194	0x403fc75f	2.9965436
195	0x40c8ac7b	6.2710547
196	0x407077b6	3.7573066
197	0x3e0913fc	0.1338653
198	0x3fa49bb8	1.2860022
199	0x40afd171	5.4943166
200	0x3f4a24af	0.78962225
201	0x4017455f	2.363609
202	0x3f57d98c	0.84316325
203	0x40b321e1	5.5978856
204	0x4087793c	4.233549
205	0x3fb6f3bc	1.4293132
206	0x4003673c	2.053176
207	0x40a44fc0	5.134735
208	0x40629b9d	3.540748
209	0x3f705889	0.93885094
210	0x40ab2702	5.3485117
211	0x3f00a1ee	0.50247085
212	0x401c1f6c	2.4394178
213	0x404857b7	3.1303537
214	0x3ecccc53	0.39999637
215	0x4059b907	3.4019182
216	0x408a245e	4.3169394
217	0x400c52ba	2.1925492
218	0x401bd3fb	2.4348133
219	0x4079dbfe	3.9040523
220	0x40c1d77b	6.057554
221	0x4078d236	3.8878303
222	0x406f76a0	3.7416153
223	0x4099c79d	4.805617
224	0x4095062f	4.657005
225	0x40a2629f	5.0745387
226	0x3f048d02	0.5177766
227	0x3fd41363	1.6568416
228	0x3f8d8360	1.1055717
229	0x3f59be30	0.8505583
230	0x40165da9	2.3494666
231	0x403a1c3e	2.9079738
232	0x3f1dbde3	0.6161787
233	0x4048770f	3.1322668
234	0x40108850	2.2583199
235	0x3f3a148f	0.7268762
236	0x4087c5ad	4.2428803
237	0x40842437	4.1294208
238	0x405450c7	3.3174303
239	0x4087695e	4.231612
240	0x40ab41b6	5.3517714
241	0x3f65e101	0.89796454
242	0x4008ec9e	2.139442
243	0x40804e40	4.009552
244	0x4039ef1e	2.9052196
245	0x40458a51	3.0865672
246	0x3fcf9472	1.6217177
247	0x409893ec	4.768057
248	0x3f413b20	0.7548084
249	0x3fae8846	1.3635337
250	0x3f1acc2c	0.6046779
251	0x3ff00027	1.8750046
252	0x3feb1baa	1.8367817
253	0x3fc2595b	1.5183519
254	0x40c401c4	6.1252155
255	0x4088605c	4.2617626

linear.weight f4 [1, 500]
0	0x3c88460b	0.016634962
1	0xbc22c366	-0.009934282
2	0x3d6a0d77	0.057141747
3	0x3c97e598	0.018542096
4	0xbd3bb121	-0.04582322
5	0x3e35d915	0.17758591
6	0xbe566141	-0.20935537
7	0x3d6c634e	0.05771189
8	0x3da46ae1	0.08028198
9	0x3cf844a6	0.030306172
10	0x3eb6f111	0.35730794
11	0x3e10150b	0.14070527
12	0xbd09678c	-0.033546016
13	0x3d1ac4bf	0.037785288
14	0xbd513417	-0.051075067
15	0x3dcfb44a	0.10141809
16	0x3ddd06c3	0.10792305
17	0x3d23db46	0.040004037
18	0x3db23ada	0.08702631
19	0x3c65c783	0.014024618
20	0x3dae3e0b	0.085079275
21	0x3bec4d9d	0.0072114007
22	0xbd1d5fce	-0.038421445
23	0xbd6970f9	-0.056992505
24	0x3cde3868	0.027126506
25	0x3ecaacf3	0.39585075
26	0xbd3b1751	-0.045676533
27	0x3caf7a01	0.02142048
28	0x3dd3e3e4	0.10346201
29	0xbd03c7f6	-0.03217312
30	0xbcc9392e	-0.024563398
31	0x3d45c269	0.048281107
32	0xbd82614d	-0.06366215
33	0xbc91b4e0	-0.017786443
34	0x3def6c15	0.11690537
35	0xbd20e54c	-0.039281175
36	0x3d7ee7e6	0.062232874
37	0x3e49ec58	0.19719064
38	0x3ca70310	0.020387203
39	0xbd1eeb09	-0.038798366
40	0xbe5af93c	-0.21384138
41	0xbbeaa58d	-0.0071608485
42	0xbd96a0cb	-0.073548876
43	0x3c81cf01	0.015845777
44	0xbd06f06b	-0.032944124
45	0x3cde3435	0.027124504
46	0xbd10e388	-0.03537324
47	0x3d49f023	0.049301278
48	0xbd848add	-0.064717986
49	0x3d47ffdc	0.04882799
50	0x3d4da219	0.050203416
51	0x3cbefc0a	0.023313541
52	0x3d8ea06a	0.0696419
53	0x3c097e08	0.008391865
54	0xbd8d8643	-0.06910374
55	0x3d081f50	0.033232987
56	0xbc4e3692	-0.012586253
57	0xbcbf66c9	-0.023364441
58	0x3ee4ab3b	0.44661888
59	0xbe26f39d	-0.16303869
60	0xbd086164	-0.033296004
61	0xbdabb98d	-0.083850004
62	0x3cd1508c	0.025551103
63	0xbd991f77	-0.074767046
64	0x3d4f2580	0.050572872
65	0xbca8b2d2	-0.02059308
66	0x3c1c4c2b	0.009539644
67	0x3ccf9b5d	0.025342638
68	0x3d8247b8	0.063613355
69	0xbf6725b8	-0.9029193
70	0xbe323992	-0.17404774
71	0x3ca7d52f	0.020487396
72	0x3d0fd565	0.03511562
73	0x3ca2640e	0.0198231
74	0x3d316072	0.043304868
75	0xbd011a26	-0.031519078
76	0xbc38fdee	-0.01129101
77	0x3b899c03	0.0041995062
78	0xbd51c022	-0.051208623
79	0xbd87d1e3	-0.066318296
80	0x3ce0db62	0.02744836
81	0x3d2b5dc6	0.041837476
82	0xbc634c78	-0.013873212
83	0x3cd31780	0.025768042
84	0x3c0a651e	0.00844696
85	0xbe098650	-0.13430142
86	0x3bf0f542	0.0073534558
87	0x3d00a811	0.03141028
88	0x3d695640	0.05696702
89	0xbcf73a76	-0.030179244
90	0xbc9a62ac	-0.018845879
91	0x3c31ca6d	0.010851485
92	0xbda439ac	-0.080188125
93	0x3c4872b6	0.0122343805
94	0x3dec8a97	0.115498714
95	0xbd225f67	-0.039641764
96	0xbc68d831	-0.0142117
97	0x3d426108	0.047455817
98	0xbd346f82	-0.044051655
99	0x3f045d52	0.51704895
100	0x3c83ca92	0.016087804
101	0xbd78a1a4	-0.060701028
102	0xbb82158e	-0.0039698547
103	0x3c927f57	0.017882986
104	0x3d782118	0.060578436
105	0xbc8f7a5e	-0.017514404
106	0xbde78140	-0.11303949
107	0xbc2d7ac5	-0.010588353
108	0x3c4fae72	0.012675868
109	0x3cb2f1c7	0.021843804
110	0xbdb533c6	-0.088477656
111	0xbc8d6290	-0.017258912
112	0xbd4d96da	-0.05019269
113	0x3d31389e	0.043266885
114	0xbeaa86fe	-0.33306116
115	0x3cf0c3e6	0.029390287
116	0xbcd7f0a8	-0.026359871
117	0x3d099651	0.03359062
118	0xbc8e10c6	-0.017341983
119	0xbcca7661	-0.02471465
120	0x3d0283f1	0.03186411
121	0xbd1a788f	-0.03771263
122	0xbc0026f6	-0.007821789
123	0x3df1f23f	0.11813783
124	0x3d184154	0.037171677
125	0xbb788528	-0.0037921164
126	0x3be2441a	0.006905091
127	0xbd2ee97b	-0.042703133
128	0xbd55976e	-0.052146368
129	0x3c8cbf23	0.017180985
130	0xbd35c59b	-0.044377904
131	0xbd4653bb	-0.048419695
132	0x3d4ae4a2	0.049534447
133	0x3d886ce7	0.066613965
134	0x3d612f3d	0.05497669
135	0x3cd4351a	0.025904227
136	0xbb251eb3	-0.00251953
137	0xbd141774	-0.03615518
138	0x3c0e2df3	0.008677947
139	0xbd972e7c	-0.07381913
140	0x3c455fe6	0.01204679
141	0x3d239d63	0.039945018
142	0xbcd12bb2	-0.02553353
143	0x3d55f841	0.052238706
144	0xbb88daa3	-0.004176454
145	0x3b87a845	0.0041399323
146	0x3c8fea52	0.017567787
147	0x3d0f307f	0.03495836
148	0xbea0d15e	-0.31409734
149	0xbc6840e9	-0.014175632
150	0xbd9fc0df	-0.07800459
151	0xbc42bed3	-0.011886316
152	0x3cd5680d	0.026050592
153	0xbd7486a1	-0.059698705
154	0xbcd0ab4b	-0.025472304
155	0xbea22dca	-0.3167556
156	0xbd9c6e34	-0.07638207
157	0x3d80574c	0.062666506
158	0xbbb121b6	-0.00540563
159	0xbb75f37b	-0.003752916
160	0xbd0e11b7	-0.034684863
161	0xbed56542	-0.41678816
162	0x3d8b8068	0.06811601
163	0xbd5b3f51	-0.05352718
164	0xbd5f6e08	-0.054548293
165	0x3cb4d638	0.022074804
166	0xbc7cdb9c	-0.015433218
167	0x3d08ff7b	0.03344677
168	0xbd8f8526	-0.07007818
169	0x3dd4fc3e	0.10399674
170	0x3cb02a66	0.021504592
171	0xbd71252d	-0.058873344
172	0x3d5c2ce4	0.05375375
173	0x3d158026	0.036499165
174	0xbd3a6043	-0.04550196
175	0xbaa4a920	-0.001256261
176	0xbc6a715d	-0.0143092545
177	0x3d22d200	0.039751053
178	0xbc5272eb	-0.012844781
179	0x3bb254cc	0.0054422375
180	0xbc6f8c74	-0.014620889
181	0xbca1ce4a	-0.019751687
182	0xbda9db2d	-0.082937576
183	0xbd47ebbf	-0.04880881
184	0xbbc579ba	-0.006026474
185	0x3d7799d2	0.06044943
186	0x3d6d38de	0.05791556
187	0x3cb946d8	0.022616789
188	0xbd82a40f	-0.06378948
189	0xbbbd1fa8	-0.005771596
190	0xbd0409e5	-0.032236
191	0x3bdef67d	0.006804286
192	0xbd1cd736	-0.03829118
193	0xbc981ed2	-0.018569384
194	0xbc223324	-0.009899888
195	0x3c767662	0.015042873
196	0xbd64de7e	-0.055876248
197	0xbc65fd30	-0.014037415
198	0xbd4333ea	-0.04765693
199	0xb8e57f14	-0.00010943241
200	0xbd394bfa	-0.045238473
201	0xbca678c2	-0.020321254
202	0xbd316bb0	-0.04331559
203	0xbd3f76d7	-0.046744194
204	0xbbe94a53	-0.007119456
205	0xbd8689b0	-0.065692306
206	0x3d79e8a7	0.06101289
207	0xbd49067a	-0.049078442
208	0xbc6c2daf	-0.014415189
209	0x3cbdae87	0.02315451
210	0x3c2cbd3f	0.010543167
211	0xbc922175	-0.01783822
212	0x3c625eba	0.01381653
213	0x3dc37898	0.09544486
214	0x3ae6b090	0.0017600227
215	0x3e142088	0.14465535
216	0x3d87c9d1	0.0663029
217	0x3d12c33c	0.03583072
218	0xbb694b1b	-0.0035597745
219	0x3ca1b0ce	0.019737627
220	0xbd099b8a	-0.0335956
221	0x3d4a9775	0.049460847
222	0x3d7460eb	0.05966274
223	0xbceca02c	-0.02888497
224	0xbd744c07	-0.059642818
225	0x3c594fd8	0.013263665
226	0xbc8452cf	-0.016152767
227	0xbd20ab70	-0.039225996
228	0xbc884192	-0.016632829
229	0x3cef769c	0.029231362
230	0x3dbc3295	0.09189335
231	0x3cc15f4c	0.023605011
232	0xba19382d	-0.00058448577
233	0x3d09f4ee	0.03368085
234	0x3cf2a436	0.029619318
235	0x3cb4b1f5	0.022057513
236	0xbb7994c4	-0.0038083056
237	0x3c93ea0a	0.018055934
238	0x3d199a20	0.0375005
239	0x3d37d825	0.044883866
240	0xbcd8dd02	-0.026472572
241	0x3b6983ca	0.003563153
242	0xbad9799a	-0.0016592026
243	0xbb8984db	-0.004196746
244	0x3cdb27e6	0.026752423
245	0x3d0a9a50	0.03383857
246	0x3d7c64c1	0.061619524
247	0xbc9314ce	-0.017954256
248	0xbdbc3cc8	-0.091912806
249	0xbc924d5f	-0.017859159
250	0xbca6b265	-0.020348737
251	0xbc820249	-0.01587023
252	0x3f57773e	0.84166324
253	0x3cbcfd15	0.023069898
254	0xbd8f310a	-0.06991775
255	0xbbb444fc	-0.0055013876
