results/SNGP_FINAL_RESULTS/SNGP/SNGP_R6250_LS1.25_OS1.75_25000Sin/model.pt (torch, 76806 bytes, 3 tensors)

feature_weight f4 [6250, 1]
0	0x3cb3c63b	0.02194511
1	0x3f23b43b	0.63946885
2	0xbefa24dd	-0.4885625
3	0x3ef4a8c6	0.47785014
4	0xc01617c5	-2.3452008
5	0xbf2060a8	-0.62647486
6	0x3ebcf084	0.3690225
7	0xbf2f8579	-0.6856304
8	0xbe410b31	-0.18851925
9	0x3eab6ab5	0.33479849
10	0x3fbf5adb	1.4949602
11	0xbd7ddb0a	-0.06197647
12	0xbece1281	-0.40248492
13	0x3f5114b9	0.81672245
14	0x3f0f4fb9	0.5598102
15	0xbef9a2d2	-0.48757035
16	0xbfe88c31	-1.8167783
17	0x3fd71570	1.6803417
18	0x3dd903ab	0.10596403
19	0x3e4e75c2	0.20162109
20	0xbe39d5b4	-0.18147928
21	0x3fb053e0	1.3775597
22	0xbf8db0b3	-1.1069549
23	0x3fca9253	1.5825905
24	0xbfab4084	-1.3379064
25	0xbf97393f	-1.1814345
26	0x3ef726bd	0.48271742
27	0xbfcdfbda	-1.6092484
28	0xbfd4c716	-1.6623256
29	0xbda5b59b	-0.08091279
30	0x3e41ea16	0.18936953
31	0xbf80f173	-1.0073684
32	0x3f68d267	0.9094605
33	0x3f22bdd0	0.6357088
34	0x3f5555a9	0.8333383
35	0xbf80598d	-1.0027329
36	0xbf44f362	-0.7693387
37	0xbf2c2e09	-0.67257744
38	0x3eb54085	0.35400787
39	0xbe041994	-0.12900382
40	0xbf675519	-0.90364224
41	0xbe5a8f89	-0.21343817
42	0xbe9f1940	-0.31073952
43	0xbed56462	-0.41678149
44	0xbf8ab73d	-1.083717
45	0xbfe80578	-1.8126669
46	0xbe677f95	-0.22607262
47	0x3f6d3a5d	0.9266718
48	0xbeaffe9d	-0.34373942
49	0x3e062e4a	0.13103595
50	0xbf477db0	-0.7792616
51	0xbf43f124	-0.76539826
52	0x3f850a61	1.0393792
53	0x3f602e82	0.87570965
54	0xbfa4bdc0	-1.2870407
55	0x3f7c9d5d	0.9867762
56	0xbd45e7e9	-0.04831687
57	0xbf0979d0	-0.53701496
58	0xbe5899ea	-0.21152464
59	0x3fe81853	1.8132423
60	0x3f406bfe	0.75164783
61	0x3ee2ade5	0.44273296
62	0xbfaa00bd	-1.3281475
63	0x3f5d4386	0.8643116
64	0x3e71108d	0.2354147
65	0x3fd998ec	1.6999793
66	0x3f472764	0.7779448
67	0x3f7cea52	0.98795044
68	0xbf7b4937	-0.9815859
69	0xbf04b201	-0.5183411
70	0x3fdc4198	1.7207518
71	0xbf209210	-0.62722874
72	0xbf85241e	-1.0401647
73	0x3e93714a	0.2879737
74	0xbf4c4362	-0.7979032
75	0x3f77e438	0.9683261
76	0x3eacc222	0.33741862
77	0xbd366efc	-0.044539437
78	0x3eb8e459	0.36111715
79	0x40150425	2.328378
80	0xbf80dcf1	-1.0067426
81	0xbf908685	-1.1291052
82	0x3ec83026	0.39099234
83	0xbf94920b	-1.1607069
84	0xbf85ac75	-1.0443255
85	0xbfcdaf8e	-1.60692
86	0x3b05bca2	0.0020406623
87	0x3fc4caac	1.537435
88	0xbd48e7aa	-0.049049057
89	0x3fc141f5	1.5098253
90	0x3fc1c7e7	1.513913
91	0x3f4e093a	0.8048283
92	0xbec5ad12	-0.38608605
93	0x3e06a79f	0.1314988
94	0x3f99a917	1.2004727
95	0x3ef73895	0.48285356
96	0xbe6442d7	-0.22291122
97	0x3e7c6e15	0.24651368
98	0x3eff0df3	0.4981533
99	0xbf4b2bba	-0.79363596
100	0x3f51a62d	0.8189419
101	0x3f4f2011	0.80908304
102	0xbfeb50aa	-1.8383992
103	0xc00b1e71	-2.173733
104	0x3fb53dac	1.4159446
105	0xbfb92781	-1.4465181
106	0x3f044a8b	0.51676244
107	0x3fe76917	1.8078946
108	0xbfdcafdd	-1.7241169
109	0x3daf3548	0.085550845
110	0xbca17a53	-0.019711649
111	0xbf23b8b0	-0.63953686
112	0x3f33961d	0.7015093
113	0xbd841073	-0.0644845
114	0xbed33569	-0.41251686
115	0x3fc3fb78	1.5311117
116	0xbf2b1bd9	-0.6683937
117	0x3e86117c	0.26185215
118	0xbf6e1e7d	-0.9301527
119	0xbf90b868	-1.1306276
120	0x4001ab17	2.0260675
121	0xbf9758ee	-1.1824014
122	0x3e99bacf	0.30025336
123	0x3fbf1d3f	1.49308
124	0x3f5f9c67	0.87348026
125	0xbec89a18	-0.39180064
126	0x3dedfc99	0.11620445
127	0x3fa354be	1.2760236
128	0x3fd82b07	1.6888131
129	0xbfb968a7	-1.4485062
130	0x3da80348	0.08203751
131	0x3f517d57	0.8183188
132	0xc00d3097	-2.2060907
133	0xbd3de232	-0.046358295
134	0xbf6d4faa	-0.9269968
135	0x3f731324	0.9495108
136	0x3e79afeb	0.24383514
137	0x3f4e18ff	0.8050689
138	0xbfee5634	-1.8620057
139	0xbf89a510	-1.0753498
140	0xbfd28288	-1.6446085
141	0x3e187e03	0.1489182
142	0x3dd18595	0.10230557
143	0x3fac5ff1	1.3466779
144	0xbefc48d3	-0.4927431
145	0xbfc1adc8	-1.5131159
146	0xbe897f83	-0.26855096
147	0xbf07f901	-0.53114325
148	0xbf208024	-0.6269553
149	0x3ebf05ca	0.37309104
150	0x3e6ee3ce	0.23329088
151	0x3e24603e	0.16052338
152	0xbf1db07d	-0.61597425
153	0x3f8f72b6	1.1206882
154	0xbf5d8dba	-0.8654438
155	0x3d9e6936	0.07734911
156	0xbf1c3368	-0.6101594
157	0xbedc02a6	-0.4297077
158	0x3ed1ec4e	0.410006
159	0x3f561bd4	0.8363621
160	0x3e45d684	0.19320112
161	0x3ee8255b	0.45341
162	0x3eb7549f	0.35806748
163	0x3fbf815f	1.4961356
164	0x3e8bd277	0.2730901
165	0xbf47229f	-0.777872
166	0xbf390d29	-0.72285706
167	0xbe49af30	-0.19695735
168	0xbe534ef4	-0.20635587
169	0x3f4f8429	0.81061035
170	0x3f92862f	1.14472
171	0x401d3632	2.4564328
172	0x3f733848	0.95007753
173	0xbf89c5b0	-1.0763454
174	0x3fcdfba2	1.6092417
175	0xbeee44ff	-0.46537015
176	0xbbea1cda	-0.0071445527
177	0x3fa0ede5	1.25726
178	0xbef6dda2	-0.48215967
179	0x3ecc2c84	0.39877713
180	0xbf8fd139	-1.1235725
181	0xbfcdc613	-1.6076072
182	0xbfa611ae	-1.2974145
183	0x3e8e37f5	0.27777067
184	0x3fdf6e57	1.7455548
185	0xbfb06e33	-1.378363
186	0x3ff9799c	1.9490237
187	0x3e8d5028	0.27600217
188	0xbf84c145	-1.0371481
189	0x3fef6363	1.8702205
190	0xbf475f7c	-0.7788007
191	0x3f8e1fa6	1.1103408
192	0x3f56ef4b	0.8395888
193	0xbf223c43	-0.633732
194	0xbf1ec7ea	-0.62023795
195	0xbfde4d13	-1.7367271
196	0x400d52ea	2.2081857
197	0xbe7fed88	-0.24992955
198	0x3da44de3	0.08022668
199	0xbff8fda6	-1.9452407
200	0x3eb7d598	0.35905147
201	0xbe17d2be	-0.14826486
202	0x3e3fa448	0.18715012
203	0xbe8024d7	-0.25028107
204	0x3eabe202	0.33570868
205	0xbfaec20d	-1.365297
206	0xbd8269ff	-0.063678734
207	0xbedd3bcb	-0.4320968
208	0x3f668057	0.9003958
209	0x3f157803	0.5838625
210	0x3f0abc19	0.54193264
211	0xbd482c0b	-0.048870128
212	0xbe7ab171	-0.24481751
213	0x3ee3d811	0.44500783
214	0x3e63fef1	0.22265221
215	0x3fe0b0f8	1.7554007
216	0x3e2b996a	0.16757742
217	0x3f0c2234	0.5473969
218	0xbfc89e88	-1.567338
219	0xbe46b7f8	-0.19406116
220	0x3f4cdba6	0.80022657
221	0xbfafa035	-1.3720766
222	0x3f35bb90	0.7098932
223	0x3f8a4ef5	1.0805346
224	0x3ee3e053	0.44507083
225	0x3e935e8f	0.2878308
226	0xbdadff0f	-0.08495914
227	0xbe38efe4	-0.18060261
228	0xbe5eecaa	-0.21769968
229	0x3e92c3b5	0.28664938
230	0xbf0ad016	-0.54223764
231	0xbfedd777	-1.858138
232	0xbea2ce85	-0.31798187
233	0xbf088629	-0.5332971
234	0xbfc2131b	-1.516208
235	0x3f5ae8e7	0.8551163
236	0x3ecd34b6	0.40079278
237	0xbfd791e4	-1.6841397
238	0x3e81aa2a	0.25325137
239	0x3f81c038	1.0136786
240	0x3d2aed97	0.04173049
241	0xbf49cede	-0.7883128
242	0x3f742bb5	0.9537919
243	0xbe8910e0	-0.26770687
244	0x3f4a51be	0.7903098
245	0xbdc417bd	-0.0957484
246	0xbf1d7811	-0.6151133
247	0x3e9a5f7b	0.3015097
248	0x3eb74716	0.35796422
249	0x3d84e343	0.06488659
250	0xbe990081	-0.29883197
251	0xbeaa838c	-0.33303487
252	0xbe369d46	-0.17833433
253	0x3e354e82	0.1770573
254	0xbf4af762	-0.79283726
255	0x3f761008	0.9611821

feature_bias f4 [6250]
0	0x3e993714	0.29924834
1	0x3f3b60d5	0.7319463
2	0x4067790b	3.6167629
3	0x405a0d71	3.4070704
4	0x3f58b505	0.84651214
5	0x4059f3d1	3.4055064
6	0x3e483a86	0.19553575
7	0x40a2fde0	5.0934906
8	0x4042e98e	3.045505
9	0x4033f55c	2.8118505
10	0x3fcf4fad	1.619619
11	0x3fa1787a	1.2614892
12	0x3fb5ec62	1.4212763
13	0x40b26e26	5.575946
14	0x3f8d3147	1.1030663
15	0x4084cb03	4.1497817
16	0x4011b27e	2.2765193
17	0x4080d074	4.025446
18	0x4031cba4	2.7780542
19	0x4000d212	2.0128217
20	0x3f196e34	0.5993378
21	0x3f0102d4	0.5039494
22	0x4047b9a3	3.1207054
23	0x408bf0ee	4.3731604
24	0x40867ad5	4.202494
25	0x3fdc743f	1.7222975
26	0x3f8d87af	1.1057032
27	0x40afe054	5.496134
28	0x4068cc8f	3.6374853
29	0x3f0e8bb0	0.55681896
30	0x40a21df7	5.066158
31	0x40b1ca0f	5.5559154
32	0x4063e5cd	3.560901
33	0x3f34fe58	0.707006
34	0x40981f23	4.753801
35	0x3c178863	0.009248826
36	0x3dbaad52	0.091150895
37	0x3f65c633	0.89755553
38	0x4063d6fc	3.5599966
39	0x40b78354	5.7347813
40	0x3e50a1a1	0.20374157
41	0x3fe9cb0c	1.826509
42	0x40a26dbf	5.0758967
43	0x409cd266	4.9006834
44	0x409eb7f7	4.9599566
45	0x402d6690	2.709385
46	0x3ef5dd6b	0.4802049
47	0x3c435fba	0.011924678
48	0x3f92e053	1.1474708
49	0x40c704f8	6.2193565
50	0x4084c2e7	4.148792
51	0x3fc439c0	1.5330124
52	0x4047b407	3.120363
53	0x3e3b7019	0.1830448
54	0x40c1dffd	6.0585923
55	0x408c26be	4.3797293
56	0x3ed2d559	0.41178396
57	0x40897c56	4.2964277
58	0x3f6e0891	0.9298182
59	0x400cf415	2.2023976
60	0x406bcb2d	3.6842759
61	0x3efa8ec8	0.48937058
62	0x40462bf6	3.0964332
63	0x408f7eeb	4.484243
64	0x40341ef4	2.8143892
65	0x40a58efb	5.1737037
66	0x40a942df	5.289413
67	0x3f804cb0	1.0023403
68	0x3e514225	0.20435388
69	0x3f966ce8	1.1751986
70	0x401fd0ed	2.4971268
71	0x40028890	2.039585
72	0x409eecd8	4.9664116
73	0x405696d7	3.3529565
74	0x3f965d6c	1.174726
75	0x40977e4f	4.7341685
76	0x40a9be7c	5.3045025
77	0x3f7f988e	0.99842155
78	0x3f71eae1	0.9449902
79	0x405bdb6d	3.4352677
80	0x3fd50b99	1.6644164
81	0x409c10b9	4.8770413
82	0x408e3541	4.4440007
83	0x40816e64	4.0447254
84	0x409da8a4	4.926836
85	0x3fdcc2d9	1.7246963
86	0x40621cec	3.5330153
87	0x405cdbd4	3.4509172
88	0x3ed4c593	0.41556987
89	0x407dd619	3.9661925
90	0x40763abd	3.847335
91	0x3d1a245e	0.03763234
92	0x405982bd	3.3986046
93	0x401a327d	2.4093316
94	0x407479e4	3.8199396
95	0x40c0cdc6	6.025119
96	0x40c02673	6.0046935
97	0x401b4380	2.4259949
98	0x3fae4af3	1.3616623
99	0x40bf181d	5.9716935
100	0x3f2618e5	0.64881736
101	0x3f1894ad	0.5960186
102	0x403dd6de	2.9662395
103	0x3ef55107	0.4791338
104	0x402c1dae	2.6893115
105	0x40b39532	5.6119623
106	0x3faec090	1.3652515
107	0x3fea29cc	1.8294005
108	0x3fadc4b2	1.3575652
109	0x40c8007c	6.250059
110	0x40ad37ee	5.4130774
111	0x403013a7	2.7511995
112	0x40862959	4.1925473
113	0x40b1e7f9	5.559567
114	0x40be3ae4	5.944689
115	0x40a6884b	5.2041373
116	0x404a07d2	3.1567273
117	0x407042b0	3.7540703
118	0x40875a80	4.2297974
119	0x40c40c43	6.126497
120	0x40702973	3.7525299
121	0x40a6de8a	5.2146654
122	0x4080af9d	4.021437
123	0x3f28c5b6	0.6592668
124	0x402772b4	2.616376
125	0x3ee20bb2	0.44149548
126	0x3f3f433f	0.74711984
127	0x4061f4df	3.5305707
128	0x3d0609a7	0.03272405
129	0x4098cac2	4.7747507
130	0x3ff28473	1.894667
131	0x4069e7ff	3.654785
132	0x3f80e751	1.0070592
133	0x409f91e1	4.9865575
134	0x3d78da01	0.06075478
135	0x407974fc	3.8977652
136	0x3f945045	1.1586996
137	0x4065da26	3.5914397
138	0x3fe12af6	1.7591236
139	0x4083782a	4.1084185
140	0x40c517d7	6.15916
141	0x3fd60744	1.6720967
142	0x3fd258ae	1.6433313
143	0x40aa438a	5.3207445
144	0x4031d390	2.7785378
145	0x40c2b642	6.0847483
146	0x40706283	3.7560127
147	0x407cd96d	3.9507706
148	0x4004ab09	2.0729392
149	0x4016ffe8	2.3593693
150	0x40ac7776	5.3895826
151	0x40215909	2.5210593
152	0x3fe42a2c	1.782537
153	0x3f1eeea5	0.6208289
154	0x40c8c6ae	6.274253
155	0x3ff49df5	1.9110705
156	0x3fe5e50d	1.7960526
157	0x40905e09	4.511479
158	0x40a89645	5.2683434
159	0x3f7392c0	0.951458
160	0x3ffd02b8	1.9766455
161	0x40a93cba	5.288663
162	0x40c3b3fe	6.1157217
163	0x403c582a	2.942881
164	0x3f41ea6b	0.7574832
165	0x401285d3	2.289418
166	0x402a5679	2.6615279
167	0x401b4734	2.426221
168	0x3fd82642	1.6886675
169	0x4045038a	3.078341
170	0x401b698f	2.4283178
171	0x402280ac	2.5391035
172	0x402746ee	2.6137042
173	0x3ff149f3	1.8850693
174	0x40bdbd39	5.9293485
175	0x40694146	3.644609
176	0x3de94041	0.113892086
177	0x408ed438	4.4634056
178	0x408ee7cc	4.4657955
179	0x3fdfde5f	1.7489737
180	0x4003671d	2.0531685
181	0x408d4b75	4.415461
182	0x3eca0d97	0.39463493
183	0x3ea87440	0.32901192
184	0x400264a8	2.0373936
185	0x409c6792	4.887643
186	0x40c4afcb	6.146459
187	0x4085ef03	4.185426
188	0x40c1173b	6.0340858
189	0x40a23c75	5.06988
190	0x40a2e30f	5.090217
191	0x3ffe28ea	1.9856236
192	0x401883eb	2.3830516
193	0x40bd7ecb	5.9217277
194	0x3fa28630	1.2697201
195	0x40c4853f	6.1412654
196	0x405ac7a2	3.4184346
197	0x406439c5	3.566026
198	0x40721ba4	3.782937
199	0x403ca90e	2.9478183
200	0x40382814	2.8774462
201	0x40075d7c	2.1150808
202	0x40976649	4.731236
203	0x401d33d5	2.4562886
204	0x3febdafc	1.8426204
205	0x40673192	3.6124005
206	0x407dad0f	3.9636877
207	0x401eb796	2.4799552
208	0x40c4858c	6.141302
209	0x405296be	3.2904506
210	0x40951d2e	4.659812
211	0x40131bd6	2.298574
212	0x402a7648	2.6634693
213	0x40247b36	2.5700202
214	0x3f2b5101	0.6692048
215	0x3f9b014c	1.2109771
216	0x401fce93	2.4969833
217	0x3f39a390	0.725152
218	0x3ede969a	0.43474275
219	0x3f70e9b0	0.9410658
220	0x4088396e	4.2570105
221	0x3f486045	0.78271896
222	0x40b18920	5.547989
223	0x40360330	2.8439445
224	0x407acb9d	3.9186776
225	0x40aae51a	5.3404665
226	0x40b2fba9	5.59322
227	0x4002aefb	2.04193
228	0x40377f44	2.8671427
229	0x40799d1d	3.9002144
230	0x40c22be1	6.0678563
231	0x3ef03226	0.4691326
232	0x40004776	2.0043616
233	0x4078c587	3.887056
234	0x405086e4	3.258233
235	0x406e71aa	3.7256875
236	0x3f747277	0.9548716
237	0x40a4ee7f	5.1541133
238	0x3f834966	1.0256774
239	0x40a7a58c	5.2389584
240	0x3f856fcd	1.0424744
241	0x408f4313	4.476938
242	0x3fa352d2	1.275965
243	0x4090ec0e	4.5288153
244	0x40a439a0	5.1320343
245	0x3f5efd8a	0.8710562
246	0x3fceab64	1.6146054
247	0x3d57fd36	0.052731715
248	0x4094e6e7	4.6531863
249	0x3e5e0e56	0.21685156
250	0x40c6bf0b	6.2108207
251	0x406ca78f	3.697727
252	0x40bc56cd	5.885596
253	0x3e4d62c7	0.20057212
254	0x3f46ba96	0.7762846
255	0x4003a62c	2.0570173

linear.weight f4 [1, 6250]
0	0x3bee450f	0.007271416
1	0x3bb9fbf6	0.005675788
2	0xbb45246e	-0.0030081528
3	0xbc14124e	-0.009037567
4	0x3e094e3f	0.13408755
5	0x3c29a419	0.010354065
6	0xbaaaa238	-0.0013018316
7	0x3c8e3d1e	0.017363127
8	0x3c0ee025	0.008720432
9	0x3b3bfc0d	0.002868417
10	0xbc75132a	-0.014958182
11	0xbc411402	-0.011784555
12	0xbc91381d	-0.017726952
13	0xbc1a54a2	-0.009419592
14	0x3c9699e6	0.018383931
15	0x3c0c126d	0.008549315
16	0x3d9a4089	0.0753184
17	0x3d3f4ae0	0.046702266
18	0x3c07c1b3	0.008285928
19	0xbba9dcd4	-0.0051837955
20	0x3bb5b100	0.0055447817
21	0xbcce8a96	-0.025212567
22	0x3cce58e7	0.025188876
23	0x3d00ccf4	0.03144546
24	0x3bed782a	0.0072469907
25	0xbb18417d	-0.0023232393
26	0x3c2d9086	0.010593539
27	0xbd1c2956	-0.03812536
28	0x3c0668bc	0.008203682
29	0xb8e8a7ac	-0.000110938534
30	0x3b89ba8d	0.004203147
31	0xbbacbd8f	-0.0052716206
32	0x3ba31db9	0.0049779085
33	0x3bc2a839	0.005940464
34	0xb844bb21	-4.690432e-05
35	0xbab4f4f1	-0.0013805908
36	0x3b2f08c6	0.002670811
37	0xbc82694a	-0.015919346
38	0xba164a85	-0.000573315
39	0xbbb3d66a	-0.0054882066
40	0x39ce2c55	0.00039324412
41	0x3b09f228	0.0021048877
42	0x3b7e7a39	0.0038830175
43	0x3b7c3c41	0.0038488063
44	0x3c3bb3d3	0.011456448
45	0x3d72207c	0.05911301
46	0xbc3e1e99	-0.011603975
47	0x3ae384d9	0.0017358317
48	0xbc46dc69	-0.012137511
49	0x3b35ae8c	0.0027722446
50	0x3caf9756	0.021434467
51	0xbc152e7b	-0.00910532
52	0x3b66943b	0.0035183567
53	0x3bb798fa	0.005602953
54	0xbcfea7fd	-0.031085962
55	0xbbfc1c58	-0.0076938085
56	0x3b1952f0	0.0023395382
57	0x3ca8c32a	0.020600874
58	0x3a39938a	0.0007079175
59	0xbcb9391f	-0.022610245
60	0x3b94d7ca	0.0045423256
61	0xbaa0d970	-0.0012271833
62	0x3c9b8056	0.018982094
63	0xbaead15c	-0.0017915177
64	0x3c37027b	0.011170025
65	0x3ca02ff2	0.019554112
66	0xbc067371	-0.008206234
67	0xbb6717a1	-0.0035261887
68	0xbc9afd81	-0.018919708
69	0xbc6c28d2	-0.014414029
70	0x3be1703f	0.006879836
71	0x3b65ec4d	0.0035083473
72	0x3c275409	0.010212907
73	0x3c368478	0.011139981
74	0xbc964c62	-0.018346969
75	0xbb49b971	-0.0030780698
76	0x3b5930d0	0.0033140667
77	0xbc518573	-0.012788164
78	0xbb432298	-0.0029775258
79	0x3d94cb3f	0.072653286
80	0xbc53a39d	-0.012917426
81	0x3c4442ba	0.0119787995
82	0x3b4211fb	0.0029612768
83	0x3cbdeedd	0.023185188
84	0x3c5bd26a	0.013416866
85	0x3d0bdd6d	0.034146715
86	0xbb988cfc	-0.0046554785
87	0x3cebf7fc	0.028804772
88	0xbc460264	-0.012085531
89	0x3cf8e74b	0.030383727
90	0x3d1dca50	0.03852302
91	0x3ba74807	0.005105022
92	0x3bf4d318	0.0074714534
93	0x3bc13d75	0.005897219
94	0x3b8ee39b	0.004360629
95	0xbc504a6f	-0.012713059
96	0xbbf7b17e	-0.0075590005
97	0x3ba375a0	0.004988387
98	0xbb8d2a6b	-0.004308035
99	0xbac2a95b	-0.0014851497
100	0x3ba7f156	0.005125205
101	0xbc051548	-0.00812275
102	0x3d61dea7	0.05514398
103	0x3d38b415	0.045093615
104	0x3c7421bf	0.014900624
105	0xbd16cc7e	-0.036816113
106	0x3c4a52b7	0.012348822
107	0xbd84a7cc	-0.06477317
108	0x3d1d21f3	0.038362455
109	0xbbe4f1f8	-0.0069868527
110	0xbbe8d4e8	-0.0071054585
111	0x3c1acc38	0.009448104
112	0xbc9460fc	-0.018112652
113	0xbbc3a35c	-0.0059704017
114	0xbb0ede3a	-0.0021799938
115	0x3c5f78f3	0.013639676
116	0xbba96a7b	-0.005170164
117	0x3c571bd2	0.0131291915
118	0x3c1cf9f9	0.0095810825
119	0xbbc22432	-0.005924725
120	0x3dc4f91b	0.096178256
121	0xbb79931d	-0.003808207
122	0x3a5d0540	0.0008431263
123	0xbcdedd3b	-0.0272051
124	0x3c9649ab	0.018345674
125	0x3b943924	0.0045234133
126	0xbc2dd380	-0.010609508
127	0x3ccbdd61	0.024885835
128	0xbd440689	-0.047857795
129	0xbcc17535	-0.023615459
130	0xbc1cae84	-0.009563092
131	0xbb4e0d23	-0.0031440936
132	0x3dffd861	0.12492443
133	0x3c22d5ca	0.009938667
134	0xbc12ae95	-0.008952756
135	0x3be60ee9	0.0070208204
136	0x3b35b44e	0.0027725878
137	0x3b3dc9bb	0.0028959352
138	0x3d9141cc	0.07092628
139	0x3bbb8d8c	0.005723661
140	0xbd3ce2d9	-0.046114776
141	0x3c543026	0.012950933
142	0x3b9f4e4e	0.0048616296
143	0xbb19d01a	-0.0023469985
144	0xbc1e6ef0	-0.009670004
145	0xbd3ae042	-0.045624025
146	0x3c6f2726	0.014596736
147	0x3bc31546	0.0059534637
148	0x3a2746e9	0.0006381111
149	0x3c8a7d50	0.016905457
150	0xbb9663dd	-0.0045895413
151	0x3c832114	0.016006984
152	0xbc7570a9	-0.014980474
153	0xbc256119	-0.010093951
154	0x3bbd31f2	0.005773776
155	0xbb9aaae3	-0.0047200783
156	0xbc4d0944	-0.012514416
157	0x3bbc5701	0.0057476764
158	0xbc1c20ae	-0.009529276
159	0x3c9b8c54	0.018987812
160	0xbb16bded	-0.0023001388
161	0xbc8ebaf9	-0.01742314
162	0xba2553c3	-0.0006306732
163	0x3d0798f5	0.033104856
164	0xbc078442	-0.008271279
165	0xbc6936c3	-0.014234248
166	0x3c0aeb40	0.0084789395
167	0xbc1dc5ac	-0.009629648
168	0xbbef8cf0	-0.007310502
169	0x3c8cbb45	0.01717914
170	0x3c020d18	0.007937692
171	0xbdd82280	-0.10553455
172	0x3cbbadc9	0.022910016
173	0xbc41a155	-0.01181825
174	0xbcfe3e27	-0.031035496
175	0x3c4df21b	0.0125699295
176	0x3b7fa7a8	0.0039009843
177	0xbbe01136	-0.006837989
178	0x3c8b6ef2	0.017020676
179	0x3c5c4127	0.013443268
180	0x3bbd7f5a	0.0057830038
181	0xbc81ee2e	-0.015860643
182	0xbc93ed1e	-0.018057402
183	0xbb624925	-0.003452846
184	0xbd13f871	-0.036125604
185	0xbc5246ad	-0.012834233
186	0xbcfefbcc	-0.031125925
187	0xbb8faf66	-0.004384923
188	0xbc833380	-0.016015768
189	0x3d8cb739	0.068708844
190	0xbad8c03e	-0.0016536785
191	0x3cc71cf0	0.02430579
192	0x3bdb0602	0.006684066
193	0xbbeb2765	-0.007176327
194	0xbc9b9e43	-0.018996364
195	0xbd16e4ae	-0.03683918
196	0x3d9c4841	0.07630969
197	0xbbb45a4d	-0.0055039288
198	0xbb356d7e	-0.002768367
199	0x3d6349c8	0.055490285
200	0x3c2f1f87	0.010688669
201	0xbbcc017b	-0.0062257624
202	0xbb8be1d6	-0.004268865
203	0x3b9dd5e9	0.00481676
204	0x3a21d881	0.0006173924
205	0x3cdb9e4c	0.02680888
206	0x3c12f391	0.008969204
207	0x3b9c41d1	0.004768588
208	0xbb4872f2	-0.003058609
209	0xbc16fc31	-0.009215401
210	0x3b173feb	0.002307887
211	0x3b94bee3	0.004539357
212	0xb9b8eb58	-0.0003527056
213	0x3b0d4cfa	0.0021560774
214	0x3c2ee0c8	0.010673709
215	0xbd96a89a	-0.07356377
216	0xbb943425	-0.0045228177
217	0x3bdd1066	0.0067463396
218	0xbc8e5588	-0.017374769
219	0xbb5b6226	-0.003347525
220	0xbb36a665	-0.0027870175
221	0xbc45072b	-0.012025635
222	0x3ae58b4a	0.0017512825
223	0x3b906eb8	0.00440773
224	0xbb81d06f	-0.003961615
225	0xbbdbd4c7	-0.0067087146
226	0xbc0b9667	-0.008519745
227	0x3b9c09ab	0.0047618947
228	0x3c3ef557	0.011655173
229	0x3c2ed52b	0.01067094
230	0xbc4a11df	-0.012333362
231	0xbb23f013	-0.0025014922
232	0x3bef454e	0.007301963
233	0x3b24fae8	0.0025173966
234	0x3cd2801b	0.025695851
235	0x3a225fdb	0.0006194093
236	0x3c5f2b6f	0.013621195
237	0xbd709b30	-0.05874175
238	0x3c054cac	0.008135956
239	0xbc027cfd	-0.00796437
240	0x3ba0f9ea	0.0049126046
241	0x3c1850cc	0.009296607
242	0x3c11edbc	0.008906778
243	0xbaaacaa5	-0.0013030363
244	0xbb7bd2b2	-0.0038425145
245	0xbb5d04e2	-0.0033724834
246	0xba5374ac	-0.00080663967
247	0xbb34a2c7	-0.0027562843
248	0xbc77d6a1	-0.015126855
249	0x3a6e1691	0.0009082342
250	0xbc527d81	-0.012847305
251	0x3ba3980b	0.00499249
252	0xbb8af265	-0.0042403215
253	0x3af583ba	0.0018731274
254	0xbc92908c	-0.017891191
255	0x3ca5e542	0.02025092
