results/SNGP_FINAL_RESULTS/SNGP/SNGP_R7500_LS1.25_OS1.75_10000Sin/model.pt (torch, 91782 bytes, 3 tensors)

feature_weight f4 [7500, 1]
000000 31 71 9a bf a6 cd 04 bf 82 56 0d 3f d8 b8 81 3f
       -1.2065793 -0.51876295 0.55210125 1.0134535
000010 8f 90 d1 3e b0 cc e3 3e 83 06 72 bf 22 97 8f 3e
       0.40930602 0.44492102 -0.94541186 0.28044993
000020 d2 0c 74 3f 51 9d 3e 3f 38 58 48 be 18 94 bf 3c
       0.9533206 0.74458796 -0.19564903 0.023386046
000030 63 e9 b3 3f e2 1f 85 bf 28 07 f0 3d ba dc 3b bf
       1.4055599 -1.0400355 0.11720115 -0.73383677
000040 ae 3c 72 bf 6a 42 26 bf e4 fc 9c 3e 0d 3d 30 3f
       -0.9462384 -0.6494509 0.3066169 0.68843156
000050 97 9c 0a 3f 46 a2 aa bf 59 e6 ba 3e c5 be 15 c0
       0.5414519 -1.3330772 0.36503866 -2.3397686
000060 ab 13 22 be 46 50 84 3e 2b 48 78 3f d9 89 db bd
       -0.15827815 0.25842494 0.9698512 -0.10719652
000070 ab 25 18 3f 53 77 81 bf 24 f3 e7 bf 86 f5 9c 3e
       0.59432477 -1.011454 -1.8121076 0.3065607
000080 33 a2 b2 3f 8e b4 91 bf db d1 cc bf bd 9f 45 3f
       1.3955749 -1.1383226 -1.6001543 0.77196866
000090 9f b0 7a bd 8f c6 1c bf 2e 55 19 3f cf 92 d1 be
       -0.061203595 -0.61240476 0.598956 -0.4093232
0000a0 94 7f ec be 93 ff d8 bf 40 7e 59 be ac dc df 3e
       -0.46191084 -1.6952995 -0.21239567 0.43723047
0000b0 c3 d0 01 bf a2 04 27 3f 42 65 cf bf 3d 4c 0b 3f
       -0.5070917 0.65241444 -1.6202776 0.54413205
0000c0 24 47 47 3f 3c e1 50 3f 87 21 e3 3e 91 81 18 c0
       0.77842927 0.8159368 0.44361517 -2.382908
0000d0 f5 a0 e3 bf dd 0c b7 3f fe 66 95 3f 42 fe 30 bf
       -1.7783495 1.43008 1.1672056 -0.69137967
0000e0 d0 33 20 3f a1 e1 8b 3f ca a4 36 3d 62 04 33 bf
       0.6257906 1.0928231 0.04459075 -0.6992856
0000f0 f3 97 a2 bf 8c 41 6c bf 26 a9 55 bf a7 fc 8b 3e
       -1.2702621 -0.92287517 -0.83461225 0.27341196
000100 df f0 db be 36 09 92 3f 9b e9 a0 bf 0e fc 7d bf
       -0.42957208 1.1409061 -1.2571291 -0.9921273
000110 7c 20 a4 bf c3 eb a5 be ff ea 95 3f 6c 13 1c 3f
       -1.2822413 -0.32406434 1.171234 0.60967135
000120 9e 76 6c 3f 96 50 e8 3f dc 26 39 bf b6 02 75 be
       0.92368495 1.8149593 -0.7232492 -0.23926815
000130 d2 96 01 bf 56 0d 15 bf a8 8d a8 3e d5 48 3c bf
       -0.5062076 -0.58223474 0.32920575 -0.7354863
000140 1b 38 b0 be bf 8d db bf 34 c4 b9 3e 48 4b 45 bf
       -0.34417805 -1.7152632 0.36282504 -0.77067995
000150 18 2b 42 bf 26 2a e1 3d 3b 10 bb 3e 20 ed af be
       -0.75847006 0.10994367 0.3653582 -0.343606
000160 7e e0 41 3d eb e0 15 3f 68 52 87 bf be 23 d3 3e
       0.047333233 0.5854632 -1.0572023 0.41238207
000170 05 55 97 bd f5 61 2e 3f a5 09 d3 3f 57 db 14 3e
       -0.07389263 0.6811822 1.6487318 0.14536797
000180 61 a5 bb be 07 e2 18 c0 0a 31 4f bf 5d 10 60 3f
       -0.36649612 -2.3887956 -0.809342 0.8752497
000190 a9 02 b1 3e 9a c0 13 bf ad e4 e1 3e 3d 2a 5e 3f
       0.34572342 -0.5771576 0.44119778 0.867832
0001a0 b5 72 23 3f c9 d1 3f 3f 24 47 e8 3f a1 86 c9 be
       0.63846904 0.7492948 1.814671 -0.39360526
0001b0 73 fa b8 bf f6 cf f8 3f 9e 0d 7f 3e b3 e9 c2 3f
       -1.4451431 1.9438465 0.24907538 1.5227569
0001c0 13 b3 ad be 82 60 5a bd 04 b6 a8 3f 15 a4 14 bf
       -0.33925685 -0.053314693 1.3180547 -0.5806287
0001d0 07 c6 a8 bf e2 f5 b3 3e 2b a7 33 bf 07 6a 16 be
       -1.3185433 0.3514853 -0.70176953 -0.14688884
0001e0 ce f9 46 3f 3c 14 85 be be 76 79 bf 57 2e 03 bf
       0.7772492 -0.25992 -0.9744681 -0.51242584
0001f0 70 9a f6 bf a1 a3 b9 bf 96 1a 1d be 85 0d b2 3e
       -1.926588 -1.450306 -0.15342173 0.3477594
000200 68 84 6b 3f 0e a2 07 bf c6 fc 33 3f a6 99 61 3f
       0.9199891 -0.5298165 0.70307577 0.88125074
000210 fb ac 0a bf 01 08 3f 3e e1 f2 17 3f a8 fc a9 3e
       -0.541702 0.18655397 0.5935498 0.33200574
000220 96 91 16 3f 54 09 86 3f 76 1b 63 3f 72 59 db 3e
       0.58815897 1.0471597 0.8871378 0.4284168
000230 eb 7c 04 3f 4c 42 ac be 20 8c 91 3f aa 13 16 bf
       0.5175311 -0.3364433 1.1370888 -0.58623755
000240 92 07 97 3c 79 40 34 3d 5c af 14 3f e7 e9 ef be
       0.018436227 0.0440068 0.5808008 -0.4685814
000250 35 44 69 3f 92 ea a7 3f c2 8e 2c bf b4 96 9d bf
       0.911197 1.311846 -0.6740533 -1.2311616
000260 34 0c 43 bf 22 9e 91 be fc f6 59 3e 93 75 13 40
       -0.76190495 -0.28440958 0.21285623 2.3040512
000270 7b c7 1f 3f ba 0f 42 c0 a4 3a c0 3d 00 f1 95 3f
       0.6241376 -3.0322099 0.09386185 1.1714172
000280 2a 1e ff 3e 22 8e f5 be 64 ff a1 be e5 f4 07 bf
       0.498277 -0.4796 -0.3164016 -0.53108054
000290 59 e9 1c 3f 17 6e 8b 3f 9e 49 b9 3f b8 a8 9b bf
       0.6129356 1.0892972 1.4475591 -1.2160864
0002a0 ee d7 a7 3f 5c 29 12 40 8e e4 01 bf 9d a2 8f 3f
       1.3112772 2.2837744 -0.5073937 1.1221501
0002b0 80 03 4f 3f 1b c5 cb 3f 2f 90 d4 be ad c3 85 3f
       0.80864716 1.5919527 -0.41516253 1.045034
0002c0 5c 75 c5 3f 0f 95 b0 3e ab b0 7d 3f 11 47 3e 3e
       1.542644 0.34488723 0.990977 0.18581797
0002d0 30 f9 00 3f 19 a2 ab bf d8 95 14 bf e9 fa 23 bf
       0.5038023 -1.3408843 -0.58041143 -0.64054734
0002e0 ba 84 b6 bf d6 81 96 bf cc ee d0 3f 13 eb 82 3f
       -1.4259255 -1.1758373 1.6322875 1.0227989
0002f0 c7 97 8b bf 64 88 2b bf ca ae 34 3f 89 4c 05 be
       -1.0905694 -0.6700499 0.70579207 -0.13017477
000300 86 ff 8f bf 76 c2 93 bf 5c 9a e7 3f b5 e5 7b be
       -1.1249855 -1.154372 1.8093982 -0.24599345
000310 47 c6 79 bf 9c fa d2 be 66 e2 b0 3f d2 8d f1 bb
       -0.9756817 -0.41206825 1.3819091 -0.0073716426
000320 c5 25 9a 3e c0 8a a0 3f b7 1f 10 3f a2 d1 44 be
       0.3010694 1.2542343 0.56298393 -0.19220594
000330 74 d0 7d be a8 96 b0 3c 65 00 08 40 3e 0b dc 3c
       -0.2478655 0.021556213 2.125024 0.02686083
000340 cb 05 15 bf 18 65 1e c0 04 76 a6 bf a8 30 e1 bf
       -0.58211964 -2.4749203 -1.3004766 -1.7592974
000350 96 2a 16 bf d3 0c b0 3f 4c eb 52 3f a5 87 f6 be
       -0.5865873 1.3753914 0.82390285 -0.48150364
000360 d3 5c da bf f5 e3 1d bf 17 46 6a be aa 03 c2 bd
       -1.7059578 -0.6167596 -0.228783 -0.09473355
000370 84 84 99 3e 4a 21 75 bf 09 54 80 be ba 28 4a bf
       0.29983914 -0.9575392 -0.25064114 -0.78968394
000380 f5 0b 0a bf 52 95 50 be cd e5 be 3f 8f 36 86 bd
       -0.53924495 -0.20369461 1.491388 -0.06553375
000390 96 e8 24 40 c0 8f 3c 40 6a d7 a9 be b9 0a 0f bf
       2.576696 2.9462738 -0.3317216 -0.55875736
0003a0 c8 af a0 3d 36 83 26 bf 39 05 99 bf bd 94 02 3f
       0.078460276 -0.6504396 -1.1954719 0.51008207
0003b0 b7 7e 26 3f a5 dd 2d 3f 17 c8 ca bf 5f 85 01 3e
       0.650371 0.6791633 -1.5842313 0.12648533
0003c0 ae 9c 25 3f b5 fb a9 3f 6b 23 9c bf 38 51 4c 3e
       0.646922 1.327994 -1.2198309 0.19952857
0003d0 f8 38 f0 3f 6d 4f 1c bf 31 03 55 bf af 10 06 3f
       1.8767385 -0.61058694 -0.83207995 0.5236921
0003e0 9e 72 5a 3f bd d4 83 3e bd 7f a6 bf 78 a0 0a bf
       0.8533114 0.25748244 -1.3007733 -0.54151106
0003f0 03 99 92 be df c3 92 bf 12 53 95 3e dd da 40 bd
       -0.28632364 -1.1466025 0.2916494 -0.047083724

feature_bias f4 [7500]
000000 e5 f4 4c 3f eb ae a2 3e 8f a5 0d 40 d2 9f 00 40
       0.8006118 0.31774077 2.21323 2.0097547
000010 26 8b dd 3f dd d6 33 40 e7 6e 4d 3f 95 26 b9 40
       1.730809 2.8099892 0.8024735 5.7859597
000020 65 a4 14 3f 5c 99 a1 40 39 e5 b4 40 a8 5c 34 40
       0.58063346 5.0499706 5.6529813 2.8181553
000030 c3 48 de 3f 37 de 3b 40 32 65 fb 3e 8c 87 e7 3e
       1.7365955 2.935438 0.49100643 0.45220602
000040 cb 1b 40 3f f1 db a8 40 f7 79 bb 3e e1 f2 32 3f
       0.7504241 5.2768483 0.3661649 0.69901854
000050 64 27 8f 40 3f 56 7e 3f 6c fb bf 40 b4 59 a1 40
       4.4735584 0.9935035 5.999441 5.0422
000060 c4 39 a1 3f 98 ec 75 40 33 6c 9c 40 30 ac a8 40
       1.2595754 3.8425655 4.888208 5.271019
000070 49 97 0f 3e 8f cd c7 3f 3b 83 c7 3f ce 6f b9 40
       0.14022554 1.5609607 1.5586923 5.794898
000080 c5 fb 89 40 5b d5 61 3e e7 98 12 40 7f 7a 97 40
       4.3119836 0.22054045 2.2905824 4.733703
000090 29 b6 0a 3f a6 92 61 3f 47 ca 62 3f a0 bd b9 3e
       0.54184204 0.8811439 0.885899 0.36277485
0000a0 d6 ef c6 40 46 5d 16 3f ec 45 bd 40 3c 26 14 40
       6.216777 0.58736074 5.9147854 2.3148336
0000b0 c4 69 2b 3c 62 2e bb 3f 93 c8 8d 40 4e 3a 82 40
       0.010462228 1.462353 4.430734 4.0696173
0000c0 c3 55 34 40 a1 03 af 3f 7a 16 ab 3f 87 87 c8 3f
       2.8177345 1.3672982 1.3366234 1.566636
0000d0 12 d6 0e 40 28 e2 57 40 97 8c a3 40 8a d1 b4 40
       2.2318158 3.3731785 5.110912 5.6505785
0000e0 10 fa d9 3f 77 62 9a 3f 3b 55 64 40 ab e6 9d 40
       1.7029438 1.2061299 3.567702 4.9344077
0000f0 5a 0e d7 3f 8f b3 bc 40 84 43 69 40 73 fd 38 3e
       1.6801255 5.896919 3.6447458 0.18065433
000100 26 3a 4b 40 71 96 b1 40 1d 5c 5b 40 a4 21 87 40
       3.175424 5.5496144 3.4274971 4.2228565
000110 67 fa 26 40 c7 35 96 40 07 96 bf 40 fd 72 a9 40
       2.6090333 4.6940646 5.987064 5.2952867
000120 1a 27 df 3f 1f 7d b5 40 47 86 97 40 2f 15 87 40
       1.7433808 5.6715236 4.7351413 4.221336
000130 6d f2 bc 40 b1 1b c5 40 43 5b b1 40 16 c5 45 40
       5.904593 6.1596303 5.5423903 3.0901542
000140 ff 26 82 3f e1 38 03 3f 5f 91 cc 3e 8b c8 e9 3f
       1.0168151 0.51258665 0.3995466 1.8264326
000150 1a 16 8d 40 c0 b0 8b 3d 1d 77 46 3f 89 bc 84 40
       4.408948 0.06820822 0.775255 4.1480145
000160 53 1d 91 40 0e 51 cd 3e a2 4d ad 3f 15 30 8c 3e
       4.5348296 0.40100902 1.3539317 0.27380434
000170 7c 2a 51 3d 80 2c bd 40 fb 19 83 3f 66 fd 91 40
       0.051065907 5.911682 1.0242304 4.5621824
000180 2a 0e 3e 3f d0 ee 56 40 36 45 9b 3f 0c 8c 84 40
       0.7424036 3.358326 1.2130497 4.1420956
000190 0c 0b b5 3f bb 51 b3 40 8c ce a7 40 4e 1a 86 40
       1.4143996 5.603727 5.2439632 4.190711
0001a0 fe ac b7 3f dd 24 36 40 21 87 b4 40 35 7c da 3f
       1.4349668 2.846 5.641495 1.7069155
0001b0 c1 b3 95 40 e4 a8 03 40 3d fa 7d 40 6c de 53 3d
       4.6781926 2.0571833 3.9683983 0.05172579
0001c0 40 28 59 3e c0 1b 39 40 a0 96 26 40 aa f3 e4 3e
       0.2120676 2.8923187 2.6029434 0.4471715
0001d0 36 89 93 3f 19 f3 be 40 e8 ad 5a 3e a2 f0 89 40
       1.1526248 5.967175 0.21355402 4.310624
0001e0 30 1f 40 40 8f 85 96 40 65 3e e7 3f a4 3f c4 3f
       3.0019035 4.7038035 1.8065916 1.5331922
0001f0 df 25 bb 40 9d 4f 69 40 1d 03 8a 40 f1 23 17 40
       5.848373 3.6454842 4.31288 2.3615687
000200 11 22 45 40 95 43 62 40 1b ba 5e 40 3f 61 6b 40
       3.0802042 3.5353749 3.480109 3.6778104
000210 98 af 82 3f 2c 8c 87 40 58 e8 a0 3f 0f 68 a3 40
       1.0209837 4.235861 1.2570906 5.1064525
000220 11 da 5c 3d 34 ed f2 3e e9 50 c5 40 95 82 60 3f
       0.0539189 0.47446597 6.1661267 0.8769925
000230 c2 23 57 40 b1 19 59 40 02 6f 1f 3f ea f9 7d 3f
       3.3615575 3.392193 0.6227876 0.99209464
000240 cc 35 bf 40 88 fb b7 3f 5a 60 b6 3f 36 a1 2b 40
       5.975317 1.4373636 1.4248154 2.6817145
000250 84 df a7 3e 9d 4a 59 3e 42 60 0f 3f 51 00 8d 40
       0.32787716 0.21219869 0.5600625 4.4062886
000260 bb e1 9a 40 b1 b7 85 3f 09 0f 00 40 e9 2b a7 40
       4.840055 1.0446683 2.0009177 5.22411
000270 97 df ab 40 74 36 93 40 7b c7 48 40 9d 9d 67 40
       5.3710437 4.600397 3.1371753 3.618995
000280 10 fc 01 40 f3 1f 15 3f e5 20 a9 40 cd d4 aa 40
       2.0310097 0.58251876 5.2852654 5.3384767
000290 3e d6 92 40 4c a5 e0 3f 43 e8 0d 40 41 04 0e 3f
       4.5886526 1.7550445 2.2173011 0.5547524
0002a0 64 24 42 3e 29 30 b4 40 c8 fb 98 3f 1a ff 0b 40
       0.18959194 5.630879 1.1951838 2.1874452
0002b0 f8 5b 5b 3e 58 80 fc 3f cf e3 05 3f d6 7e 8f 40
       0.21421802 1.9726667 0.52300733 4.484233
0002c0 18 a4 8f 40 3e bc ca 3f 36 ef a7 3f a7 16 a2 40
       4.488781 1.5838697 1.3119876 5.065265
0002d0 83 52 4e 40 e4 8e 96 40 d5 29 8a 40 91 3d ae 40
       3.223786 4.7049427 4.3176064 5.4450154
0002e0 8d 0e a2 40 c9 be f9 3f 15 ad 9b 40 20 a3 3f 40
       5.064276 1.9511348 4.864878 2.9943314
0002f0 3c e3 82 40 65 58 51 40 bc b8 ec 3d 2b 7c 7b 40
       4.0902386 3.2710202 0.11558673 3.9294536
000300 93 43 c2 40 67 6d 1d 40 ed 4b a4 3f ff 70 69 40
       6.070749 2.4598024 1.2835671 3.6475217
000310 76 c2 7b 3f bf 7a b5 3f ef a1 83 40 b2 96 9c 40
       0.983436 1.4178084 4.1135173 4.8933954
000320 0d 98 c0 40 c4 16 98 3f e9 cc 52 40 9f c5 45 40
       6.018561 1.1881948 3.2937567 3.0901868
000330 c1 42 4e 40 ce bd 9b 3e 32 ef b6 40 84 47 8e 40
       3.2228243 0.30418247 5.7166986 4.44623
000340 09 eb 73 3f d5 d1 f0 3d ff ae 07 3f c7 f2 c1 40
       0.9528051 0.11758772 0.530014 6.060886
000350 2b 3f a1 40 1f 02 2b 40 5a f6 37 40 2f 57 99 3e
       5.038961 2.6720045 2.874411 0.29949328
000360 92 4e 81 3f ee 65 26 40 8e cd 24 40 31 b8 b3 40
       1.0102103 2.5999713 2.575046 5.6162343
000370 a3 40 6a 40 27 92 60 40 cf 48 18 3d a1 62 57 40
       3.660195 3.5089204 0.03717881 3.3653948
000380 41 fd 90 40 20 92 78 40 48 71 a0 40 d1 cf 6c 40
       4.530915 3.8839188 5.0138283 3.700184
000390 e1 d6 73 40 09 52 03 3f 8f 1b a8 40 96 b1 93 40
       3.8099902 0.5129705 5.253364 4.615428
0003a0 e1 9c 54 3d f6 61 0c 40 23 cc 0a 40 eb df 8c 40
       0.051907424 2.193479 2.1687095 4.4023337
0003b0 c9 cf 15 40 cd bc a0 40 cb aa d3 3f 01 f5 b3 40
       2.3408072 5.023047 1.6536497 5.6236577
0003c0 16 64 25 40 7a 80 c3 40 49 ed c3 40 a9 42 a9 40
       2.5842338 6.109433 6.1227155 5.289387
0003d0 09 ee c5 40 39 10 c4 40 bd e4 02 40 1f b7 72 40
       6.185307 6.1269803 2.045211 3.7924268
0003e0 bc 78 7f 40 53 23 43 40 fc 53 1f 3f 0b 6f 16 3f
       3.991744 3.049031 0.62237525 0.5876319
0003f0 0c 68 65 40 e0 51 8b 40 af 11 8b 3f 58 f3 db 3f
       3.5844755 4.3537445 1.0864772 1.7183638

linear.weight f4 [1, 7500]
000000 a8 99 82 bc a4 96 74 3a f0 a2 1b 3c cc f0 99 3c
       -0.01594241 0.00093303085 0.009499297 0.018791579
000010 5d 95 4c 3b 45 9a b4 bb db c0 a4 bc c7 7c 39 b9
       0.0031216957 -0.0055115544 -0.020111492 -0.00017689458
000020 ca 02 ab 3b 45 d1 a1 bc af 7a 12 3c 28 f0 8d 3b
       0.0052188383 -0.019753108 0.008940383 0.0043316074
000030 48 77 bb bb d7 51 9b 3b f6 d4 13 bc fc f3 16 3b
       -0.0057210065 0.0047399807 -0.009022942 0.002303361
000040 b0 ae c8 bb df 10 08 bb ec 6a 01 3c e1 e2 63 3c
       -0.00612434 -0.002076201 0.007899027 0.013909073
000050 84 76 93 ba 87 f5 9d bc 78 45 57 bc 16 cf 45 be
       -0.001125053 -0.019282116 -0.013139121 -0.19317278
000060 a3 bb 06 bc f0 64 34 3c 98 79 74 bc ca d1 29 bb
       -0.008223447 0.0110103935 -0.014921568 -0.0025912398
000070 5f 51 10 3c 39 70 4e 38 5c 28 91 3d 44 51 5d bb
       0.008808463 4.9218743e-05 0.07087776 -0.0033770362
000080 eb be 36 3c 82 dd 26 bc 7a 9c 58 3d 41 21 95 39
       0.011153917 -0.0101846475 0.052883603 0.0002844427
000090 d1 44 b8 39 b8 35 df bb fe 51 24 b8 2d 74 d2 bb
       0.00035146487 -0.0068118237 -3.9177008e-05 -0.0064225406
0000a0 6a 8d bf ba 22 e0 bb bc 2b 65 18 bc 11 9d a7 3b
       -0.0014614288 -0.022934023 -0.009301464 0.0051151593
0000b0 dd dc 1a 3b 85 61 d6 ba d3 3c db bb b3 4b 44 3b
       0.002363018 -0.0016355967 -0.0066906004 0.0029952347
0000c0 a5 02 a4 3b e8 15 cd 3b dc f7 d4 ba 4f 58 4d 3e
       0.005005198 0.006258715 -0.0016248184 0.20053218
0000d0 39 fd 94 3d 20 1e 9f 3c d6 f2 02 bc d4 ca 05 3c
       0.07274861 0.019423544 -0.007992467 0.008166034
0000e0 1c a8 58 39 77 48 4c bb 19 c1 17 bb 48 1a 9d 3a
       0.00020661991 -0.0031171122 -0.0023155867 0.0011985982
0000f0 bd 6d 18 bc 48 82 34 bc 52 ef 14 bb 36 0c ab bb
       -0.009303507 -0.01101739 -0.0022725654 -0.0052199615
000100 c4 32 c8 ba 75 33 82 bc b8 be 2c 3c e6 c6 96 3b
       -0.0015273918 -0.015893677 0.010543518 0.0046013473
000110 87 89 fa 3b 18 8c 06 3b fc f7 7e bc 32 e1 71 bb
       0.007645789 0.002053028 -0.015562054 -0.0036907909
000120 77 0d 9e 3c a4 92 43 bb ed 4d be 3b bf 6d f8 3a
       0.01929353 -0.0029842043 0.0058076293 0.0018953605
000130 df 1d 2f 3c b4 5c b9 bb af 1c 13 bc 30 50 0c bb
       0.010688274 -0.005656803 -0.008979007 -0.00214101
000140 eb ad 58 bc 89 d6 b4 bb 68 69 14 3c a1 ba 86 bc
       -0.013225059 -0.0055187386 0.009058334 -0.016446413
000150 c9 dd 50 3c 16 af e1 3b d9 75 23 3c 09 a2 2e 3c
       0.01274819 0.006887327 0.009976828 0.010658749
000160 6a 8f 9c bb 4c dd 01 3c 0b b0 7d bb 99 04 3a 3b
       -0.0047778385 0.007926296 -0.0038709666 0.0028384088
000170 7b de 80 bc 71 32 a0 bb 5e ff 17 bd ce 97 9e 3b
       -0.015731087 -0.0048888256 -0.03710877 0.004839874
000180 62 e2 13 ba 7b 98 e0 bc 91 bd 60 bc be 78 3d bc
       -0.00056413386 -0.027416458 -0.013717071 -0.011564432
000190 4a bd f8 bb 8c db 53 bb cc dd c4 3b 89 6b 6c 3b
       -0.0075909244 -0.0032326905 0.0060078856 0.0036074838
0001a0 72 c6 18 3a ba b7 1c 3c d2 95 29 ba 48 e2 fd bb
       0.00058279105 0.009565288 -0.00064691633 -0.007747922
0001b0 45 4f 08 bc 42 aa 41 bd 4e e0 ce 3b 1f 0a fc bc
       -0.008319681 -0.04728151 0.0063133603 -0.030766545
0001c0 4d c5 22 bc 96 1a 9e bb 0d f4 9b 3c a0 bf 2c bc
       -0.0099347355 -0.0048249466 0.01903727 -0.010543734
0001d0 be 1d 0b bb 4b 81 10 bc 3c cc 31 3b fb 03 3b 3c
       -0.0021227445 -0.008819888 0.002712979 0.011414523
0001e0 40 92 fc 3b 2f 31 48 3c 86 3b 70 bb 00 d9 47 ba
       0.007707864 0.0122187575 -0.0036656572 -0.0007623583
0001f0 78 1a a8 bd 62 21 76 3c 5d 25 08 bc 4a fa 8d 3b
       -0.082081735 0.0150226075 -0.008309689 0.0043328153
000200 a4 42 bb 3b 9e 06 35 3c 32 36 ec ba 61 41 1b bc
       0.0057147313 0.011048941 -0.0018021523 -0.009476037
000210 1c 74 36 bc 70 a4 d4 bb 38 80 5c 3b 96 ac e0 bb
       -0.011136081 -0.006489329 0.003364576 -0.0068565113
000220 07 98 a9 b7 18 84 dc 3b 58 9b 97 ba aa 05 bc 3b
       -2.0217163e-05 0.006729614 -0.0011566682 0.00573798
000230 33 bd 03 3b 6e e3 25 3c 11 2f 4c bb 01 42 1d 3b
       0.0020101785 0.010125024 -0.0031155983 0.002399564
000240 9c a1 85 bb a4 53 06 3c bd 3f 7a 3c 33 74 85 3a
       -0.004078103 0.008198652 0.015273985 0.0010181725
000250 89 0b 8a 3b 81 d7 d2 bc 75 96 26 bb 9c 10 8d 3c
       0.004212801 -0.025737526 -0.002541927 0.017219834
000260 97 0c 9f 3c 4b 8c 07 bc 1f c7 d5 3b d0 fd 12 3e
       0.019415183 -0.008273195 0.006523981 0.14354634
000270 91 50 5d bc f9 8b a5 be 86 c8 81 3c 23 d1 84 3c
       -0.013507978 -0.32333353 0.015842687 0.016213005
000280 cf e5 c2 3b 2f a2 0f bc 98 c2 01 3c c9 49 10 3c
       0.0059478055 -0.008766695 0.00791993 0.008806654
000290 50 4d 0a bc 51 c2 34 3c 5b 25 7e 3c b0 a3 8a bc
       -0.008441284 0.011032657 0.015511836 -0.016923755
0002a0 1b bd 78 bc fc f3 a3 3d f5 1d 68 3a 62 ca 70 3c
       -0.015181805 0.08005521 0.00088545616 0.014696689
0002b0 76 a6 e6 bb 64 bb 7e bc f9 89 69 bc e9 c2 93 bc
       -0.0070388867 -0.015547607 -0.014254087 -0.018037276
0002c0 4d 2c b4 3c 1c b3 b2 bb fe ed 64 3c 78 8d 37 bc
       0.02199378 -0.0054534804 0.013972757 -0.011203162
0002d0 c9 69 0c bc df d5 ae bb a0 3d 86 3c 0b 61 df 3b
       -0.008570143 -0.005335554 0.016386807 0.0068169883
0002e0 45 c8 a2 bc 74 98 6a bb 8d 5c ae 3c 26 c4 a5 3c
       -0.019870887 -0.0035796436 0.021284366 0.020235132
0002f0 f3 b1 f0 3b fb 58 04 3b 6f 2e 4c bc b6 bd e3 ba
       0.007345432 0.0020194638 -0.0124622425 -0.0017375264
000300 42 ed 66 bc ff 46 35 3c d2 6d 88 bd ce d6 8a bb
       -0.014094653 0.01106429 -0.066615716 -0.0042370325
000310 c1 96 18 bc 3a 74 24 bc 83 c1 16 3c 99 52 b4 39
       -0.009313286 -0.010037476 0.00920141 0.00034393815
000320 2d 91 14 bc 6f b7 24 bc e9 0e 4a bb 3f 9f 75 3c
       -0.009067816 -0.0100535 -0.003083164 0.0149915805
000330 39 8d 17 3b f9 51 60 3b 22 7b 18 3d a6 88 5d 3b
       0.0023124947 0.0034228547 0.037226804 0.0033803373
000340 38 0e a1 bb d1 c7 01 3c 58 e7 f0 bc ea 58 6b bd
       -0.004915025 0.007921175 -0.029407188 -0.057457842
000350 17 fd bc bb 63 47 fd 3c b2 74 39 bb d3 61 af 3b
       -0.0057674753 0.030917829 -0.0028298316 0.0053522377
000360 44 16 69 3c 29 9b 02 bc 85 a0 ec bb 4c ed ba bb
       0.0142265 -0.007971563 -0.007221284 -0.0057045575
000370 e7 90 05 3b 23 63 78 3b 04 44 29 bc f2 cf 62 3c
       0.0020380558 0.0037900887 -0.010331158 0.013843523
000380 22 db 4e 3c ab 20 c1 38 c6 d3 d7 3b f6 29 14 3b
       0.0126254875 9.209042e-05 0.0065865247 0.0022608018
000390 49 b0 0f 3e c6 97 8e bd 7c b3 1b 3b b4 23 a5 3b
       0.14032091 -0.06962542 0.0023758104 0.0050396565
0003a0 60 a2 73 bc 8a de 6a bc 07 96 e9 bb ad e0 75 3b
       -0.014870256 -0.014335284 -0.0071284804 0.003751795
0003b0 8e 8c 89 bb d4 66 9f bc 8f 85 93 3c 69 da 04 bc
       -0.0041976636 -0.019458212 0.018008022 -0.008108714
0003c0 4c f3 84 3c e0 77 a4 bc ee 03 a5 bc b0 83 da 3a
       0.016229294 -0.020076692 -0.020143475 0.0016671326
0003d0 67 05 1b bd ca 12 d7 3b 37 05 7a bc 8f b2 3f bb
       -0.03784695 0.006563519 -0.015260032 -0.0029250716
0003e0 7a d4 8b bb 82 3b 11 3c 65 f5 c5 bc bc 0d ec bb
       -0.0042672725 0.008864285 -0.024164865 -0.0072037857
0003f0 ce 51 bd bb 3a 39 b2 3c 61 2e ef 3b 1b 2f 0c 3c
       -0.005777574 0.021755803 0.00729923 0.008556153
