results/SNGP_FINAL_RESULTS/SNGP/SNGP_R5000_LS1.25_OS1.75_10000Sin/model.pt (torch, 61830 bytes, 3 tensors)

feature_weight f4 [5000, 1]
-1.3382906 -0.75629306 -1.3246541 0.19007573 0.009462433 0.35709867 0.049002282 -0.57528025
-0.123620406 -0.5005635 1.1783111 0.90112287 -0.07294638 -1.2735132 -0.07126419 0.8614413
-0.8884275 2.1731782 -0.73342395 -0.21608534 -0.953286 0.31448233 -0.2636693 -0.54976743
1.6397101 -1.6038027 -0.47490966 -2.2772043 0.34025607 -0.38583732 0.21397622 0.21228
2.2826548 0.70191973 0.23812844 -0.7501438 0.25964752 -1.065838 -0.4222616 -0.61840993
-0.73829335 -2.266652 -0.025431037 1.583365 -0.21498418 -0.051368106 -1.3495454 -0.27496123
2.0023384 -1.6743294 1.3474596 -1.9020313 -2.3038683 0.74296767 -0.4558098 -0.91998166
1.2187263 1.6838892 0.50964355 -0.65288115 0.46501654 0.16086708 -1.1945984 -0.8462598
0.68899935 0.14820677 0.7965888 -0.069744065 1.5462296 -1.8890086 -0.36286783 0.39451233
-2.0271044 -1.9570385 1.1780891 -1.947821 0.82493716 0.60152614 0.20884201 -2.188311
0.5199739 0.5357853 -1.7643569 0.6362911 -0.089067996 -0.5330406 -1.9933249 0.03807996
0.34287837 -0.113234945 0.4634422 1.0222169 1.258354 -0.49960616 0.38261077 -0.89816266
0.27554297 2.0396473 1.7617651 -0.72381395 0.1264998 -0.45443416 -1.0808163 0.25104824
1.1883433 0.8378286 -2.2051156 -0.5537616 -1.266256 -0.41988432 0.47932774 -0.1933045
-1.2815365 0.39290532 -0.1679798 0.4194331 -0.47746792 -0.32794583 -0.48921192 0.87536055
-0.64084435 -1.2716242 -0.53936654 -1.3737767 -2.3267782 -0.14721721 1.5523971 -0.6398116
0.30468568 0.41548866 -0.74095076 0.36068735 1.1309354 1.249109 1.431939 -2.112157
1.2388525 0.39626718 0.108075164 -0.24634522 0.31277636 1.1974458 -0.37827688 0.7066893
0.7175339 -1.0134363 0.5524667 -1.2301553 0.27895546 1.01568 0.51008415 -1.0284678
-0.54723173 0.13740842 1.820816 -0.6600756 1.1217483 2.2030902 1.3937073 0.59289694
0.9300221 0.8774702 2.6339743 -1.1375902 0.35915032 1.3306159 -0.57432103 -0.5242245
0.5416155 -0.0059597758 -0.20841634 -0.9692769 -0.2590075 0.59956306 -1.7266531 1.2143165
0.98042446 -1.5029614 1.1132592 -1.47504 -0.25787592 -0.83622706 -0.2889414 -0.8946734
-1.327131 -1.0267305 -1.3179669 -0.41809648 -0.52850354 0.007393035 -0.57436365 1.9335415
-3.5633345 0.6062155 1.2641946 -1.0227724 0.20798264 -1.9384702 0.09065802 -1.1575803
0.7713182 1.2962005 -1.8603003 1.0185494 -0.8564551 -0.5869354 0.09300906 0.37951937
0.5590667 0.58713907 -0.17887725 -0.0005002443 -0.029171636 -1.0764016 0.65422016 -0.7074561
1.9985443 0.027883125 1.9370309 -1.1541443 0.86459774 1.8980155 0.36052212 -1.099683
-1.9011452 0.091635056 -1.0599099 -1.2513512 -1.8937072 0.79694724 0.1289945 -1.2711211
-0.9619954 1.2573152 -1.0140104 0.43074623 0.17146578 0.5793848 -0.49201742 1.6998454
1.6263561 -1.0261722 -0.7758254 -0.064765476 -1.1929108 0.057709426 0.029628927 -0.5198588
-0.029815098 -0.7212791 -0.2422808 1.2807381 0.6758965 -0.6173219 2.1857722 -0.15113199
00000000: 1b4d abbf 6c9c 41bf 448e a9bf 36a3 423e
00000010: 5208 1b3c a3d5 b63e 9eb6 483d 9145 13bf
00000020: b22c fdbd ee24 00bf e6d2 963f fdaf 663f
00000030: e964 95bd 7b02 a3bf f6f2 91bd 6b87 5c3f
00000040: fc6f 63bf 5a15 0b40 acc1 3bbf 7a45 5dbe
00000050: 8d0a 74bf d403 a13e aaff 86be 8fbd 0cbf
00000060: 05e2 d13f 6849 cdbf 5c27 f3be b7bd 11c0
00000070: 0b36 ae3e 788c c5be 951c 5b3e ee5f 593e
00000080: 0417 1240 03b1 333f f1d7 733e 6d09 40bf
00000090: 85f0 843e 616d 88bf ac32 d8be 1d50 1ebf
000000a0: cb00 3dbf d410 11c0 c054 d0bc b4ab ca3f
000000b0: d024 5cbe 5d67 52bd e7bd acbf b8c7 8cbe
000000c0: 5026 0040 6d50 d6bf 8e79 ac3f c375 f3bf
000000d0: 9472 13c0 2133 3e3f e75f e9be eb83 6bbf
000000e0: 39ff 9b3f ae89 d73f 0078 023f 3823 27bf
000000f0: a616 ee3e 57ba 243e 9ae8 98bf 7ba4 58bf
00000100: 4362 303f 84c3 173e 3eed 4b3f fad5 8ebd
00000110: daea c53f 09cb f1bf d0c9 b9be 85fd c93e
00000120: 14bc 01c0 3d80 fabf a0cb 963f 3352 f9bf
00000130: 152f 533f 9efd 193f aeda 553e 4a0d 0cc0
00000140: 021d 053f 3a29 093f 72d6 e1bf f9e3 223f
00000150: 4869 b6bd 5975 08bf 4525 ffbf bbf9 1b3d
00000160: c18d af3e b9e7 e7bd 4c48 ed3e 01d8 823f
00000170: be11 a13f 61cc ffbe 8fe5 c33e fded 65bf
00000180: f813 8d3e 9589 0240 8581 e13f df4b 39bf
00000190: 2a89 013e 98ab e8be 3058 8abf 6589 803e
000001a0: a21b 983f ef7b 563f 9d20 0dc0 52c3 0dbf
000001b0: ad14 a2bf 14fb d6be 726a f53e 9df1 45be
000001c0: 6309 a4bf e32a c93e e602 2cbe efbf d63e
000001d0: ad76 f4be 84e8 a7be fc79 fabe a117 603f
000001e0: 600e 24bf 95c4 a2bf ed13 0abf ead7 afbf
000001f0: efe9 14c0 1cc0 16be f3b4 c63f b1ca 23bf
00000200: c3ff 9b3e eeba d43e f3ae 3dbf 03ac b83e
00000210: 7ec2 903f cee2 9f3f c749 b73f 952d 07c0
00000220: b892 9e3f 88e3 ca3e 8356 dd3d ec41 7cbe
00000230: 3924 a03e e745 993f 82ad c1be 97e9 343f
00000240: 4db0 373f 48b8 81bf 756e 0d3f bb75 9dbf
00000250: 40d3 8e3e cd01 823f e094 023f d5a4 83bf
00000260: 6117 0cbf cbb4 0c3e 8010 e93f b7fa 28bf
00000270: 7395 8f3f 6eff 0c40 0065 b23f 18c8 173f
00000280: ee15 6e3f e3a1 603f 0993 2840 8e9c 91bf
00000290: 8de2 b73e 9f51 aa3f b406 13bf 9433 06bf
000002a0: 50a7 0a3f 394a c3bb 186b 55be 8822 78bf
000002b0: a29c 84be f77c 193f f802 ddbf b96e 9b3f
000002c0: 19fd 7a3f 0a61 c0bf 477f 8e3f 1cce bcbf
000002d0: 5008 84be fa12 56bf 21f0 93be 5109 65bf
000002e0: 6edf a9bf e86b 83bf 24b3 a8bf be10 d6be
000002f0: 024c 07bf 4641 f23b 7f09 13bf 4a7e f73f
00000300: ac0d 64c0 f030 1b3f 21d1 a13f 35ea 82bf
00000310: 67f9 543e cb1f f8bf e9aa b93d 972b 94bf
00000320: 1c75 453f e6e9 a53f 521e eebf d45f 823f
00000330: a440 5bbf 6641 16bf 897b be3d 5d50 c23e
00000340: ff1e 0f3f bf4e 163f 992b 37be d422 03ba
00000350: 5bf9 eebc 87c7 89bf f97a 273f d81b 35bf
00000360: 4dd0 ff3f 276b e43c a1f0 f73f 00bb 93bf
00000370: 4756 5d3f 2cf2 f23f 5b96 b83e 6ac2 8cbf
00000380: ba58 f3bf 29ab bb3d 21ab 87bf 472c a0bf
00000390: ff64 f2bf bc04 4c3f 2217 043e 19b4 a2bf
000003a0: 5545 76bf b4ef a03f 18cb 81bf c58a dc3e
000003b0: ba94 2f3e 9052 143f b5e9 fbbe 8994 d93f
000003c0: 702c d03f 9c59 83bf 7e9c 46bf c3a3 84bd
000003d0: 4db1 98bf b860 6c3d 5db8 f23c 7715 05bf
000003e0: cb3e f4bc bfa5 38bf 7518 78be 3aef a33f
000003f0: 8e07 2d3f cf08 1ebf b1e3 0b40 58c2 1abe

feature_bias f4 [5000]
1.5510238 1.8365211 3.1085153 1.5593237 0.5605805 4.352343 1.6105424 0.886799
5.3505697 4.7941217 1.815403 5.1659527 6.2284384 5.1231112 2.344892 1.6368134
3.8069801 2.191443 3.505341 1.4999726 3.5023932 3.9640777 0.70199025 4.3885703
4.8809876 0.6384708 2.7211218 4.2782583 2.1627986 0.28303033 3.0222569 4.215852
6.242336 1.0568888 2.293447 0.84782887 0.26062655 3.7013834 0.81809825 4.5443993
5.2750545 6.2764926 1.6713428 5.429265 0.16997077 3.1313128 1.9179265 6.2777925
1.1116166 5.198239 4.2074203 3.2582524 0.11769071 4.3971844 5.2118015 4.9319334
5.0443544 3.2365243 3.9376173 2.0802927 3.3573346 4.437956 6.162993 3.0442083
1.6999005 6.0383964 2.2107432 2.829324 2.3947935 2.0120137 2.263206 2.8258371
4.924027 1.0116259 3.1311605 3.3809593 0.7347577 5.8963795 0.74948186 3.0922766
6.2184963 3.5311778 0.66578436 0.14458705 3.857989 2.9236026 5.2457824 0.15160008
2.8194911 2.702552 1.6814932 2.6283088 5.4029365 1.7498752 1.4101493 5.612648
0.40564394 6.1310043 5.083179 0.6092664 4.330279 0.21670325 0.85129493 5.389197
3.5547707 0.8760169 0.41232777 2.8836105 5.5639863 5.064731 0.8556029 0.15738621
0.027358864 4.1224246 2.5291955 3.7841535 6.2502136 4.089592 0.29201925 3.073096
5.1139526 0.4914525 3.3562586 2.725201 2.2454207 5.6236877 0.9749066 0.5800777
4.584286 1.7362622 3.835509 0.4910098 0.38253796 4.088386 4.779254 2.039199
3.44245 2.014656 5.9721656 1.9732844 1.544855 5.0277066 1.1145644 1.2091196
2.8026478 1.2455584 0.59368765 5.949561 0.5684204 6.2546 0.17587636 5.4978275
1.6797082 3.7834373 3.4346416 2.5183382 2.9574327 2.365069 1.9166836 1.4850155
1.4797357 1.576624 3.946273 2.8579266 1.5378926 3.185255 2.0423894 3.1403775
0.6843824 3.5410857 0.21582615 0.28715104 2.1941981 3.0215266 2.1105745 5.572545
3.290516 0.45315614 5.9923286 1.1040056 0.7641677 0.26600936 3.532009 4.794016
4.712047 3.6455579 0.5405908 0.23049934 3.4036884 5.786727 4.6577773 5.852682
1.2397052 2.8391967 0.10869243 1.7244046 3.6615834 4.1901536 4.9423723 0.9031623
2.6622152 3.9971538 6.1257358 0.9220034 3.6413875 5.2437806 4.3878007 3.663381
3.481253 5.3294044 5.041892 2.0243735 4.1548734 4.9936066 2.802374 4.6814
1.241974 6.232014 0.08814997 5.68313 5.5186415 0.08719648 3.4212492 1.0179461
5.5724096 4.648304 0.5534068 2.6103904 1.5935346 4.8516707 3.8983283 0.5218235
5.325138 3.73256 0.35582626 4.2308893 4.3762302 0.6428282 1.9776564 0.53861004
5.3382244 6.2624 2.8689587 0.9003617 1.1005912 0.684852 0.8274928 1.4864904
1.6134325 2.879027 2.709983 1.5497049 5.629792 0.33785328 1.6844844 4.1231775
00000000: f387 c63f 2013 eb3f eaf1 4640 eb97 c73f
00000010: 3482 0f3f 6546 8b40 4126 ce3f 4205 633f
00000020: de37 ab40 7269 9940 205f e83f 7c4f a540
00000030: 5e4f c740 87f0 a340 b612 1640 1a83 d13f
00000040: 90a5 7340 9a40 0c40 8257 6040 1aff bf3f
00000050: 3627 6040 73b3 7d40 a2b5 333f 2b6f 8c40
00000060: 0d31 9c40 d372 233f dc26 2e40 7ee7 8840
00000070: 4b6b 0a40 5ae9 903e a86c 4140 42e8 8640
00000080: 37c1 c740 2248 873f d6c7 1240 500b 593f
00000090: d870 853e 77e3 6c40 e36e 513f b86b 9140
000000a0: 3fcd a840 07d9 c840 90ee d53f 8abc ad40
000000b0: d10c 2e3e 6e67 4840 9e7e f53f ade3 c840
000000c0: 7449 8e3f f957 a640 30a3 8640 3587 5040
000000d0: d407 f13d bcb5 8c40 14c7 a640 66d2 9d40
000000e0: 5a6b a140 3723 4f40 ec01 7c40 8423 0540
000000f0: 92de 5640 bc03 8e40 3d37 c540 4fd4 4240
00000100: 5796 d93f 8b3a c140 d17c 0d40 a513 3540
00000110: 4c44 1940 d5c4 0040 5ed8 1040 84da 3440
00000120: a191 9d40 f57c 813f ef64 4840 a361 5840
00000130: 1519 3c3f 24af bc40 0bde 3f3f dce7 4540
00000140: ecfd c640 d1fe 6140 d870 2a3f a10e 143e
00000150: 4be9 7640 4e1c 3b40 73dd a740 0d3d 1b3e
00000160: 8b72 3440 9df6 2c40 2b3b d73f 3636 2840
00000170: dbe4 ac40 e9fb df3f c67f b43f d09a b340
00000180: 90b0 cf3e 3031 c440 67a9 a240 e2f8 1b3f
00000190: a591 8a40 75e7 5d3e 77ee 593f 4d74 ac40
000001a0: 5d81 6340 a542 603f a01c d33e 138d 3840
000001b0: 2d0c b240 4712 a240 cb08 5b3f da29 213e
000001c0: b21f e03c e7ea 8340 57de 2140 922f 7240
000001d0: c001 c840 f0dd 8240 8c83 953e 9bad 4440
000001e0: 80a5 a340 a99f fb3e f1cc 5640 b169 2e40
000001f0: f9b4 0f40 40f5 b340 7b93 793f f97f 143f
00000200: 79b2 9240 d73d de3f fb78 7540 a365 fb3e
00000210: 04dc c33e 0fd4 8240 a6ef 9840 3d82 0240
00000220: 1a51 5c40 20f0 0040 fb1b bf40 9594 fc3f
00000230: cfbd c53f f9e2 a040 0caa 8e3f 6ec4 9a3f
00000240: 955e 3340 756e 9f3f eafb 173f ce62 be40
00000250: 0084 113f af25 c840 ef18 343e 34ee af40
00000260: ae00 d73f d623 7240 2bd1 5b40 742c 2140
00000270: 9446 3d40 4a5d 1740 e355 f53f fd14 be3f
00000280: fb67 bd3f d1ce c93f bd8f 7c40 45e8 3640
00000290: aad9 c43f 38db 4b40 82b6 0240 f2fb 4840
000002a0: af33 2f3f 26a1 6240 8801 5d3e 7605 933e
000002b0: be6d 0c40 b160 4140 a713 0740 4a52 b240
000002c0: d097 5240 1504 e83e 28c1 bf40 0e50 8d3f
000002d0: 7fa0 433f 6132 883e 6f0c 6240 9468 9940
000002e0: 17c9 9640 d250 6940 2964 0a3f 0508 6c3e
000002f0: 08d6 5940 de2c b940 830c 9540 2c49 bb40
00000300: a9ae 9e3f 66b5 3540 239a de3d 4ab9 dc3f
00000310: 6257 6a40 bd15 8640 ea27 9e40 a535 673f
00000320: bc61 2a40 5ed1 7f40 0706 c440 6a08 6c3f
00000330: 7e0c 6940 0dcd a740 dd68 8c40 d674 6a40
00000340: d9cc 5e40 7b8a aa40 2e57 a140 568f 0140
00000350: b9f4 8440 a0cb 9f40 185a 3340 07ce 9540
00000360: 01f9 9e3f a96c c740 f987 b43d 33dc b540
00000370: b698 b040 1194 b23d bff5 5a40 0f4c 823f
00000380: 2e51 b240 e8be 9440 11ac 0d3f a310 2740
00000390: f1f8 cb3f e340 9b40 367e 7940 3a96 053f
000003a0: 8867 aa40 43e2 6e40 dc2e b63e 7263 8740
000003b0: 140a 8c40 6490 243f d823 fd3f 59e2 093f
000003c0: bcd2 aa40 9565 c840 059d 3740 1b7e 663f
000003d0: 2ce0 8c3f 7652 2f3f 91d6 533f 5145 be3f
000003e0: f584 ce3f fa41 3840 5d70 2d40 bb5c c63f
000003f0: 4227 b440 1bfb ac3e 2f9d d73f 12f1 8340

linear.weight f4 [1, 5000]
0.01380644 -0.00822311 0.023153953 -0.008218957 -0.0051516895 -0.012165228 0.012752505 -0.00996125
0.0025009187 -0.006586573 0.0038129452 -0.007386089 -0.010541714 0.00807635 0.013906719 0.025261343
0.0059218034 -0.1254194 0.019058248 -0.006399835 0.0028649326 -0.009189368 -0.014855624 0.019338721
0.017885163 -0.004341153 0.009711316 -0.17615291 -0.00788541 -0.009737602 0.0024050877 0.0097421305
-0.023212234 0.015326682 0.010593395 -0.0034621025 -0.0027552168 0.014411975 -0.006469318 0.018350745
0.0062001646 -0.048055235 -0.013125368 0.0064902594 -0.0052273693 -0.00629579 0.005179543 -0.007171236
-0.14214417 -0.058162842 0.0154175125 0.027828408 0.004032856 -0.01510373 -0.0036345364 0.012945807
-0.01819474 0.050315276 0.0069000693 0.0021724403 0.01373277 -0.0011507766 -0.026160693 -0.008255103
0.004574116 0.0055458434 0.009112262 0.010575777 0.007346106 0.102305934 0.009008747 0.009083009
-0.13311891 0.053346604 0.030880943 0.018803824 0.013449859 -0.010968423 -0.003599396 0.06458561
-0.0043219924 0.00048516796 -0.004117277 0.005827009 -0.002919401 0.008317597 -0.13984069 0.0072257603
0.013897011 -0.0064602965 0.010495865 0.00539127 -0.016598606 -0.016965572 -0.008358341 -0.0039730156
0.007696802 -0.03623824 0.049009174 -0.017958477 -0.0020356874 -0.0035570306 -0.020390742 -3.739525e-05
0.009188897 0.009945835 0.022739526 -0.001146786 -0.0038987687 0.009094422 0.014663665 0.0027624837
-0.009969253 -0.013736626 -0.0041189995 -0.010827732 0.0013489804 -0.0010323094 -0.014881901 -0.0039729346
0.013118038 -0.011819632 0.0024730244 0.040546484 0.20202339 0.0041517196 -0.02913372 -0.008706184
-0.000563287 0.015890274 0.011907263 0.010772109 -0.0042457245 0.017585702 0.015476641 0.1620811
0.0031308308 0.006220462 -0.013922234 0.009561387 0.007897007 -0.023559125 -0.0012524195 0.012034716
0.0033394697 -0.017318403 -0.0073492015 -0.007270402 -0.010383593 -0.0074596005 0.00890314 -0.0066100173
0.004443487 0.0063843424 0.07126644 0.009797087 0.009886806 -0.089850925 0.005385543 0.014277829
-0.00043563964 0.02358451 0.21080032 0.024374986 -0.007897715 0.020897662 -0.016261207 -0.005809928
-0.0007525037 0.01656373 -0.0019177805 -0.008126181 0.010275524 -0.0011969712 0.081345916 -0.018778188
0.0031429457 -0.026968546 -0.014685523 -0.010690757 0.0061780564 0.0046086083 0.019017639 0.008542316
0.012608771 0.007432696 -0.03398547 0.0067216065 -0.0052656294 -0.011978388 0.013122017 0.0015484559
0.38659668 -0.008369957 -0.033917725 -0.022908209 -0.0017804053 -0.062750295 -0.0029862483 -0.02148432
0.005436167 0.0149556 -0.068339296 0.011325542 0.011844633 0.002094856 -0.0077109747 0.0058044028
-0.00050714373 -0.0011895701 0.009092801 -0.0089434795 -0.0009718264 0.0034816838 0.015934799 0.005023261
-0.12168968 0.0023963822 -0.054784156 0.005639277 0.00031960165 -0.047294095 -0.0023082737 -0.015230785
-0.09672236 -0.00969733 -0.021928312 0.009659649 0.084014796 -0.011517636 0.0011912992 -0.017241757
-0.0026432995 0.02535312 -0.011822438 -0.0007600515 -0.00800551 -0.010104672 -0.012934222 -0.07750577
-0.0031397792 -0.012834843 -0.0042595556 -0.014072199 -0.0027901344 -0.0077024633 -0.005599423 -0.012470958
0.003181936 0.009209436 0.014262258 -0.007872543 -0.000992339 -0.004177012 -0.16275695 -0.0057299477
00000000: 6834 623c 39ba 06bc 5cad bd3c cea8 06bc
00000010: 81cf a8bb aa50 47bc e2ef 503c 8334 23bc
00000020: 74e6 233b 2ed4 d7bb 9be2 793b 0107 f2bb
00000030: 27b7 2cbc ab52 043c 02d9 633c e0f0 ce3c
00000040: b00b c23b f16d 00be 0b20 9c3c b5b5 d1bb
00000050: 98c1 3b3b 018f 16bc 0165 73bc 3d6c 9e3c
00000060: e883 923c 3b40 8ebb 361c 1f3c 6e61 34be
00000070: cf31 01bc 778a 1fbc ad9e 1d3b 759d 1f3c
00000080: 9527 bebc c31c 7b3c eb8f 2d3c 71e4 62bb
00000090: de90 34bb 3420 6c3c 93fc d3bb 4d54 963c
000000a0: c02a cb3b 91d5 44bd c90b 57bc 3eac d43b
000000b0: 5a4a abbb ea4c cebb 28b9 a93b b0fc eabb
000000c0: 3e8e 11be 293c 6ebd bc99 7c3c 67f8 e33c
000000d0: 0c26 843b a375 77bc 6731 6ebb a61a 543c
000000e0: 230d 95bc 6417 4e3d fa19 e23b 805f 0e3b
000000f0: 6aff 603c a8d5 96ba f34e d6bc 6940 07bc
00000100: 77e2 953b e8b9 b53b 994b 153c 0646 2d3c
00000110: 9bb7 f03b c685 d13d 6c99 133c e7d0 143c
00000120: 5350 08be f881 5a3d 08fa fc3c 7a0a 9a3c
00000130: cc5c 5c3c e7b4 33bc d8e3 6bbb 7645 843d
00000140: 809f 8dbb 245e fe39 39ea 86bb 7ff0 be3b
00000150: 6c53 3fbb 8846 083c 6632 0fbe 12c6 ec3b
00000160: 4ab0 633c e5b0 d3bb d9f6 2b3c 40a9 b03b
00000170: cdf9 87bc 62fb 8abc 6cf1 08bc 1230 82bb
00000180: 7435 fc3b 8c6e 14bd d8bd 483d a81d 93bc
00000190: 2b69 05bb 121d 69bb 7c0a a7bc d8d8 1cb8
000001a0: 078d 163c dbf3 223c 3e48 ba3c c14f 96ba
000001b0: 7c82 7fbb c500 153c de3f 703c c90a 353b
000001c0: 1456 23bc 960f 61bc acf8 86bb cd66 31bc
000001d0: 45d0 b03a 8e4e 87ba 38d3 73bc 642f 82bb
000001e0: 0aed 563c 21a7 41bc 7712 223b 1214 263d
000001f0: 38df 4e3e 260b 883b d7a9 eebc 62a4 0ebc
00000200: 8da9 13ba 522c 823c ae16 433c 807d 303c
00000210: b81f 8bbb e40f 903c bd91 7d3c 96f8 253e
00000220: a02e 4d3b 04d5 cb3b 151a 64bc 5da7 1c3c
00000230: 7362 013c 11ff c0bc 3a28 a4ba 422d 453c
00000240: 01db 5a3b 53df 8dbc 92d1 f0bb 8d3c eebb
00000250: f21f 2abc aa6f f4bb 7ade 113c d898 d8bb
00000260: ac9a 913b bf33 d13b 24f4 913d f683 203c
00000270: 45fc 213c c303 b8bd 3679 b03b 8eed 693c
00000280: 9066 e4b9 4d34 c13c 0adc 573e 0dae c73c
00000290: 6b65 01bc 9331 ab3c 3936 85bc 3561 bebb
000002a0: ab43 45ba a9b0 873c 095e fbba ac23 05bc
000002b0: ac5a 283c b0e3 9cba b098 a63d b7d4 99bc
000002c0: e1f9 4d3b 24ed dcbc 8c9b 70bc 4928 2fbc
000002d0: 4b71 ca3b cf03 973b e1ca 9b3c 12f5 0b3c
000002e0: 0595 4e3c f98d f33b 5934 0bbd ec40 dc3b
000002f0: 4d8b acbb 0041 44bc bafd 563c 8ff5 ca3a
00000300: 00f0 c53e 2522 09bc 50ed 0abd ffa9 bbbc
00000310: 7d5c e9ba 3a83 80bd efb4 43bb e2ff afbc
00000320: e021 b23b 5508 753c 79f5 8bbd c48e 393c
00000330: fe0f 423c da49 093b 58ac fcbb dc32 be3b
00000340: d7f1 04ba 59eb 9bba f9f9 143c ac87 12bc
00000350: 2ac2 7eba f62c 643b b289 823c 2b9a a43b
00000360: 7038 f9bd 9f0c 1d3b 5a65 60bd afc9 b83b
00000370: 3590 a739 74b7 41bd 6846 17bb 8b8a 79bc
00000380: 5f16 c6bd 8de1 1ebc 01a3 b3bc 8143 1e3c
00000390: f30f ac3d 77b4 3cbc 5e25 9c3a 963e 8dbc
000003a0: 353b 2dbb 59b1 cf3c e6b2 41bc 313e 47ba
000003b0: 8b29 03bc 118e 25bc 0fea 53bc 58bb 9ebd
000003c0: c1c4 4dbb 3c49 52bc be93 8bbb 158f 66bc
000003d0: b0da 36bb f264 fcbb 5d7b b7bb fd52 4cbc
000003e0: 0788 503b 2de3 163c 3fac 693c d7fb 00bc
000003f0: 5f11 82ba 51df 88bb c2a9 26be 49c2 bbbb
