results/large_N_sngp/SNGP/SNGP_R750_LS1.23_OS1.81_75000Sin/model.pt (torch, 10339 bytes, 3 tensors)

feature_weight f4 [750, 1]
0	0x4006ef45	2.1083539
1	0xbec78c93	-0.38974437
2	0xbe1b92a4	-0.15192658
3	0xbf21a70a	-0.63145506
4	0x3d67cf47	0.05659416
5	0xbf657049	-0.8962446
6	0x3f820e24	1.0160565
7	0x3fe257a6	1.7682998
8	0xbe1bd05f	-0.15216206
9	0x3e0b6397	0.1361221
10	0x3e0fd39e	0.1404557
11	0xbea8f9f8	-0.3300321
12	0x3f43fc4a	0.7655684
13	0xbf4cc01b	-0.7998063
14	0xbfb0d670	-1.3815441
15	0x3f90deba	1.1317971
16	0xbeb4acf8	-0.35288215
17	0xbdd68d84	-0.10476211
18	0x3ee848eb	0.45368132
19	0x3f5f0d4a	0.8712965
20	0xbfac5c21	-1.3465616
21	0xbf4acb4e	-0.7921647
22	0xbf8fef52	-1.124491
23	0x3e867f04	0.2626878
24	0xbf3e94f6	-0.74446046
25	0xbe89263e	-0.2678699
26	0x3f8ecb65	1.1155821
27	0xbf736789	-0.9507986
28	0xbf00b1f3	-0.5027153
29	0x3f0c2ae2	0.54752934
30	0x3e6dc0c4	0.23218066
31	0x3e888f9d	0.26672068
32	0x3f88bd15	1.0682703
33	0xbe1b1f06	-0.15148553
34	0x3f7ff461	0.9998227
35	0xbe7abb1e	-0.24485442
36	0xbf393ae2	-0.72355473
37	0x3f73b254	0.9519398
38	0xbef616f9	-0.48064402
39	0x3fbc9827	1.4733933
40	0xbfa1ae08	-1.2631235
41	0x3f1e47f0	0.6182852
42	0xbe2fdab7	-0.17173277
43	0x3f64ed49	0.8942457
44	0xbfafc870	-1.3733044
45	0x3fc154d3	1.5104011
46	0xbf50cef4	-0.81565785
47	0x3e726224	0.2367025
48	0xbf1915b8	-0.59798765
49	0xc0178407	-2.3674333
50	0xbd38d5d1	-0.045125786
51	0x3e1a0981	0.15042688
52	0xbf945ffc	-1.1591792
53	0xc020bd1f	-2.511543
54	0xbf6f79e5	-0.9354537
55	0x3f8f2f31	1.1186277
56	0x3fbe9a1d	1.4890782
57	0x3d706987	0.05869439
58	0x3e89b0a9	0.26892594
59	0xbfa2c780	-1.2717133
60	0xbcbb518f	-0.022866039
61	0xc0182ff9	-2.377928
62	0xbfbe25dc	-1.4855304
63	0xbf4957ef	-0.786498
64	0x3e005834	0.12533647
65	0xbec16c61	-0.37778
66	0xbe2ba030	-0.16760325
67	0x3f970416	1.1798122
68	0xbfdd62af	-1.7295741
69	0x3fa37f5c	1.2773242
70	0x3f1a7503	0.60334796
71	0x3ef56546	0.47928828
72	0x3ecc4dfa	0.3990324
73	0xbfd4dd70	-1.6630077
74	0x3fd67adf	1.6756247
75	0xbe5d3680	-0.21602821
76	0xbf0115b5	-0.5042375
77	0xbffba117	-1.9658536
78	0xbe2fa24c	-0.17151755
79	0xbdce2511	-0.100656636
80	0xbe5725a4	-0.21010453
81	0xbf87a79f	-1.0598029
82	0x3f1ce739	0.6129032
83	0x3e1a10de	0.15045497
84	0xbe59c927	-0.2126814
85	0x3f06fd30	0.52730083
86	0x3f6e5364	0.93095994
87	0x3ec2d5aa	0.38053638
88	0xbf108f10	-0.56468296
89	0x3f99e94d	1.2024323
90	0xbd163e7c	-0.036680683
91	0x3e64dcb6	0.2234982
92	0xbefa9346	-0.48940486
93	0xbfc1f43a	-1.5152657
94	0x3f447acf	0.7674989
95	0x3ef7475d	0.48296633
96	0xbfab6643	-1.3390583
97	0x4003d959	2.0601408
98	0x3f55bcb8	0.83491087
99	0x3edff136	0.43738717
100	0xbfae0073	-1.3593887
101	0x3fdf2dec	1.7435889
102	0x3e9251cc	0.2857803
103	0xbf598e2d	-0.8498257
104	0x3e8d1bed	0.27560368
105	0xbcdbd53c	-0.026835077
106	0x3fc3c75b	1.5295213
107	0xbe4bbacd	-0.19895478
108	0xbf79818a	-0.97463286
109	0x3ce7c9b4	0.028294422
110	0x3f2dd355	0.6790059
111	0xc015317a	-2.3311448
112	0xbfd697ed	-1.6765114
113	0x3e9a8ea8	0.30186963
114	0xbda452f3	-0.08023634
115	0xbdce5e2d	-0.10076556
116	0xbe7b8254	-0.24561435
117	0xbfa95bc7	-1.3231133
118	0xbfa62cd2	-1.2982428
119	0xbff367e1	-1.9016076
120	0xbe2fec10	-0.17179894
121	0xbf2d3dc4	-0.6767237
122	0xc0115d46	-2.271318
123	0x3eddee10	0.4334569
124	0x3f30c472	0.6904975
125	0x3fe3cae6	1.7796295
126	0x3c1c9617	0.009557269
127	0x3eae1b28	0.34005094
128	0x3f0a59c2	0.5404321
129	0x3f0fcfe5	0.56176597
130	0x3f3b1bb5	0.7308915
131	0xbf3d8694	-0.74033475
132	0x3f776318	0.9663558
133	0xbf2bbfc8	-0.6708951
134	0x3e803643	0.25041398
135	0x3f3dd908	0.7415929
136	0xbe456734	-0.1927765
137	0x3fc32eba	1.5248635
138	0xbf872993	-1.0559562
139	0x3fe9d02a	1.8266652
140	0xbf7e02bc	-0.9922292
141	0xbe3accb2	-0.18242148
142	0xbf889964	-1.0671811
143	0xc05babf9	-3.4323714
144	0xbfb95b24	-1.4480939
145	0x3ead593d	0.33857146
146	0x3f8ccd01	1.1000062
147	0xbe84e2d0	-0.25954294
148	0x3f27a502	0.65486157
149	0x3f38503d	0.71997434
150	0xbe851f8d	-0.26000634
151	0x3e6ee893	0.23330908
152	0x3f01f219	0.50760037
153	0xbe3a7598	-0.18208921
154	0xbfcd4d08	-1.6039133
155	0xbed3f243	-0.4139577
156	0x3e936ed9	0.28795508
157	0xbf4b1851	-0.7933398
158	0xbf8180b2	-1.01174
159	0x3f2c981e	0.6741961
160	0x3fa96daf	1.3236598
161	0x3eacaea2	0.33726984
162	0x3f06ff5d	0.52733403
163	0xbe46b4ac	-0.19404858
164	0xbec1573f	-0.37761876
165	0xbf1fdb3f	-0.6244392
166	0x3f36da3b	0.71426743
167	0xbf894640	-1.0724564
168	0x40124cf8	2.2859478
169	0x3f7f1d09	0.9965368
170	0xbf115191	-0.56765085
171	0x3f920e6d	1.1410652
172	0xbeb38a2a	-0.35066348
173	0xbea46be9	-0.3211358
174	0x3f10baab	0.5653483
175	0xbf92e212	-1.1475241
176	0x3e7f3f4a	0.24926487
177	0x3e9a50ec	0.30139863
178	0xbf84d386	-1.0377052
179	0xbe528e41	-0.20562078
180	0xbd172cd6	-0.036907993
181	0x3f7c3f0e	0.98533714
182	0xbe753acd	-0.23948212
183	0x3fb07c2d	1.3787895
184	0x3f945247	1.1587609
185	0xbf262aa3	-0.6490881
186	0x3ef27639	0.47355822
187	0x3fa991b8	1.3247595
188	0x3e9a8628	0.30180478
189	0xc004cb58	-2.074911
190	0x3f459c9c	0.7719209
191	0xbe5ea129	-0.21741165
192	0x40074f09	2.114199
193	0x3f73ac09	0.9518438
194	0x3f0b44f0	0.54402065
195	0x3f1e9fa5	0.6196235
196	0xbf14514c	-0.5793655
197	0x3ebe100a	0.37121612
198	0xbe5e1d56	-0.21690878
199	0xbf8c8d83	-1.0980686
200	0x3f324bc4	0.6964686
201	0xbf2999bd	-0.6625021
202	0x3f17c57a	0.592857
203	0xbf1dd200	-0.6164856
204	0xbfca2b67	-1.5794495
205	0x3dd2fb15	0.10301796
206	0xbf2e2b86	-0.6803516
207	0xbf8196fe	-1.0124204
208	0xbeb5f5c4	-0.35539067
209	0xbe70e675	-0.23525412
210	0xbf105620	-0.56381416
211	0x3d46beab	0.04852168
212	0xbe111e56	-0.14171728
213	0xbf61bf27	-0.881823
214	0xbf7a0570	-0.97664547
215	0x3fbfc9b2	1.4983428
216	0xbf4a0442	-0.78912747
217	0xbfb9b8f4	-1.4509568
218	0x3e578e2a	0.21050325
219	0x3e9a8cdb	0.3018559
220	0x3e906c6b	0.28207716
221	0x3f8b995c	1.0906177
222	0x3f524f5d	0.8215235
223	0xbe768cc6	-0.24077138
224	0xbf1a1103	-0.6018221
225	0xbee987d5	-0.45611444
226	0xbebe21c6	-0.37135142
227	0xbf0d2047	-0.55127376
228	0xbfb1c09c	-1.3886905
229	0xbfaa3c28	-1.3299608
230	0xbe3fbacd	-0.18723603
231	0x3f48669b	0.78281564
232	0xbe1c85fd	-0.15285487
233	0x3e894e29	0.26817444
234	0xbd27771c	-0.040885076
235	0x403c7681	2.944733
236	0xbee99067	-0.45617983
237	0x3e3d952b	0.18513934
238	0xbf067515	-0.52522403
239	0x3fe0729e	1.7534978
240	0x3e9954b5	0.2994744
241	0x3fd1466a	1.6349614
242	0x40017cd2	2.0232434
243	0x3c5f2e5a	0.013621891
244	0xbeb80ce4	-0.35947335
245	0x3fadbbb5	1.3572909
246	0xc000c056	-2.0117393
247	0x3ff8c53b	1.943519
248	0x3e17cbb4	0.148238
249	0xbfe889f6	-1.8167102
250	0xbf6233a9	-0.8836008
251	0x3f21712b	0.63063306
252	0x3d516c0e	0.05112844
253	0x3ebe8025	0.37207142
254	0x3c0e8261	0.008698077
255	0x3f23970d	0.6390236

feature_bias f4 [750]
0	0x40a27792	5.077096
1	0x3fe7a5fe	1.8097532
2	0x3ecb8eed	0.3975748
3	0x405a7834	3.4135866
4	0x3ece0a2a	0.4024213
5	0x4059e512	3.4046063
6	0x40aadc4a	5.3393908
7	0x40a8815c	5.265791
8	0x3fb4ebf9	1.4134513
9	0x40bf3f73	5.9764953
10	0x40866ce9	4.2007947
11	0x3fb19586	1.3873756
12	0x406c05ad	3.6878464
13	0x404a291a	3.1587586
14	0x40c08e0d	6.01734
15	0x4087ff39	4.249905
16	0x40b2adaf	5.5837016
17	0x4098f4e8	4.779896
18	0x3f58d2be	0.8469657
19	0x408f7a33	4.483667
20	0x40b15108	5.5411415
21	0x40559c85	3.3376782
22	0x40be8f67	5.955005
23	0x40a5144b	5.158727
24	0x40bb5ff1	5.8554616
25	0x40b54075	5.6641183
26	0x3f2257bd	0.6341513
27	0x4051a560	3.2757187
28	0x405ababd	3.4176476
29	0x3d2d7cb2	0.042355247
30	0x40795e2d	3.896373
31	0x3fcf265e	1.6183584
32	0x3db248dd	0.08705304
33	0x40391afa	2.8922715
34	0x408835b5	4.256556
35	0x40a61582	5.1901255
36	0x408f499a	4.4777346
37	0x40c90746	6.282138
38	0x4054fdc2	3.3279881
39	0x40b7733a	5.7328157
40	0x4080b924	4.0226
41	0x3fab1635	1.3366152
42	0x40988ca7	4.7671695
43	0x402087fa	2.5082994
44	0x40b1964d	5.5495973
45	0x3fba7b04	1.4568791
46	0x4055ff18	3.3436947
47	0x3fb5614b	1.4170316
48	0x40c5e909	6.1846967
49	0x406b5e9a	3.677649
50	0x40791979	3.8921797
51	0x4059d70f	3.4037511
52	0x40a941da	5.2892885
53	0x40bc5551	5.8854146
54	0x404a4c49	3.160906
55	0x403a1f72	2.9081693
56	0x40bc687c	5.8877544
57	0x40aba088	5.363346
58	0x40420876	3.0317664
59	0x4043b143	3.0576942
60	0x403ba53f	2.9319608
61	0x4080c0b0	4.0235214
62	0x4076a1ff	3.8536375
63	0x4003bca6	2.0583892
64	0x40028fb2	2.0400205
65	0x4099e193	4.808786
66	0x4093a3ed	4.6137605
67	0x403c1eb9	2.9393752
68	0x40c274d7	6.0767627
69	0x3fc38cc1	1.527733
70	0x40805cd2	4.0113306
71	0x406e6c7a	3.725371
72	0x3ed86610	0.42265368
73	0x40c8cf4a	6.275304
74	0x40b28b8f	5.579536
75	0x3fc54911	1.5412923
76	0x403a8289	2.9142172
77	0x3fe5b01d	1.794437
78	0x4046f13d	3.108474
79	0x401ec282	2.4806218
80	0x40aae5a7	5.3405337
81	0x400201d6	2.031362
82	0x4082c5c9	4.0866437
83	0x40a4316e	5.131034
84	0x4080b9e3	4.0226912
85	0x3ff8d472	1.9439833
86	0x40b1ac78	5.5523033
87	0x3e978d19	0.29599836
88	0x4068b7c7	3.6362169
89	0x3fce266d	1.6105477
90	0x3fdbedbf	1.7181929
91	0x4013ad5e	2.3074565
92	0x40a4e2f7	5.1527057
93	0x40b5a28c	5.676092
94	0x40972ee0	4.724472
95	0x3fcdbaa8	1.6072588
96	0x40c56976	6.1691236
97	0x402e03d9	2.7189848
98	0x3fe4dbf5	1.7879626
99	0x3fa53413	1.2906517
100	0x4005da0d	2.0914338
101	0x406710ae	3.610393
102	0x40464617	3.098028
103	0x4079f040	3.9052887
104	0x409ddf2f	4.933494
105	0x3f09d4f2	0.53840554
106	0x405f6738	3.490675
107	0x40b0e4de	5.527938
108	0x3f8c78a2	1.0974314
109	0x40c2e0f0	6.089958
110	0x3cc571df	0.02410215
111	0x3f0e64dc	0.5562265
112	0x3fc51fe2	1.5400355
113	0x40b1ea6c	5.559866
114	0x409ade7e	4.8396597
115	0x407747df	3.8637617
116	0x40c6f537	6.2174335
117	0x406502cd	3.578296
118	0x4083015d	4.0939164
119	0x40971ad4	4.722025
120	0x4047aaf7	3.1198099
121	0x408a78ad	4.327231
122	0x3f60fc51	0.87885004
123	0x3f4dbb3b	0.80363816
124	0x405d8d43	3.461747
125	0x3f17ca43	0.59293
126	0x4084c962	4.149583
127	0x3f0db47d	0.5535353
128	0x40ae2579	5.4420743
129	0x3ed939f9	0.42427042
130	0x40a575ea	5.170644
131	0x3fc9927a	1.5747826
132	0x4053e5a1	3.3108904
133	0x407f9fbd	3.9941247
134	0x3fce6781	1.6125337
135	0x40274a08	2.6138935
136	0x404570e1	3.0850146
137	0x4087c73f	4.243072
138	0x404aed41	3.1707308
139	0x3e8a4e31	0.2701278
140	0x4097a2be	4.738616
141	0x40002e7a	2.0028367
142	0x40215e22	2.5213704
143	0x3f8de675	1.1085955
144	0x3fcf759b	1.6207765
145	0x40032135	2.0489018
146	0x40000dfe	2.000854
147	0x3f77dfe7	0.9682602
148	0x406a11e2	3.6573415
149	0x3fe92190	1.8213367
150	0x40723e17	3.7850397
151	0x4043e4e2	3.060845
152	0x40bad65b	5.8386664
153	0x40a5c4d5	5.1802773
154	0x40947fd5	4.6406045
155	0x3f4910d6	0.78541315
156	0x40273561	2.612633
157	0x40c32292	6.09797
158	0x403bef12	2.9364667
159	0x404cb920	3.1987991
160	0x3ee3efd8	0.44518924
161	0x40a544e5	5.16466
162	0x40626411	3.5373576
163	0x40a53c46	5.1636076
164	0x3e0068d7	0.12539993
165	0x4047ecaa	3.1238198
166	0x404b403b	3.1757953
167	0x40b568c7	5.66904
168	0x4079ac3a	3.9011369
169	0x3f9f46fa	1.2443535
170	0x40afd5ea	5.4948626
171	0x400f781e	2.2417064
172	0x3ec4bbc2	0.38424498
173	0x40907c88	4.5152016
174	0x4049b311	3.1515543
175	0x3f610717	0.87901443
176	0x40818ac8	4.048191
177	0x4089787e	4.2959585
178	0x4064ecc9	3.5769522
179	0x40ac1b41	5.378327
180	0x3fbbaf92	1.4662955
181	0x3e36d0b3	0.1785305
182	0x40a8356b	5.2565207
183	0x40a73e61	5.2263646
184	0x3e702314	0.23450881
185	0x4088822e	4.265891
186	0x403a284e	2.90871
187	0x3f386e3d	0.7204321
188	0x3fea641d	1.8311802
189	0x3f307784	0.68932366
190	0x3fe3e052	1.7802832
191	0x3fbcf937	1.4763554
192	0x4098a436	4.7700453
193	0x40918683	4.54767
194	0x407960bb	3.896529
195	0x40aa2590	5.3170853
196	0x40191b79	2.3923018
197	0x40567cb1	3.3513606
198	0x40adb86d	5.428763
199	0x400a2ba1	2.158913
200	0x3e5c640f	0.21522544
201	0x40beae23	5.958757
202	0x408df161	4.435715
203	0x40c1453a	6.0397005
204	0x4046b989	3.1050742
205	0x3ee7d00c	0.45275915
206	0x4044c0f7	3.0742776
207	0x40286461	2.6311266
208	0x40481dc0	3.1268158
209	0x405be0cb	3.4355953
210	0x404470f4	3.069394
211	0x408c1a73	4.3782287
212	0x3f605133	0.876239
213	0x3e114e6c	0.14190072
214	0x3f8a7173	1.0815872
215	0x40b217db	5.565412
216	0x408e7760	4.452072
217	0x40a5ff81	5.1874394
218	0x40289f24	2.6347132
219	0x4043010e	3.0469394
220	0x40ba83de	5.828597
221	0x3fc9b2d0	1.5757694
222	0x3f3037ec	0.6883533
223	0x407e3cee	3.9724689
224	0x4097b0a7	4.740314
225	0x40176f1d	2.3661568
226	0x40a41526	5.1275816
227	0x3f89a587	1.075364
228	0x40b02a0c	5.5051327
229	0x40a5cd29	5.181294
230	0x40bcb065	5.8965325
231	0x40a7816a	5.2345476
232	0x3f0f29df	0.55923265
233	0x3f03b309	0.5144506
234	0x40197cbf	2.398239
235	0x407cb81c	3.9487371
236	0x40c7a90c	6.2393856
237	0x3dfe6373	0.12421312
238	0x4084ec72	4.153863
239	0x4099148a	4.783757
240	0x4094abae	4.645957
241	0x403bea50	2.9361763
242	0x40c4051d	6.125624
243	0x40640fc4	3.5634623
244	0x40ac68ae	5.3877783
245	0x3faf8aa2	1.3714182
246	0x3c8a1534	0.016855814
247	0x405fe59b	3.498389
248	0x40c49488	6.1431313
249	0x3f1644ce	0.5869874
250	0x40b5fa58	5.6868095
251	0x4084a232	4.144799
252	0x3fcee23c	1.6162791
253	0x40ad0a02	5.4074717
254	0x40050f96	2.0790763
255	0x4074b361	3.8234484

linear.weight f4 [1, 750]
0	0x3ef5e5e8	0.48026967
1	0x3d57b24d	0.052660275
2	0x3d0aafa3	0.033858906
3	0xbd1535f8	-0.03642842
4	0x3bfb8d4d	0.0076767565
5	0xbc13cfd3	-0.009021717
6	0xbd548d1c	-0.051892385
7	0x3c712a43	0.014719549
8	0x3d1a6fec	0.037704393
9	0x3c71d9ab	0.014761369
10	0x3b5a92be	0.0033351625
11	0x3cfff4b7	0.031244619
12	0x3c41681b	0.011804606
13	0xbba814f7	-0.0051294523
14	0xbdb1b0ca	-0.08676298
15	0xbc7f4b19	-0.0155818695
16	0x3bb30797	0.0054635513
17	0xbc4b1e66	-0.012397384
18	0xbd8858b4	-0.06657544
19	0x3c1ec4fe	0.009690521
20	0xbd3cfd76	-0.046140157
21	0x3ca59703	0.02021361
22	0xbcceebbf	-0.025258897
23	0x3c39de03	0.011344436
24	0x3c9bd713	0.019023454
25	0xbd75f217	-0.060045328
26	0x3bc8b07c	0.006124554
27	0x3cb5fd70	0.022215575
28	0xbb241359	-0.0025035946
29	0xbc2024e9	-0.009774425
30	0x3d6a4c32	0.05720157
31	0xbd4fd379	-0.050738785
32	0xbd8cf8ff	-0.0688343
33	0x3ca23998	0.019802853
34	0xbd4612c5	-0.048357744
35	0x39d9ca1f	0.00041540057
36	0xbc756c44	-0.014979426
37	0xbce41d82	-0.027846102
38	0xbd1c1a39	-0.038110945
39	0xbe28aebe	-0.16472909
40	0x3dd90644	0.10596898
41	0xbcd630f0	-0.026146382
42	0xbd1d18bc	-0.038353667
43	0x3d452e7f	0.048140045
44	0xbd10b26f	-0.035326418
45	0x3cf05a4c	0.029339932
46	0xbcdefcaf	-0.027220098
47	0xbd884f1e	-0.066557154
48	0x3c843816	0.016140025
49	0xbf0c55b7	-0.5481829
50	0x3cc04673	0.023471093
51	0x3ccd0e22	0.025031153
52	0x3ca6b7fb	0.0203514
53	0xbe8b9a6e	-0.27266258
54	0xba7f7446	-0.0009744804
55	0x3dd55439	0.10416455
56	0xbe04c76c	-0.12966698
57	0x3bfb9471	0.0076776077
58	0x3ceb38b0	0.028713554
59	0x3dc4a95a	0.09602614
60	0x3cb46feb	0.022026023
61	0xbf401590	-0.750329
62	0x3e0b9fd5	0.1363519
63	0x3bb9c340	0.0056690276
64	0xbcbea367	-0.023271276
65	0xbd2781b8	-0.040895194
66	0xbc93e034	-0.018051244
67	0x3da2843c	0.07935378
68	0xbe547cf7	-0.20750795
69	0x3dd69b7e	0.104788765
70	0x3d5277ee	0.051383905
71	0x3d279cfa	0.04092119
72	0xbd261204	-0.040544525
73	0xbe202bcf	-0.15641712
74	0xbdce6e54	-0.10079637
75	0x3c9247b6	0.01785646
76	0x3caff2a4	0.021478005
77	0x3ed652af	0.41859958
78	0x39fae4e5	0.00047854256
79	0x3d473dd9	0.048642967
80	0xbd845d1f	-0.06463074
81	0xbd31396c	-0.043267652
82	0x3cb4480a	0.022007007
83	0x3d40669b	0.046972852
84	0x3c703516	0.014661094
85	0xbd1123b3	-0.035434436
86	0xbd4aba44	-0.049494043
87	0xbd0ea456	-0.03482469
88	0xbb3cd595	-0.0028813828
89	0x3d8e808b	0.069581114
90	0x3d132042	0.035919435
91	0x3c4424af	0.011971637
92	0xbb0bba40	-0.002132073
93	0xbd970539	-0.07374043
94	0xbb58e84b	-0.0033097442
95	0xbd404ab2	-0.046946235
96	0xbdf941ed	-0.121707775
97	0xbdc22cd1	-0.09481204
98	0xbc23fb0d	-0.010008586
99	0xbc5c1196	-0.013431927
100	0x3b11eefa	0.0022267685
101	0x3e75e5cd	0.24013443
102	0x3c8e511b	0.017372658
103	0x3d2ef2f4	0.042712167
104	0x3d560b0b	0.052256625
105	0xbcb481d9	-0.022034572
106	0x3e2fa586	0.17152986
107	0xbbb79887	-0.0056028995
108	0xbda07379	-0.07834525
109	0xbd0da2fd	-0.034579266
110	0x3d0fb9b7	0.03508922
111	0x3eed0cda	0.46298867
112	0x3d82a7b5	0.06379644
113	0x3d1b7071	0.03794903
114	0x3c116568	0.008874275
115	0x3cc7e425	0.02440078
116	0x3a8e158e	0.0010840164
117	0x3df10602	0.11768724
118	0x3e108411	0.1411288
119	0xbea81c6a	-0.32834178
120	0xbc40e88c	-0.0117741935
121	0xbd37b319	-0.044848535
122	0x3f20b43f	0.62775034
123	0xbd0b2ad6	-0.0339764
124	0x3c7df3c4	0.015500013
125	0xbe65b9a0	-0.22434092
126	0x3be59713	0.007006535
127	0xbcfa8357	-0.030580206
128	0x3d23659f	0.039891835
129	0xbb98ab54	-0.004659096
130	0xb99b2246	-0.0002958944
131	0xbc7fe804	-0.015619282
132	0x3c9682a5	0.018372843
133	0xbd36d672	-0.044638105
134	0xbd2799b1	-0.040918056
135	0x3c55f01c	0.013057735
136	0x3d346d94	0.044049814
137	0x3d5d0d74	0.053967908
138	0x3d8bce2a	0.06826432
139	0xbe822dc1	-0.25425532
140	0x3d88881e	0.06666587
141	0x3d07341c	0.03300868
142	0xbb81cd75	-0.00396126
143	0xbe31cdf5	-0.17363723
144	0xbd443639	-0.047903273
145	0xbc2dd0de	-0.01060888
146	0x3de28b35	0.11061708
147	0x3ac3daf8	0.0014942577
148	0xbb8e2790	-0.0043382123
149	0x3c9c45a1	0.01907617
150	0xbcf8a32b	-0.030351242
151	0xbc19b993	-0.009382623
152	0x3cf346b6	0.029696804
153	0xbd63c6ab	-0.055609386
154	0xbd06a2af	-0.03286999
155	0x3c6c298a	0.014414201
156	0xbd1187de	-0.035529964
157	0xbd1323e2	-0.035922892
158	0x3cdfce7b	0.027320137
159	0xbb4bf9dd	-0.0031124272
160	0xbd42d826	-0.047569416
161	0x3d0e6ce2	0.034771807
162	0xbc6ae4f6	-0.014336815
163	0xbc2159e9	-0.009848096
164	0x3cc17f80	0.023620367
165	0xbbe46fd1	-0.0069713374
166	0x3c9f3a55	0.019436995
167	0xbbdeb76b	-0.0067967675
168	0x3f084228	0.53225946
169	0x3d54e5a2	0.051976807
170	0xbd0d64ff	-0.034520146
171	0x3db063ca	0.08612783
172	0x3cc2892e	0.023747053
173	0xbd11b25f	-0.0355705
174	0xbbbd6eb3	-0.0057810186
175	0xbdc3eb92	-0.09566416
176	0x3d688291	0.056765143
177	0x3d5ce5b1	0.05392999
178	0x3d9fd339	0.078039594
179	0xbc2c0332	-0.010498809
180	0x3c03bc7c	0.008040544
181	0x3a5c6459	0.0008407287
182	0xbd228f8a	-0.03968767
183	0xbe0a80c4	-0.13525683
184	0xbc807a11	-0.015683206
185	0xbb278b89	-0.0025565347
186	0x3b3d138f	0.002885077
187	0xbd70e14d	-0.058808614
188	0x398088ac	0.0002451589
189	0x3e83fda6	0.25779456
190	0xbc5cb2ea	-0.013470391
191	0x3d406fa0	0.046981454
192	0x3f0cde2a	0.55026495
193	0xbd421002	-0.047378547
194	0x3b42aada	0.0029703886
195	0xbc3c8fbd	-0.011508879
196	0x3d567d44	0.052365556
197	0xbc1ef331	-0.009701536
198	0xbc9becef	-0.019033877
199	0x3b1a038a	0.0023500645
200	0xbca1179a	-0.019664574
201	0x3cd414dd	0.025888855
202	0x3c0319e2	0.008001776
203	0xbc99e219	-0.01878457
204	0x3e3e75f2	0.1859968
205	0xbc37b445	-0.011212413
206	0x3c1646fb	0.0091721965
207	0xbb64f298	-0.0034934636
208	0xbc39da8c	-0.01134361
209	0xbcdb503e	-0.02677166
210	0x3c19e920	0.00939396
211	0xbca3eca5	-0.020010302
212	0xbc0cc6ec	-0.008592349
213	0xbccbca60	-0.024876773
214	0xbd8b855a	-0.06812544
215	0xbe1cbbb5	-0.1530598
216	0xbb61c007	-0.0034446733
217	0xbccca7b7	-0.024982316
218	0x3cb2e3ee	0.021837201
219	0xbca41df9	-0.020033823
220	0x3d3e68b0	0.046486557
221	0x3dc2c2de	0.09509824
222	0xbbfd7b87	-0.007735673
223	0x3c804440	0.015657544
224	0xbd6774eb	-0.056507986
225	0x3b2b57e4	0.0026144916
226	0xbd892b30	-0.066976905
227	0x3ca52571	0.020159455
228	0xbbddc95e	-0.0067683896
229	0xbbb8295e	-0.0056201657
230	0xbc693311	-0.014233367
231	0xbc9e1d7c	-0.019301169
232	0xbb5c373a	-0.0033602254
233	0xbb49e495	-0.0030806412
234	0x3cec0b50	0.028813988
235	0x3ef16455	0.4714686
236	0x3a2b3961	0.00065316824
237	0xbc07f0a1	-0.0082971165
238	0xbd1d5baa	-0.038417496
239	0x3e1425d0	0.1446755
240	0x3cb606c1	0.022220017
241	0x3dfb36a2	0.1226628
242	0xbd3daadd	-0.046305526
243	0x3ce19624	0.027537413
244	0xbd2d5382	-0.042315967
245	0x3d7a61d4	0.061128452
246	0xbdc4fb18	-0.09618205
247	0x3e7ab3e5	0.24482687
248	0xbc92a0fb	-0.017899027
249	0xbd2eb3c8	-0.04265192
250	0xbcec1e35	-0.028822998
251	0x3c9f7014	0.019462623
252	0xbcf103e0	-0.029420793
253	0x3d6acd91	0.05732495
254	0x3d25a76f	0.04044288
255	0x3c900431	0.017580124
