results/primary_sngp/SNGP/SNGP_R18750_LS1.23_OS1.81_75000Sin/model.pt (torch, 226339 bytes, 3 tensors)

feature_weight f4 [18750, 1]
000000 5c 72 cf 3f f7 34 3f 3f 18 5c 97 3f e2 c6 87 bf
       1.6206775 0.7469019 1.182498 -1.0607569
000010 2c 82 53 bd a6 44 ce 3f 19 81 99 3f f4 e5 e6 3e
       -0.051637813 1.61147 1.1992522 0.45097315
000020 e3 6b 84 3f 6a 96 57 3f 9e e5 12 3f c6 8c 27 bf
       1.0345424 0.8421389 0.5738162 -0.6544918
000030 c5 c0 06 3f 3c cf fc 3e 92 8c 97 3e cd a3 c1 3f
       0.5263789 0.49376857 0.29599434 1.5128113
000040 97 c8 2d 3f 10 6e 85 3d c6 5c 31 bf 80 47 79 bf
       0.678842 0.065151334 -0.69282186 -0.97374725
000050 b7 f2 e5 bf 6a 04 a6 3f a9 a1 08 40 dc 12 60 bc
       -1.7964696 1.2970097 2.134867 -0.013676371
000060 9e f8 4e 3f b0 e8 d8 3e 09 de 69 3f 86 f9 60 be
       0.8084811 0.42365026 0.91354424 -0.21970186
000070 2f 58 5c bf 78 f9 ab 3e 13 5c e7 3f f5 bc bc be
       -0.8607206 0.33588767 1.8074974 -0.36862913
000080 80 d1 30 be 66 53 20 3f 05 aa dd 3f 5d 10 a0 be
       -0.17267418 0.62627256 1.7317511 -0.31262484
000090 37 b6 78 3e cf 4d 10 3f f7 83 05 40 6b 53 74 3e
       0.2428826 0.56368726 2.0861795 0.23859946
0000a0 96 1f 1b bb 9a 63 21 3f 65 13 f6 bf 35 0b 32 3f
       -0.002366995 0.63042605 -1.9224669 0.6954835
0000b0 dc 90 61 bf d4 c5 88 3f 5c c8 44 be 03 f8 31 3f
       -0.8811166 1.0685372 -0.19217056 0.6951906
0000c0 af 0d 0c 3f ca 3d 34 3f 24 30 9e 3f fb f9 0e 3f
       0.5470838 0.7040678 1.2358441 0.5585019
0000d0 84 cd b1 3e 29 ce 85 3e 33 41 e3 3c 4c fd 97 3e
       0.34727108 0.2613385 0.02774105 0.29685438
0000e0 1f fb bf bf 93 62 c1 be e2 92 87 3e 1f 03 de bb
       -1.4998511 -0.3777052 0.2647925 -0.0067752744
0000f0 90 f6 6e 3f 5c 7b 1b 40 eb 23 3b be 27 47 f2 3e
       0.93344975 2.4294043 -0.1827542 0.4731991
000100 6b 6d b0 bf 92 62 67 be 51 fc 57 3f 99 c7 4a 3f
       -1.3783392 -0.22596195 0.8436938 0.7921081
000110 90 8e 83 3f 5a 56 c4 bf 0c bd 91 3f 88 e1 35 bf
       1.0277882 -1.5338852 1.1385818 -0.7104726
000120 e9 bd 84 3f 5f e2 63 bf dd 75 d3 bf c6 43 d7 3e
       1.0370456 -0.8901729 -1.6520344 0.42043895
000130 e0 61 02 bf a1 5b b9 3f d6 df a8 3e 21 00 80 bd
       -0.50930595 1.4481088 0.32983273 -0.062500246
000140 3e 1e 05 bf 42 de 6a bf dd b7 38 bf c1 a6 d6 3a
       -0.5199927 -0.9174539 -0.72155553 0.0016376601
000150 28 59 eb bf 09 4d 3d bf fd 6b d4 be 9a 79 25 3f
       -1.8386583 -0.7394567 -0.4148864 0.64638674
000160 07 5c a4 3e f8 81 03 3f db 94 97 3e ae 7e 28 bf
       0.3210146 0.5137019 0.29605755 -0.658183
000170 98 6e b4 be a7 d6 0e bd f2 0a 49 bf 84 8e a8 be
       -0.35240626 -0.034872677 -0.78532326 -0.3292123
000180 ec 80 78 3f 14 6b d8 3f e3 0e 9d be eb d3 a4 bc
       0.9707172 1.6907678 -0.3067542 -0.020120582
000190 d7 00 12 bf 89 e5 60 bf 50 dc 18 bf fe 41 d1 bd
       -0.5703253 -0.8785024 -0.5971117 -0.10217665
0001a0 13 ff e4 3f a0 99 dd 3f 43 d1 57 3d 74 4f 0c 3e
       1.7890342 1.7312508 0.052689802 0.13702184
0001b0 8b 60 a7 3f 7d 66 91 be 25 29 b5 be b2 70 44 3f
       1.3076338 -0.28398505 -0.35382953 0.7673446
0001c0 ec e9 0c be a5 4b 06 bc 32 3f c2 3e bb 6c 02 c0
       -0.13761109 -0.008196746 0.3793884 -2.0378864
0001d0 99 21 b4 bf e3 17 24 be 78 12 4c bf 72 6b 8d 3d
       -1.4072753 -0.16024737 -0.7971568 0.06905259
0001e0 bd 51 80 3f 40 c3 3c be 7e 6d 99 be de dd c0 3f
       1.0024945 -0.18433857 -0.29966348 1.5067708
0001f0 5d 42 83 be 4c 70 95 be 40 55 09 3f 06 ed 75 bd
       -0.2563657 -0.29187238 0.53645706 -0.060040496
000200 65 3d 96 be 63 31 1c 3f ad 48 cd bf 48 2e 92 bf
       -0.29343715 0.6101286 -1.6037804 -1.1420374
000210 98 8f c8 3e 49 3f c4 bf 1d a5 b0 3e 08 89 9e bf
       0.39172053 -1.5331813 0.3450097 -1.2385569
000220 ed 38 4d 3f 2c 76 58 3d 94 b3 70 bf ce 09 94 3f
       0.80164987 0.052847072 -0.94024014 1.1565492
000230 d5 29 06 bf 15 78 24 3e 67 ca 83 3e c2 33 98 3f
       -0.5240758 0.16061433 0.25740358 1.1890795
000240 7c 49 93 be 59 89 fe be 10 28 f2 3f a7 ce a3 3e
       -0.28767002 -0.49714163 1.8918476 0.319936
000250 2b 80 3f bf a1 93 80 c0 c8 c2 2c 40 c3 91 da be
       -0.74804944 -4.018021 2.6993885 -0.42689332
000260 5f 21 8b 3d fc ab d3 3d ed bd 7d 3f 76 9b 38 bf
       0.067934744 0.10335538 0.9911793 -0.72112215
000270 8c cd f2 bd d7 da 3b 3f f6 9b 71 3f fc 2a 8f 3f
       -0.11855611 0.733808 0.943786 1.1184993
000280 0d 0a 8e bf fc ff a5 3f fb cb d0 3d d3 43 26 3f
       -1.1096817 1.2968745 0.10195156 0.6494724
000290 1b e4 b3 3f 51 22 76 3f 01 fb 9d 3f ef 5b 7a 3d
       1.4053987 0.9614611 1.2342225 0.06112283
0002a0 45 37 12 c0 f3 f7 04 bf be f9 09 c0 9b ba 27 3f
       -2.2846234 -0.5194084 -2.155868 0.6551911
0002b0 6e 16 0c 3e 8d f4 ba bc 3d d9 0f 3f 95 c7 83 3f
       0.13680431 -0.022821689 0.56190854 1.0295283
0002c0 f7 98 99 3f 0c a5 c4 bd ac 03 01 be 12 2f 07 3d
       1.1999806 -0.09601793 -0.12599057 0.033003874
0002d0 05 6c 0d 3d 7b 4c 56 bf ab c2 9f 3f 9a f2 ad 3f
       0.034526844 -0.8371045 1.2481283 1.3589661
0002e0 18 18 9b bf 11 1e bd 3e f3 6d ec be 94 dd ca be
       -1.2116728 0.36937 -0.46177635 -0.39622176
0002f0 c5 f8 86 be 72 5b 24 3f de 8e c2 3e 4f 73 4e be
       -0.2636167 0.64202034 0.37999624 -0.20161174
000300 73 02 f3 3e 96 70 b0 3e 98 4a a6 3b ad ac c2 3f
       0.47462806 0.34460896 0.0050748102 1.5208946
000310 9b e3 8f be c1 e1 f9 be 05 e3 00 3c 34 90 52 bf
       -0.28103337 -0.4880505 0.007866626 -0.82251287
000320 37 49 56 c0 a4 ad d6 bf 10 98 8e 3e 7d 9c 8b be
       -3.3482187 -1.6771741 0.2785039 -0.2726783
000330 41 97 cc be c3 2f be 3f 69 0d ad 3e e3 b5 b8 be
       -0.39959148 1.4858326 0.33799294 -0.3607627
000340 9f ac 4f 3e 21 75 e1 3e d2 fd 6c bf 57 99 c8 bf
       0.20280693 0.44034675 -0.925748 -1.5671796
000350 62 9a 06 3e 81 82 3e 3f 37 bb 8c 3f a5 b2 e7 3e
       0.1314483 0.74417883 1.0994633 0.45253482
000360 cd 4c 0c 3f 2e 21 37 3f bb 91 0f 3e 18 47 ea 3e
       0.5480469 0.71535003 0.14020436 0.45757365
000370 b9 d2 09 c0 0b 3c ba 3e 09 35 14 3e 38 f8 9a 3e
       -2.1534865 0.36373934 0.14473356 0.302675
000380 ef 04 49 3f 09 a2 94 3e 81 a6 f4 be 41 ba 09 40
       0.78523153 0.29029873 -0.47783282 2.151993
000390 9e c4 48 be 3a 05 34 3f 1c 7d 2b bf 66 18 f1 3e
       -0.19606254 0.70320475 -0.66987777 0.47088927
0003a0 c8 16 0d 40 15 0e 2f 3e 4d 06 89 be 1c 43 18 3e
       2.2045155 0.17095216 -0.2676262 0.1486935
0003b0 dc cc 3c be 18 01 c4 3f bc 78 07 40 1e 19 8f 3e
       -0.18437523 1.5312834 2.116744 0.2794885
0003c0 70 d9 01 40 33 9c 68 3f 28 ef 01 40 13 f9 51 bf
       2.0288963 0.9086334 2.030222 -0.8202068
0003d0 a6 87 e8 bd ad 12 88 bf 7a 64 95 bf 37 1a 05 40
       -0.11353998 -1.0630699 -1.1671288 2.079725
0003e0 08 72 c5 3f 7f f2 5a bf bc e5 29 3d f3 8c f3 3d
       1.5425425 -0.8552627 0.041478857 0.11892118
0003f0 3b 38 8a bf e2 52 28 bf b3 93 3a bd a3 2b 1b bd
       -1.079841 -0.6575147 -0.045551013 -0.037883412

feature_bias f4 [18750]
000000 9f 5f 44 3f 47 02 0c 40 cf 88 5e 40 31 d7 89 3f
       0.76708406 2.187639 3.4771001 1.0768796
000010 e1 d8 c0 3f 2a b9 aa 40 3f 1f b8 40 ae 49 be 40
       1.5066186 5.335103 5.753814 5.946494
000020 c1 28 b7 40 b8 ae bb 40 c6 9e 33 40 d2 63 ad 40
       5.723725 5.865078 2.8065658 5.418435
000030 99 4e e5 3f d0 98 3e 40 9e 02 ad 3f 2c 7f a8 3f
       1.7914611 2.978077 1.3516424 1.316381
000040 12 ae 58 40 d7 7f b3 40 a2 70 76 40 e2 0d 5b 40
       3.3856244 5.6093554 3.8506246 3.4227223
000050 99 e0 79 3f 7f b4 ae 40 0c f8 60 3f b5 c0 eb 3f
       0.97608334 5.459533 0.8787849 1.8418185
000060 cb 9f f7 3e eb fa a2 3f 52 67 c4 40 f0 8d 85 40
       0.483641 1.2732824 6.1376123 4.1735764
000070 97 31 ed 3f 89 ff 1b 3d 7b 7f 36 40 fe 13 9a 40
       1.8530759 0.038085494 2.8515308 4.8149405
000080 4d 26 45 40 1d 02 56 40 83 d9 1a 40 fa 09 45 40
       3.0804627 3.343879 2.4195259 3.078734
000090 c7 99 48 3f b4 b4 3d 3e fb fb ba 3f 9f ef 6e 3f
       0.78359646 0.18525964 1.4608148 0.9333438
0000a0 63 d4 90 40 7b c1 8c 3d 5e 1d b8 40 51 1a bf 3f
       4.525926 0.06872841 5.753585 1.4929906
0000b0 9d de 90 40 e4 54 55 40 d1 5b b1 40 15 91 56 3e
       4.5271745 3.3333063 5.542458 0.20953782
0000c0 32 e5 af 40 32 df a9 40 41 95 db 3e 3c 43 b9 40
       5.496728 5.3084955 0.4288731 5.7894573
0000d0 14 bd 1e 40 30 cd 45 40 8d 05 8d 3f 10 62 24 40
       2.4802904 3.0906487 1.1017319 2.5684853
0000e0 48 8b 21 40 e5 51 26 40 a5 7c 9c 40 02 d5 42 3f
       2.524126 2.5987484 4.8902154 0.76106274
0000f0 f5 0b f3 3f 4b 52 61 40 1e 08 63 40 3b 78 88 40
       1.8988024 3.5206478 3.5473704 4.2646766
000100 02 af 8c 40 91 7b c5 40 27 fc b5 40 86 39 5f 40
       4.3963633 6.171334 5.6870303 3.487886
000110 23 4b b3 3f 40 ab 84 40 e7 eb b2 40 ff e4 a9 3f
       1.4007305 4.1459045 5.5912967 1.3273009
000120 ba bc 73 40 54 a1 66 3f bf 5d 37 40 fb e3 5e 40
       3.808394 0.9008992 2.8650968 3.4826648
000130 96 e7 6d 40 84 83 8c 40 63 66 8a 40 a1 c8 f5 3f
       3.71726 4.391054 4.3249984 1.9201852
000140 e3 3d c0 3f b8 00 82 3f c3 90 8b 40 7c 08 75 40
       1.5018886 1.0156469 4.361421 3.8286428
000150 42 c1 86 40 f7 bf a3 3f 00 27 86 40 59 5f d8 3f
       4.211091 1.2792958 4.1922607 1.6904098
000160 0b 8e 67 40 37 e7 a4 40 27 ac be 3f a9 7e a5 3f
       3.6180446 5.1532245 1.4896287 1.2929279
000170 55 2b 8a 40 f9 e6 2c 40 db ab c8 40 f9 f7 97 40
       4.3177896 2.7015975 6.2709785 4.74902
000180 8c da 63 40 6d 18 81 3e 90 07 5e 3f 0e 4d 90 3e
       3.560214 0.25213948 0.8673029 0.28183788
000190 e2 65 49 3f 17 a9 c3 3f d7 28 2a 40 a0 1d ab 40
       0.78671086 1.5285977 2.6587427 5.3473663
0001a0 2d c4 56 40 5b ff 02 40 56 ab 6c 40 9a a6 c9 3e
       3.3557236 2.0468357 3.6979575 0.3938492
0001b0 11 ee a2 3f e1 ec 62 40 63 35 c7 40 88 1d 53 40
       1.2728902 3.545708 6.225267 3.2986774
0001c0 71 92 52 3f 74 75 51 40 8b 74 93 40 81 f2 86 40
       0.822547 3.2727938 4.6079764 4.2171025
0001d0 05 c6 5c 40 cb 82 5b 40 06 91 fd 3f bc 27 28 40
       3.4495862 3.429858 1.9809883 2.6274252
0001e0 2d c7 09 3f bf a9 fb 3f ee f8 47 40 53 ba a8 40
       0.53819543 1.9661177 3.1245685 5.2727447
0001f0 1a 27 2e 3f 8d 20 09 3f 21 3e cc 3f 48 44 02 40
       0.68028414 0.53565294 1.595646 2.0354176
000200 bd f2 9a 40 f0 d5 77 3f 9e 49 42 40 05 3e 56 40
       4.842131 0.9681082 3.0357432 3.3475354
000210 42 78 85 3e e6 fb 4d 40 ce 03 04 3f e5 19 9a 40
       0.26068312 3.2184997 0.51568305 4.815661
000220 84 ee 5f 40 43 ad a7 3f d5 e4 4a 40 a4 5b 81 3f
       3.4989328 1.309975 3.1702168 1.0106091
000230 c6 f7 f4 3f 7d 56 54 40 3c 0c 96 40 d9 36 15 40
       1.9138114 3.3177788 4.6889935 2.3314726
000240 bd 3b c3 40 b0 71 4e 3f 8f 59 4e 40 ad 48 81 40
       6.1010423 0.80642223 3.2242162 4.0401216
000250 5e 43 a7 40 53 c2 bc 40 42 76 cf 3f e1 97 7f 40
       5.2269735 5.898721 1.6207964 3.993645
000260 f7 a2 b7 40 9e fe 99 40 46 24 4c 40 56 b9 83 40
       5.738643 4.812331 3.189714 4.116374
000270 99 73 bc 3f 41 36 4f 40 b7 b4 19 40 07 0c ad 40
       1.4722778 3.2376864 2.401655 5.407718
000280 8c 2d 9a 3f 8c 67 d8 3f 80 dd 5d 40 be 92 5e 40
       1.204515 1.69066 3.4666443 3.4777064
000290 7e a4 8c 40 e9 8d 85 40 e1 cb b9 40 96 59 d2 3f
       4.3950796 4.173573 5.8061376 1.643359
0002a0 2f 8d bf 40 31 cc 90 40 3f a8 40 40 9d 58 78 40
       5.9859843 4.5249257 3.010269 3.8804085
0002b0 b1 a2 b7 40 9b 92 c2 40 9b 7f bd 40 da a9 8b 3f
       5.73861 6.080396 5.921827 1.091121
0002c0 cb c7 93 40 ee 60 e0 3f 4b 6c 63 3e e1 69 f1 3f
       4.618139 1.752958 0.22209279 1.8860437
0002d0 64 fc 4b 40 8c 01 ad 3f 1a d1 8d 40 e2 39 85 40
       3.1872797 1.3516097 4.431775 4.163316
0002e0 d4 22 34 3f 0b d9 b5 3f eb 93 f4 3f fa d7 aa 40
       0.70365644 1.4206861 1.9107641 5.3388643
0002f0 5a f0 02 40 dc 91 c2 40 5a 34 e6 3d 80 21 c1 40
       2.04592 6.080305 0.11240454 6.0353394
000300 a2 7d fc 3e 5c bf 4a 40 77 f3 a1 40 62 ab 22 40
       0.493146 3.1679296 5.06097 2.5417104
000310 a8 71 a2 3d 57 a7 45 40 24 4c 8a 40 d4 5a 2e 40
       0.079318345 3.0883386 4.3217945 2.7242937
000320 99 50 54 3e 84 e9 03 40 95 53 a0 40 e1 9d c5 3f
       0.2073387 2.0611277 5.010203 1.5438806
000330 22 52 8a 40 86 35 aa 3f 54 db 81 3f 25 97 63 3f
       4.322526 1.3297584 1.0145059 0.88902503
000340 39 31 b7 40 b9 0e 10 40 58 55 1b 40 d4 f0 07 40
       5.7247586 2.2508986 2.427084 2.124074
000350 30 1f c7 40 c2 89 b2 3e fb 05 4f 3e e3 e9 75 40
       6.222557 0.34870726 0.20217125 3.8424003
000360 b0 ea b5 40 52 cd aa 40 85 80 99 40 30 5f 8e 3d
       5.6848984 5.3375635 4.7969384 0.06951749
000370 31 d0 7c 40 7f 39 98 3d fb f8 95 40 99 70 52 3f
       3.950207 0.074328415 4.686643 0.8220306
000380 ac df b1 40 32 15 3d 40 37 2a e1 3f 07 47 83 40
       5.5585537 2.9544187 1.7591008 4.1024203
000390 b9 ad 2f 40 85 8a 8a 3e de 88 41 40 bb 9c bf 40
       2.7449782 0.27058807 3.0239787 5.987882
0003a0 95 51 32 40 42 5e a6 40 45 34 87 40 ca 45 03 3f
       2.7862294 5.199006 4.2251306 0.51278365
0003b0 24 4f ae 40 4f 4c fb 3f 14 9d 63 40 4e 0a 52 40
       5.4471607 1.9632663 3.5564623 3.281879
0003c0 25 33 9f 3f ad 6c 9a 40 c5 fc 66 40 85 9f 93 3f
       1.2437483 4.825766 3.6091778 1.1533056
0003d0 96 de fa 3f 89 ef e6 3f 7d 96 4c 40 c7 b8 c2 40
       1.9599178 1.804185 3.196685 6.085056
0003e0 7c 0d 30 3f 33 6c 9b 40 6f c9 be 40 4c 5d 66 40
       0.68770576 4.856958 5.962089 3.5994444
0003f0 7f 67 a7 3f 63 32 42 40 f9 3c 3c 40 eb 27 50 40
       1.307846 3.0343254 2.9412215 3.2524364

linear.weight f4 [1, 18750]
000000 a7 fc 48 d3 5d 69 28 54 08 4e 72 54 77 48 37 d3
       -8.6323226e+11 2.8932888e+12 4.162765e+12 -7.871948e+11
000010 84 83 f7 d2 00 88 8a d1 ce 59 0e d4 68 03 ff d4
       -5.315317e+11 -7.43734e+10 -2.445568e+12 -8.7621905e+12
000020 c0 b1 46 d4 9e 56 9f d4 a0 c9 e6 54 07 e5 c5 d4
       -3.4135427e+12 -5.474824e+12 7.9298015e+12 -6.799608e+12
000030 ad b0 e2 52 9a 12 05 55 33 e6 3e d4 47 46 7c d3
       4.8681337e+11 9.144684e+12 -3.2796236e+12 -1.0835108e+12
000040 a9 19 f4 54 ea 7a f9 d4 a2 ce 8f 54 c6 f6 8f 54
       8.38722e+12 -8.572072e+12 4.9411764e+12 4.946564e+12
000050 c8 de d9 50 56 48 6f d3 6d e2 72 53 8d 0d 31 54
       2.9242049e+10 -1.0277108e+12 1.0431809e+12 3.0417462e+12
000060 43 37 d1 d4 6e 57 75 d4 ca ef aa d4 55 c5 8e 54
       -7.1886024e+12 -4.2149353e+12 -5.8733395e+12 4.9055683e+12
000070 ac 55 56 54 9b b9 17 d5 4d 51 a0 d1 e1 6e 03 d4
       3.6822413e+12 -1.0426464e+13 -8.606985e+10 -2.2580038e+12
000080 a2 e8 1f 55 e5 53 ff 54 72 5e 39 51 6c 63 19 55
       1.0988844e+13 8.7729934e+12 4.9759592e+10 1.0540768e+13
000090 1e 38 ef d4 47 e6 05 d5 87 2b 1c 53 89 10 ce d4
       -8.2195094e+12 -9.201505e+12 6.7074517e+11 -7.0803254e+12
0000a0 32 73 f0 53 fe 30 fc d4 a1 50 00 53 1b d1 0e d4
       2.0654496e+12 -8.6652297e+12 5.5110854e+11 -2.4535743e+12
0000b0 a2 ff 1a d3 66 21 94 54 48 d1 f7 d4 01 94 f0 d4
       -6.657138e+11 5.089724e+12 -8.5149446e+12 -8.266202e+12
0000c0 e0 e7 9a d4 85 77 2c d4 80 44 58 d4 5a 28 d2 d4
       -5.3225214e+12 -2.9629583e+12 -3.7154487e+12 -7.220961e+12
0000d0 1e c3 d8 54 12 d6 1a 55 7a af 95 d4 9e 57 f2 54
       7.4478917e+12 1.0640263e+13 -5.143153e+12 8.3268165e+12
0000e0 4a 36 c1 53 4a 45 08 55 a5 85 67 d3 96 40 eb d4
       1.659679e+12 9.364448e+12 -9.943796e+11 -8.083207e+12
0000f0 6c 32 20 52 7f 0d 7f d3 05 ab 0e 55 7a 53 a0 54
       1.7201018e+11 -1.0954431e+12 9.804073e+12 5.508762e+12
000100 b5 5f 9f d2 b3 c3 1d d5 31 3e 85 d4 c5 85 d9 54
       -3.4225275e+11 -1.084149e+13 -4.5781924e+12 7.4740175e+12
000110 58 16 1a d4 35 0b 9c 51 d0 47 01 d4 52 5f e4 d1
       -2.6471993e+12 8.3775365e+10 -2.2210224e+12 -1.2260647e+11
000120 30 3b 95 54 04 9a 11 d4 60 d2 1b 53 02 28 0f 55
       5.127545e+12 -2.5014168e+12 6.6924944e+11 9.837625e+12
000130 93 52 cd 54 5d e6 a9 53 6c 63 90 54 c7 93 6a 54
       7.0548293e+12 1.4594287e+12 4.9611465e+12 4.0300066e+12
000140 a7 3d 58 53 30 f6 c0 d3 a9 ce 5e 53 a5 d0 fb 54
       9.287473e+11 -1.6575281e+12 9.569499e+11 8.652298e+12
000150 16 bb f1 cf 95 02 c6 d2 e5 5f 5d 54 82 db 30 d3
       -8.11114e+09 -4.2522342e+11 3.8031865e+12 -7.59597e+11
000160 e3 74 0e 55 1a eb 16 d4 d8 8f d8 d3 c0 c8 03 d3
       9.789542e+12 -2.5927578e+12 -1.8602525e+12 -5.6600874e+11
000170 54 d2 27 54 a4 f0 13 55 df b3 d5 d4 03 09 ad d3
       2.883153e+12 1.016636e+13 -7.342766e+12 -1.4863611e+12
000180 1a a3 ad 54 f9 7b d2 d2 e9 ff ae d4 af 07 1c d5
       5.966126e+12 -4.5201152e+11 -6.012942e+12 -1.0722301e+13
000190 57 ad 96 d4 16 68 bc 53 86 45 fa 54 ba 5a c8 d4
       -5.177226e+12 1.6184002e+12 8.599266e+12 -6.884125e+12
0001a0 93 63 ba d0 8b a4 33 d1 ed 6f 0b 55 2b 38 17 d5
       -2.5016703e+10 -4.8222482e+10 9.582052e+12 -1.0391718e+13
0001b0 b2 ce f0 d3 41 75 08 55 a2 b7 16 d5 fa 55 df 54
       -2.0685198e+12 9.377324e+12 -1.0357215e+13 7.673761e+12
0001c0 47 63 d0 d4 fe 52 21 55 e6 e1 05 54 bb 26 cb 51
       -7.1601504e+12 1.1086114e+13 2.3000824e+12 1.0906602e+11
0001d0 8c 68 c4 53 22 26 17 55 bd 56 86 54 1e 88 0b 55
       1.6871352e+12 1.0386877e+13 4.615847e+12 9.588546e+12
0001e0 18 c4 a2 d4 2f 0d 8c 54 0b c1 19 55 67 99 be d1
       -5.592597e+12 4.812133e+12 1.05659e+13 -1.0232718e+11
0001f0 09 51 e2 d4 30 12 fa d4 09 6b a0 d3 31 23 97 54
       -7.776177e+12 -8.5923757e+12 -1.377981e+12 5.193044e+12
000200 49 4e 09 d4 74 4e b9 d4 ae ab 50 53 29 75 5c 54
       -2.3588957e+12 -6.3670814e+12 8.962335e+11 3.7874337e+12
000210 fc 03 13 d5 b1 29 8c 53 4a 44 0b d5 95 07 d0 d3
       -1.0102833e+13 1.2039898e+12 -9.570338e+12 -1.7869608e+12
000220 b5 1b d7 54 75 42 32 d4 d1 54 ac 54 a9 77 4d d4
       7.3910625e+12 -3.0624766e+12 5.921259e+12 -3.5299034e+12
000230 69 ab 86 54 c5 0d 1f 55 e3 6d 84 53 e6 9b af 53
       4.627211e+12 1.0930093e+13 1.1375586e+12 1.5084696e+12
000240 56 45 1a d5 de 2d 9f d4 78 2d b9 d2 89 32 d6 54
       -1.0601412e+13 -5.4693546e+12 -3.976659e+11 7.3597667e+12
000250 3d c1 9c d4 52 da b8 d2 dd 6f 07 53 3f 2a a0 54
       -5.386055e+12 -3.969684e+11 5.8169734e+11 5.5032283e+12
000260 20 fe 08 d5 8d b1 2c d3 c1 3e a3 54 db 40 27 54
       -9.414065e+12 -7.417132e+11 5.60906e+12 2.8733905e+12
000270 56 1a 1c d3 ff af e5 54 dc 58 36 54 a9 ea b3 d3
       -6.7045674e+11 7.892002e+12 3.1326994e+12 -1.5454722e+12
000280 50 01 09 d1 e3 3a 5e d3 7b ea 1a 55 5a 73 f8 54
       -3.6777034e+10 -9.544707e+11 1.0645742e+13 8.5366973e+12
000290 2f 90 c0 53 ea c8 84 54 df d1 0a d4 a7 8a 09 53
       1.6541054e+12 4.5624517e+12 -2.3849062e+12 5.907367e+11
0002a0 2e 8a 80 53 37 33 36 52 7b 89 5c d3 d6 4a d7 54
       1.1041482e+12 1.9563582e+11 -9.4719934e+11 7.397388e+12
0002b0 5a e6 05 d5 29 a3 1f d5 dd b9 e5 d4 25 d7 67 d4
       -9.201525e+12 -1.0970195e+13 -7.893326e+12 -3.982988e+12
0002c0 89 40 d9 53 f4 df 08 54 1d ba 1b d5 00 32 43 54
       1.8661812e+12 2.3514914e+12 -1.0701478e+13 3.35343e+12
0002d0 94 92 22 55 9b f7 a6 52 f0 2e 05 54 34 6c 04 54
       1.1171902e+13 3.5855935e+11 2.2880725e+12 2.275004e+12
0002e0 bc 87 d0 d3 95 31 1f d4 41 25 86 54 0d 9e ca d4
       -1.7912609e+12 -2.7349266e+12 4.609205e+12 -6.9618804e+12
0002f0 a8 cf a5 54 83 3c e7 d4 9a 2e 15 d5 5c 38 1c d5
       5.697228e+12 -7.9452213e+12 -1.0251712e+13 -1.0735367e+13
000300 e3 c2 05 d5 e3 01 17 55 93 68 5d d4 3c 65 20 53
       -9.192005e+12 1.0377147e+13 -3.803769e+12 6.888932e+11
000310 fb 05 19 d5 c5 06 0c 55 65 6d 79 54 fb bd d0 54
       -1.0515685e+13 9.622544e+12 4.2851288e+12 7.1723243e+12
000320 b9 58 ea d1 0f 9e e3 52 70 9b 00 d4 f4 dc 16 53
       -1.2581386e+11 4.8880468e+11 -2.2094545e+12 6.479521e+11
000330 25 e1 18 54 a8 7d 89 d3 26 7d bb d4 1f 66 a1 d4
       2.6264493e+12 -1.1810374e+12 -6.442068e+12 -5.5456243e+12
000340 d8 f1 00 d5 e2 7a 94 54 3f 03 aa 54 8b d9 79 53
       -8.861012e+12 5.1017343e+12 5.841591e+12 1.0730966e+12
000350 37 44 20 d5 e1 36 e4 d4 9b 6a 8c d4 49 40 f4 54
       -1.1013428e+13 -7.841386e+12 -4.8246717e+12 8.3924044e+12
000360 33 91 c1 d4 08 c9 35 d4 d6 9c cb d2 c8 e6 0e d5
       -6.650918e+12 -3.1230473e+12 -4.372548e+11 -9.820116e+12
000370 29 53 ca d1 73 29 16 d5 0a 87 39 53 6e a9 e6 d4
       -1.0862232e+11 -1.0319048e+13 7.968345e+11 -7.9254803e+12
000380 08 26 76 d4 4e b6 14 55 55 e4 3d 54 9f 7e 73 d3
       -4.2288e+12 1.021942e+13 3.2623184e+12 -1.0458014e+12
000390 b3 4f 16 55 57 97 ee d4 03 f3 f4 54 85 49 00 d5
       1.0329316e+13 -8.19793e+12 8.4163926e+12 -8.815828e+12
0003a0 b8 f2 08 d3 38 e2 85 d4 53 b0 73 54 e6 96 0f d5
       -5.881877e+11 -4.600208e+12 4.186541e+12 -9.867392e+12
0003b0 a0 80 e3 d4 f8 47 1b d2 65 b0 6b d3 12 22 1b 55
       -7.8169244e+12 -1.6673184e+11 -1.0122767e+12 1.0660665e+13
0003c0 f5 38 22 53 c0 a8 87 53 86 0c 47 d3 93 84 81 d3
       6.967403e+11 1.1653035e+12 -8.549086e+11 -1.11255e+12
0003d0 fc 5f 85 54 3c f2 24 54 b5 25 63 54 7b 4d 18 53
       4.582728e+12 2.8337546e+12 3.9023608e+12 6.5413494e+11
0003e0 b7 53 9e d3 a6 be 25 d4 53 9c 19 d5 42 69 13 55
       -1.3600187e+12 -2.8474726e+12 -1.0556043e+13 1.0130018e+13
0003f0 2c 9c c9 52 ff 6c f7 54 b2 c9 1f 55 97 6a 21 55
       4.3295428e+11 8.5014846e+12 1.0980539e+13 1.1092448e+13
