results/SNGP_FINAL_RESULTS/SNGP/SNGP_R1000_LS0.25_OS2.75_1000CrazySin/model.pt (torch, 13830 bytes, 3 tensors)

feature_weight f4 [1000, 1]
00000000: b897 c9bf 318f babf e6fc 3fbe 96e6 50bc
00000010: bf13 453e 5027 51be 0534 bc3e a3a0 d33f
00000020: 21e5 be3e d8f9 db3d c137 f0bf 2d5f 66bf
00000030: 596d e8bd b454 9c3f 3c27 403f ca4c 84bd
00000040: 2a46 3cbf fa3e 883e e506 043f d926 9b3f
00000050: 9b0a cc3f edf0 e73f ca1d 10c0 3740 1c40
00000060: e0bd 94be 27e5 62bf 6fc6 5ebf 7b41 9fbe
00000070: 0924 96bf e7e7 983f 6f4e 0cbf 58cf 1abf
00000080: 0980 3abe f539 a43e 5c52 60bf 1af4 cabf
00000090: aaab f0bf 779b d9be 97ed 4c3e ee6c 81bf
000000a0: 36db d73e d939 b23f ba45 94bf 9f9a f93f
000000b0: 739d 873f 85cb 5dbe 9148 e83d 32be cbbf
000000c0: 3b1e be3f 367f a3bf b972 323f 7525 48bd
000000d0: 1ee5 b1bf effc 2e3e 609e 1f3f 244f 64be
000000e0: 8231 703f b160 bc3e d41b a2bf 0234 183e
000000f0: ee20 48bf 53e4 1c3f e030 373e eb0b 05bf
00000100: a2b8 adbd b58e 9dbf 3712 d8bf da8b b7bf
00000110: 77c5 0ac0 59e3 b13f ad3d 91bf 0c49 b1bf
00000120: 6f88 27c0 7806 abbe 117c 04bf 6798 463d
00000130: 8ccd 363f d8c4 933f a208 3b3e bb31 c83f
00000140: 12c0 ddbc fac2 90be 9340 d33f 94e3 b8bf
00000150: e921 bbbf 711a 5c3f 3411 1d3f 2f5e fcbe
00000160: e819 1ebf 7e09 823f 6311 88be c5f4 febe
00000170: 8b04 d3bf 33a1 343f 6d1e c8bf c42a e7bf
00000180: 397b 813f c1ff b73d 1057 8fbf 5c1f 61bf
00000190: b39b bfbd 14b4 803d 7c12 88bf 66fb eebf
000001a0: 3975 0740 172e 1240 18f6 08bf 0c13 d23e
000001b0: 44f6 5a3f be23 d03e f1c6 3f3d c922 4bbf
000001c0: 0f9b 3cbf 749c 22c0 527f 473f f7ff a4bf
000001d0: 118f 003d cf3f 683e 695c 9fbf 99dd 983f
000001e0: afa4 fb3e 3b3b 8cbe 0c56 cbbf 85a8 21bf
000001f0: 1fc5 473d a4ee 8c3f 33fa 493f 48a2 94bf
00000200: 71ad 2b3f b2bb 90bd 7322 3a3f 1dc3 d43f
00000210: 8a52 afbd c6a3 b1be d6aa 3c3f 0ee7 3fbf
00000220: 49bc e8be 9e61 1bbf f174 0f3e 1421 ecbd
00000230: cd89 be3e 90e7 e6bf c85e d83f 7c52 41bc
00000240: 7228 a3bf 24dc d3bf 28ba 3bbf fac1 7abe
00000250: 0b68 2fbf d972 9c3e 3462 bc3f f4ee f33e
00000260: 1646 e9bd 5995 e13e 4786 6f3e 5591 b1bf
00000270: 7a7e 0e3e 69ab 3b3d 2616 0e3f 101b 3ebf
00000280: 8e1b a33f fa55 b83f 58c3 a83d e983 01c0
00000290: 04f9 15c0 7761 ddbf 58ea 783e e001 683f
000002a0: e016 1b3f ac76 03c0 a53b 8abf 79e0 e13e
000002b0: cb1f 66bf a7ef a0be 85f0 8c3f 3053 1840
000002c0: fd18 27bf 13f8 73be da62 ad3f ca4e 4b3f
000002d0: 5c54 51bf 3b4f d5be 9e62 603f a22d 833f
000002e0: 0670 a9be 80cf 3abf b77c 6bbf 918e 7abf
000002f0: 5ba3 97be f85e 363f d352 7abe 3658 afbd
00000300: 9924 a9bf 24b1 80bf f4fe c03e 810a babe
00000310: 4f4b f2bf 7bec 42bf d2ff 083e 6a84 333f
00000320: 2d0d 333f b725 d1be 5a82 0b3f 0069 d7be
00000330: 58ca e2be 8125 2ebf 7e93 6abf a2ac 83bf
00000340: 2033 70bf af43 ac3f b24e 963f 3322 12bf
00000350: 43c1 3a3f 0388 6f3e 08d5 933c 442d dd3e
00000360: 9556 b4be 3ace 2fbf f66b 18bd 41a3 adbe
00000370: 9eba 5c3d a4a1 283b 5fb4 3fbf db8a 2fbe
00000380: 665c 893f f27d 0b3e 1df4 873f fdad b33f
00000390: fe80 7b3f 2082 9d3f 10eb 863f ba14 4b3f
000003a0: edb2 153f 2298 cc3d a810 2fbe 17f1 a03f
000003b0: 9246 f2be aa95 cdbf c9fe b3be 3512 0fbf
000003c0: dbd0 793c 9f3e 64be 09ab e43c 761d 9e3d
000003d0: 5c57 b03f a10d 09bf fb9b f33e c74a c6bf
000003e0: 68db d7bf 7598 6c3f 94c3 893f eb9e 8bbe
000003f0: afc5 213f 1376 a1bf a044 943f da95 853e
-1.5749426 -1.4574949 -0.18748817 -0.0127502885 0.19245814 -0.20425153 0.36758438 1.6533397
0.37284186 0.10741013 -1.8767015 -0.89988977 -0.113489814 1.2213349 0.75059867 -0.06459959
-0.7354456 0.26610547 0.5157302 1.212123 1.5940737 1.81204 -2.2518182 2.4414194
-0.29051113 -0.8863091 -0.87021536 -0.31104645 -1.1729747 1.1945771 -0.5480718 -0.6047263
-0.18212904 0.32075468 -0.8762567 -1.5855744 -1.8802388 -0.42501423 0.20012508 -1.0111368
0.42159432 1.3923904 -1.1583779 1.9500312 1.0594925 -0.21659668 0.11341966 -1.5917418
1.4852976 -1.2773197 0.697063 -0.048863847 -1.3898046 0.17088674 0.62351036 -0.22295815
0.9382554 0.3679252 -1.2664742 0.1486359 -0.78175247 0.61285895 0.17889738 -0.5197131
-0.084824815 -1.2309176 -1.6880559 -1.4339554 -2.1683023 1.3897506 -1.1346947 -1.3850417
-2.6177022 -0.33403373 -0.5175181 0.048485186 0.7140739 1.1544447 0.18265012 1.5640177
-0.027069125 -0.28273755 1.6504081 -1.4444451 -1.4619724 0.85977846 0.61354375 -0.49290606
-0.6175828 1.0159147 -0.26575765 -0.4979612 -1.6485761 0.7055847 -1.5634285 -1.8059926
1.011573 0.08984328 -1.1198444 -0.87938476 -0.09355869 0.06284347 -1.0630641 -1.8670471
2.1165297 2.284063 -0.5350051 0.41030157 0.8553202 0.4065227 0.046820585 -0.7934995
-0.736741 -2.5407991 0.7792865 -1.2890614 0.03138644 0.22680591 -1.2450076 1.1942626
0.4914908 -0.2738894 -1.5885634 -0.63147765 0.048771974 1.1010327 0.788974 -1.1612024
0.67061526 -0.0706705 0.72708815 1.6622044 -0.08560665 -0.34695262 0.73698175 -0.74961936
-0.4545615 -0.60695827 0.14009453 -0.11529747 0.3721451 -1.8039417 1.6903925 -0.011799451
-1.2746718 -1.6551557 -0.73330927 -0.24488059 -0.6851813 0.30556372 1.4717469 0.47643244
-0.11390321 0.44059256 0.23391066 -1.3872477 0.13915434 0.045817766 0.55502546 -0.74260044
1.2742784 1.4401238 0.08240384 -2.0236762 -2.3433237 -1.7295369 0.24308145 0.9062786
0.6058178 -2.0541182 -1.0799452 0.44116572 -0.8989226 -0.3143284 1.1010901 2.3800774
-0.65272504 -0.23825102 1.3545792 0.794171 -0.8176935 -0.4166201 0.8765048 1.0248301
-0.3309328 -0.7297287 -0.91987175 -0.9787379 -0.29616818 0.7123866 -0.24445657 -0.08561747
-1.3214294 -1.0054059 0.37694514 -0.3633614 -1.8929232 -0.7614209 0.13378838 0.7012392
0.6994198 -0.40849087 0.54495776 -0.42072296 -0.44295 -0.68025976 -0.91631305 -1.0287058
-0.9382801 1.3458155 1.1742766 -0.57083434 0.72951144 0.23391728 0.018045917 0.43198597
-0.35222307 -0.6867405 -0.037212335 -0.33913615 0.05388891 0.002573111 -0.748846 -0.17142813
1.0731323 0.13622263 1.0621372 1.4037472 0.982437 1.2305336 1.0540485 0.793285
0.58476144 0.099899545 -0.17096198 1.2573575 -0.47319466 -1.6061299 -0.35155323 -0.55887157
0.015247549 -0.22289513 0.027913587 0.07720463 1.377666 -0.5353642 0.4757994 -1.549157
-1.6863832 0.9242013 1.0762811 -0.27269682 0.63192266 -1.2614158 1.1583443 0.2609089

feature_bias f4 [1000]
00000000: d333 8c3f 77e8 c640 a4c1 153d 33be 0840
00000010: 436e 4d3e 1025 9f40 5645 b53f 910e bf40
00000020: 598a f03f f3c9 0640 54c8 313f f720 9a40
00000030: a128 2b3f 3899 6d40 9aaa 3640 03b5 6e40
00000040: 25f3 943f 67fc 6640 941d fb3e 6d07 003f
00000050: 86a5 8440 4800 9840 c3bb c23f e4cf 093f
00000060: 0b28 9540 8d30 6740 d188 b33f ee34 ee3f
00000070: 1d23 7740 7315 ad40 d67d 8340 eb0d b040
00000080: 2199 a140 cf66 0640 4b8e d53e bb31 7640
00000090: 3504 a440 88b6 ad40 8d3b 783f 3be7 a63d
000000a0: 5ae9 c540 6f6a 5f40 cdc0 1b3f 4d69 9a40
000000b0: af70 a440 93c9 6740 77a8 3940 e43e ae40
000000c0: 67be 9740 26dc b640 97d4 1340 85dc fc3e
000000d0: c218 d73e a4f0 ad3f 4b2f 173f 4899 a640
000000e0: b787 903e d9f1 053f 1c40 4e3f e16c 953f
000000f0: f347 5540 12dc 8140 6082 bf40 1b03 1c40
00000100: dd56 af40 64e7 9940 a00a 5540 154a 3a40
00000110: e4c2 e23f ccd3 1b3f ff5a 7040 cee5 1e40
00000120: 858c 6640 8769 c740 bee8 a440 f492 1540
00000130: f787 c240 0213 9c40 8bfd bb40 09cc af40
00000140: 7d4e 5e40 abd1 ef3f caac c53f 1951 be40
00000150: 7067 133e 9112 b140 e4c1 3940 776c 3840
00000160: 2f86 c340 12b3 6340 1344 c240 7d3e c13f
00000170: b96d 5940 a5d0 9b3f 5497 ae40 47bd 9740
00000180: 4eb4 fd3e 608c 6740 0ac2 3840 2eca 0540
00000190: f25c a340 0253 9940 aff6 af3f fe9a cc3e
000001a0: 6a3f 6c3f 6ae4 0940 4773 4140 ac25 2f40
000001b0: 1c9f d33f b1be 8240 dcf9 c340 f7bf 9c40
000001c0: 35b4 c440 8c5f 7e40 6e13 9d40 aa6e a640
000001d0: 8d8b 8040 9f53 e23f e480 1a40 c78d 3b40
000001e0: 56a5 5d40 9af0 8c40 d61b c140 e3fc 623f
000001f0: a999 2a3f c19f 3440 138b f53f fdcf b23f
00000200: bb5e 0740 dd88 a63f 91df c140 508f 9940
00000210: bfb3 ba40 34f8 ae40 b206 a540 75d9 bd40
00000220: 8295 903e e5e7 bb40 0c81 6c3f 08fd c43f
00000230: 1aec b240 d347 1740 1591 9640 a9f1 a340
00000240: e007 d43f b9a9 e33f 1d67 1f40 59e0 9e40
00000250: aed9 b340 605c 0140 265f 953f c179 c540
00000260: ac47 9340 bc68 9240 42a7 a63f fe45 8540
00000270: 8554 7940 7556 3740 94f1 223e c5e9 4040
00000280: 5081 ef3f a8bb 6040 321f 313f 8bde c840
00000290: 0f1b 0540 8c3d 353f 3619 7c40 efc6 5840
000002a0: f09f 2a40 5700 cc3f c386 a740 c50e 8b40
000002b0: e90f 1c40 2b5a e43f 1a15 7040 423d bf3f
000002c0: 4ae3 8040 d507 8e40 abc3 9740 4914 9540
000002d0: 2a33 bc40 1bd3 4540 9cec ab40 1a44 c140
000002e0: 93fb 9540 0e06 1d3e 2111 3340 3f9d 7640
000002f0: adfa 233f a5b5 6f40 28be 0040 801e e73f
00000300: 80ab 2b40 4d14 883f 12d3 bb3f 2544 7a40
00000310: 895a e73f 0f79 d83f f42b 023e 2f74 cb3f
00000320: 56c5 733f e1ed 8040 35a2 273f 9f7f 1340
00000330: 0f5b 2b40 2c09 7340 646a 1c40 076e 7340
00000340: fdfc a63f f29b bf3f 4f4e 0e40 fdc8 dd3f
00000350: 6b3d c03f 65a5 0a3f a820 a83e db78 9640
00000360: 47f6 6340 d287 c840 1838 8140 8cca 303f
00000370: 39fd e73f a8b2 8c3e 407e 2940 30f0 8640
00000380: 2e62 9e3f b7cf 0c3e 489d 4940 a0c6 df3f
00000390: 1f1d c340 77cf be40 76cb 9040 8df3 5b3d
000003a0: 1403 ba40 aa51 c240 872d c740 105f a640
000003b0: 8296 913f 3b3b 3440 a311 4140 2da6 7f3f
000003c0: 1163 8b40 d8d0 7140 0769 6b3f 6f6f 9d40
000003d0: 770b 9340 ce64 c640 959f 9840 9f83 7c3f
000003e0: 98b7 9f40 8e57 fd3f 2a07 613f defc af40
000003f0: 6108 9440 6b6a 5240 4091 2c3f 6601 0d40
1.0953315 6.215877 0.036561623 2.1366088 0.20061593 4.973274 1.4161785 5.970528
1.879222 2.106076 0.694463 4.816524 0.6685887 3.7124767 2.8541627 3.729798
1.1636702 3.6091554 0.49046004 0.5001133 4.1452055 4.7500343 1.521355 0.5383284
4.661138 3.6123383 1.4026128 1.8609903 3.8615181 5.4088683 4.109111 5.501699
5.0499425 2.100025 0.41710123 3.8467853 5.1255136 5.4285316 0.9696587 0.081495725
6.1847353 3.4908712 0.60841066 4.825354 5.1387553 3.621678 2.9009073 5.445177
4.7419925 5.7143736 2.3098505 0.49386993 0.42011076 1.3589063 0.5905654 5.206211
0.28228542 0.52322155 0.80566573 1.1673852 3.3325164 4.058114 5.984665 2.4376895
5.4793534 4.809496 3.3287735 2.9107716 1.7715726 0.6087005 3.755554 2.4827762
3.6023266 6.2316318 5.153411 2.3370943 6.0790973 4.8773203 5.8747 5.4936566
3.4735405 1.873586 1.5443356 5.9473996 0.14394927 5.5335164 2.9024591 2.8816202
6.11013 3.5578046 6.07081 1.5097195 3.397322 1.2173048 5.4559727 4.741855
0.49551624 3.6179428 2.8868432 2.090465 5.105096 4.791383 1.3747157 0.39962
0.9228426 2.1545663 3.022661 2.7366743 1.6532931 4.0857778 6.1242504 4.898433
6.146998 3.9745817 4.908622 5.201009 4.017035 1.7681769 2.4141169 2.9305284
3.4632163 4.4043703 6.034648 0.88667125 0.66640717 2.8222506 1.9183067 1.3969723
2.115157 1.3010517 6.058541 4.798744 5.8344417 5.467798 5.1570673 5.932795
0.28239065 5.8720574 0.9238441 1.5389719 5.591321 2.3637588 4.70521 5.1232495
1.6564903 1.778617 2.4906685 4.964886 5.620322 2.0212631 1.1669662 6.1711125
4.602499 4.575285 1.3019793 4.164794 3.8957837 2.864652 0.15912467 3.0142682
1.8711338 3.5114536 0.69188225 6.277166 2.0797765 0.7079704 3.9390388 3.387142
2.6660118 1.5937604 5.2352004 4.345553 2.438471 1.7840017 3.751288 1.4940569
4.0277452 4.438456 4.7426353 4.658726 5.8812456 3.0910099 5.372633 6.039563
4.6869597 0.15334341 2.7979205 3.8533475 0.64054376 3.7454617 2.0116062 1.8056183
2.6823425 1.0631195 1.4673789 3.9104092 1.8074504 1.6911944 0.1271208 1.5894831
0.95222986 4.029038 0.65481883 2.3046644 2.6774328 3.7974348 2.4439936 3.8035905
1.3045956 1.4969466 2.2235296 1.7326962 1.5018743 0.5415862 0.32837415 4.702253
3.5619066 6.2665796 4.0380974 0.6905906 1.8124152 0.27480054 2.6483307 4.21682
1.2373712 0.13751112 3.1502247 1.748249 6.097305 5.9628253 4.5248365 0.053699065
5.8128757 6.0724688 6.2243075 5.1991043 1.1374056 2.8161151 3.0167015 0.9986294
4.355843 3.7783718 0.91957134 4.9198527 4.5951495 6.1998053 4.76948 0.9863834
4.9911613 1.9792345 0.87901556 5.4996176 4.626023 3.2877452 0.67409134 2.2032104

linear.weight f4 [1, 1000]
00000000: 6efa e4bd 0580 163d a5b1 efbc 9cee c4bb
00000010: 06f2 ff3b 2840 3abb 6454 203c a277 7ebe
00000020: c5c8 43bd ee6c 753c 2328 19be 5b32 143b
00000030: b384 12ba 0d22 a7bb d341 c73a 8908 bcbb
00000040: 8c63 b53c a35e 8e3c 2e76 363c 0314 a63b
00000050: 03bb 7ebc 8617 003e eb39 ab3d 07ee e6be
00000060: 542d 01bd 9b81 20bd 6ba7 9c3b 9f64 8aba
00000070: 6e64 6b3d a36e 10bd b183 3a3c 252b a6b8
00000080: 3d78 203d 497b c4bc cc18 b43c d351 f53d
00000090: 1102 76be eac0 1fbd 7678 1f3c 2e27 04bd
000000a0: 11b6 a1bc ed16 e1bc 1050 1fbd 7044 7b3d
000000b0: 2887 0dbd 7e0c a9bc cdc2 41bc b109 2cbd
000000c0: 1203 fcbc f346 c3bb 9ae4 e93b 538a e7bc
000000d0: b5cc 7a3d 3abe 543d 6a6a bc3b af2f 8b37
000000e0: 911e ed3b 315a 4bbc ada1 e03b b90d c63c
000000f0: 4d1e 0c3c 4df5 3e3c e040 fdbc fc45 e03b
00000100: 0afa 0bbc f42b d8bc b44a 6e3e d903 0dbc
00000110: 7410 72be 5a7b 2d3c df9f 813d cb45 7ebb
00000120: 051c aebe ba01 293c 0fa7 03bc 9912 613c
00000130: d256 a9bb 5481 19bb a40b 8ebc 3e18 aabd
00000140: 0ea8 a33c b718 063d bda6 063d d1c2 743b
00000150: 1d5a 093d cb6c 693d f554 17bc f88b 123c
00000160: 0d0b cbbc 0941 c9bb 42b3 863c f775 85bc
00000170: 487d 4b3e 776d 3c3c 3f2f 9b3b d847 18be
00000180: 0f17 253c 85d2 9c3c a6f1 563c f3dd 5c3b
00000190: bef2 223c 2aaf 523b 13b5 39bd 7763 8cbe
000001a0: b05a 473e 3b0a 71be f058 ba3c 9d54 d5bb
000001b0: 4c60 eabc 06c8 933c b847 253c ffd4 07bd
000001c0: f4d8 0abd 3528 5fbf c978 943a cd35 13bd
000001d0: 5038 183b c575 2cbc 6985 853b 7606 313d
000001e0: 166f 68bc 6d7e eebb 683c debd 7687 92bc
000001f0: 878f ab3c 4fad e23c c329 72bb d29d 6ebd
00000200: 51f3 d83c 43e4 88bc 6c41 a73c 374c a3bd
00000210: 86f9 20bc a82b 15bd 6320 933c f011 96bc
00000220: e258 8dba 4334 26bc 7f72 c23c 89b3 9cbb
00000230: 69e4 193d be98 a83e b55e 03bd 2aa2 4bbc
00000240: 3f1c 073d 939b fd3c a785 2ebc c0a6 5a3c
00000250: 0f53 ef3c f267 bebb 3bcd 0c3d f527 c43c
00000260: 1565 f13b fe40 dfba 0e8b 103b 8448 93bd
00000270: 34c0 523c bed4 a03c e104 d5bc b93d 80bb
00000280: 0a83 44bd 6742 0abd 934c 093d 5697 f3bd
00000290: 0059 e43e 8536 74be 3a82 04bd 94f5 b2bc
000002a0: 6a0f f03c 1c82 d0bd b84c d03c 6a77 fcba
000002b0: 7f12 f03c cddc 253d 5ba2 3fbc 974e 43bf
000002c0: 7eea ca3c 8dcd 48ba 8ebc 6d3c 1963 163d
000002d0: d51b 21bb c24f c53c 11c2 223d f396 0c3c
000002e0: 31b0 223c c51d 063c 0bec cebc fb31 833c
000002f0: 89d2 dc3b 28ac 8b3c 2703 b6bb 3da5 64bb
00000300: affb 2fbc 1515 623c df9b 48bb 43e6 5cbc
00000310: adea 483e 536b 133c b44e af3b 47ab 283b
00000320: 89f3 233c 64e3 9939 86eb 143d 3c05 a8bc
00000330: d237 debc b756 423b 4103 9a3b 692f 9d3b
00000340: a6ca cc3b 0068 8abd 03cd 893c cea5 5fbc
00000350: 578a d53c 52c7 e53b 64df 0d3c 7e24 69bc
00000360: 5ec2 c7bc 0dfa d33c b59b 97bc 09f4 8f3c
00000370: 93f8 533c 7d5d 043d 786d df3c 7fb7 273b
00000380: 7036 9c3c 60c1 66bc 2d97 d73b 9e4b 75bd
00000390: 3d9f a33c 8ef9 19bd e0e3 1fbc 0623 fabc
000003a0: 688a 1fbd f407 0cbd 9018 8dbc 3b32 d43c
000003b0: adc9 f73b 060e dd3d eacc b63c fc33 0fbd
000003c0: 6f27 90bc e018 74bc a10b fe3c 2d74 fa3b
000003d0: 0001 223d 574d a6bc 6f4b 953b 0aaf b3bd
000003e0: d15d 85bd 5354 94bc 6c96 343c 3924 e03b
000003f0: 2d5f 12bb d04d 6cbb 3a08 973b 6b2c e73c
-0.11180578 0.036743183 -0.029259512 -0.0060098898 0.007810834 -0.0028419588 0.009785745 -0.24850324
-0.04779889 0.014979584 -0.14956717 0.0022613022 -0.0005589232 -0.0051004947 0.0015202112 -0.005738322
0.022142194 0.01737911 0.011136575 0.0050683036 -0.015547517 0.12508973 0.08360656 -0.45103475
-0.03153737 -0.0391861 0.0047807 -0.0010558552 0.057468824 -0.03526176 0.011383937 -7.923533e-05
0.03917717 -0.023984568 0.02198448 0.11978497 -0.24024226 -0.039002337 0.00973331 -0.032263927
-0.019740136 -0.027476752 -0.038894713 0.061344564 -0.034552723 -0.02063584 -0.011826229 -0.04200143
-0.030763183 -0.0059593855 0.007137847 -0.0282642 0.06123038 0.051939227 0.00574999 1.6592296e-05
0.00723631 -0.01241164 0.0068552108 0.024176465 0.008552146 0.011655164 -0.030914724 0.0068442803
-0.008543501 -0.026388146 0.23270684 -0.008606874 -0.23639089 0.010588491 0.06329321 -0.0038798924
-0.34005752 0.010315353 -0.008035435 0.013737344 -0.0051678205 -0.0023423033 -0.017339535 -0.08305405
0.019977596 0.032738414 0.032873858 0.0037347565 0.033533204 0.05698852 -0.009236564 0.008944504
-0.024785543 -0.006141786 0.016442899 -0.016291602 0.1987201 0.011500708 0.004735857 -0.14871156
0.010076298 0.019143352 0.013119137 0.0033701628 0.00994557 0.0032147863 -0.0453387 -0.27419636
0.19468188 -0.23539059 0.022747487 -0.006510331 -0.028610371 0.018039715 0.0100879 -0.033162113
-0.03389831 -0.87170726 0.0011327501 -0.03593998 0.0023226924 -0.010526125 0.0040747416 0.043219052
-0.014186641 -0.0072782547 -0.10851365 -0.017886858 0.020942463 0.02767053 -0.0036951161 -0.058255978
0.02648321 -0.016710406 0.020416938 -0.07973521 -0.009825116 -0.036418587 0.01795978 -0.0183191
-0.0010783935 -0.010144296 0.023736237 -0.0047821444 0.037571345 0.32929033 -0.03207274 -0.0124288
0.032985922 0.030957973 -0.010651982 0.01334542 0.02921441 -0.005810731 0.03437541 0.023944834
0.0073667862 -0.0017032919 0.002205554 -0.07191566 0.012863208 0.019632693 -0.026003303 -0.003913608
-0.04797653 -0.033754732 0.033520292 -0.118940994 0.44599152 -0.23848923 -0.032350756 -0.021845616
0.029304225 -0.101810664 0.025427207 -0.0019261662 0.029305695 0.040493775 -0.011696423 -0.76291794
0.024770018 -0.0007660024 0.014510287 0.0367156 -0.002458324 0.024085883 0.039735857 0.008580911
0.009929703 0.008185809 -0.025259038 0.016015043 0.006738965 0.017049864 -0.005554575 -0.0034888529
-0.010741158 0.013798972 -0.0030610485 -0.013482633 0.19620772 0.008997756 0.0053499583 0.0025736855
0.010006794 0.00029351853 0.036357425 -0.020510308 -0.027126227 0.0029653737 0.004700095 0.0047969115
0.0062497435 -0.06758118 0.01682139 -0.013650371 0.026066942 0.007012286 0.0086592175 -0.014229892
-0.024384674 0.02587607 -0.018506864 0.01757242 0.012937683 0.03231572 0.027273878 0.002559155
0.019068927 -0.01408419 0.006579301 -0.059886567 0.019973392 -0.03759151 -0.0097589195 -0.030534279
-0.038950354 -0.034187272 -0.017223626 0.025902858 0.0075618834 0.107936904 0.022314508 -0.034961686
-0.017596928 -0.014898509 0.031011404 0.0076432438 0.039551735 -0.02030055 0.0045561115 -0.087736204
-0.06512035 -0.018106615 0.0110221915 0.0068402556 -0.0022334561 -0.0036057122 0.004609135 0.028219422
