results/SNGP_FINAL_RESULTS/SNGP/SNGP_R1000_LS1.25_OS1.75_1000Sin/model.pt (torch, 13830 bytes, 3 tensors)

feature_weight f4 [1000, 1]
00000000: 4551 2ebf 7164 ecbf b355 493f 2094 f7be
00000010: 1e45 87bf 06e4 fe3f 6819 093f 7437 583e
00000020: 4069 1d3f 66b8 7f3f fc5d 663f 61ae 583f
00000030: 8141 37bf 8ae7 b33f fc82 4e40 aea2 65bf
00000040: 4ecf e23e bcbc 743e 55de 993e 382b cf3d
00000050: f430 14bf 0b9b e63d 5bb4 683e 1a39 36bf
00000060: 8147 90be 326f e0be 4a8d 76bf b793 2040
00000070: 6a03 afbc e9b0 b63f 8d07 5e3f 926c 99bf
00000080: ccda 62be 5847 913d e28e 9dbf 0159 97bf
00000090: 71c5 4abe 7e82 df3e 5262 0040 5289 c3be
000000a0: 5679 223f 8664 39bd b392 543f 49b6 30bf
000000b0: 9087 2ebf 7efd a6bf 523a fe3e 1ae4 a7be
000000c0: c77f fdbf c7b9 4e3f 6f20 cc3e c21d 9abf
000000d0: 72f6 8cbe 83ce c5be ec1a f0bd c444 2ebc
000000e0: e96c 05bf bc81 a8bf 064a cdbd 1e2d 823f
000000f0: 9a1f c43e e72b c9bf ae3f 29bf ec0c 293e
00000100: 7085 853f d396 e63f 2135 83bf 14b2 293e
00000110: ceed 8a3e 1bf7 b2be 0c1f 70bf e17c 403f
00000120: e0ec 803e 3eea d83e c4a2 ed3e c365 0f3f
00000130: 9ca8 41c0 deed 49be 06da 17c0 644d a03c
00000140: 6b2f 853f 9eea 71be ca6c d73e 9f89 cb3f
00000150: 2546 823f 8ae0 803f d2ae d03f bdc1 febf
00000160: 84ab 803f 163a cbbd 7252 3f3f bcb2 d83f
00000170: f65a d8bf 7e2d a6bf dca2 ea3e cbab 7b3f
00000180: fe00 ed3d 8f6f 2a3f df1b 0ebf 9b79 eb3e
00000190: e6ee e1be 9ac3 f6bd 96dc 983f caa8 9cbe
000001a0: ddd1 1240 78a5 bd3e 91d7 d4be 8b34 373e
000001b0: 2f27 1fbf 8b41 233f 3681 b5bf 5f05 903f
000001c0: 880e 42be 8ec7 823e 38ac 1ebf 2736 93bd
000001d0: 26f8 82bf 04b4 493f c13b 6fbf 4e9e 15bf
000001e0: a261 a3bd 0056 ca3e f9fc c4bb f08b c13f
000001f0: 709a 6d3f 5af9 343f e915 df3e d340 453f
00000200: ca00 a1bf 93a6 533e ee01 9fbf b592 1d3e
00000210: 637a 473f d03b a3be 2b9e 1cbf bf37 2cbf
00000220: 2a1f a73e 988e 6b3f 256d 46be ca1c 223f
00000230: 3250 7fbe 01cc 69bf a3ae 7cbf c82a bf3e
00000240: 870a 0f3f 23e0 93be 1209 61bf 8e4c 033f
00000250: cdaf 7b3f 8e09 683f cf96 0cbf 15f9 7440
00000260: 565d c9bd 1735 563e af31 12bf fb1a 3bbf
00000270: 8797 00c0 f4d1 6a3f b72c 92bf 7522 f73f
00000280: 1b78 ce3b 3a52 13bf 3770 61bf eb43 8b3e
00000290: 685e c0be 29c1 0d3f f534 6d3f f634 16bf
000002a0: 38a1 a9bf 850e 2abf 6f48 1ebf c832 da3e
000002b0: a79d b43e 80ce 32bd cfc1 39bf 7847 003f
000002c0: 7c02 783f 3435 dbbc 9fae cdbe cdcd bd3e
000002d0: 8494 883e 10e6 bf3c 7ba7 af3e cea0 cabf
000002e0: d1ba 463f 3026 77bf b6b3 ac3d 34b6 69bf
000002f0: bc90 7ebf d06c 2e3e 3dfd c0be ae5f 4ebe
00000300: d292 35bf 3790 89bf 8020 8fbe 2e33 cf3e
00000310: c2c4 94be d487 dc3f 5ed4 febf 0984 8cbf
00000320: 6ca5 223f e347 d73f 2200 37be 3817 433f
00000330: 9178 213e 916d 9a3f 2d0c a23e 0120 5cbf
00000340: 3de0 843f 870c 1d40 103b 293f 5554 2cbf
00000350: 7b70 203e 2146 c13d 1401 cc3f 8567 59bf
00000360: 5a71 84bf b81b 6cbf d62c 06c0 3935 4abf
00000370: 10e0 b03d 4517 75bf c8a9 87be 9fbd 23bf
00000380: 9a3d 5ebe 6582 21bf c8ab 77bf 6ba0 67bf
00000390: 2462 fa3f d8bb e7be 2d0a f53d 3848 003f
000003a0: 7fd7 65be bfe5 adbf f037 eb3e b0d5 97be
000003b0: 829f cd3f bc8f 0bbf e37d c5be 40f6 11bf
000003c0: 6fea 223f 4924 843d 6b08 8cbf 62c4 3a40
000003d0: 451a 16bf 3236 1c40 52d6 34bf 1a55 9d3f
000003e0: f4bf 483f c0f6 a0bf cc11 243f 752e 603f
000003f0: e9ef 8b3f 6526 233f bd6c 9dbf ecd7 473f
-0.6809276 -1.8468152 0.7864639 -0.48355198 -1.0567968 1.9913337 0.5355439 0.21114904
0.61488724 0.99890745 0.8998716 0.8464108 -0.71584326 1.4055035 3.2267447 -0.89701355
0.44298786 0.23900121 0.30052438 0.10115665 -0.57887197 0.11260041 0.2272505 -0.7118088
-0.28179553 -0.43834835 -0.9630934 2.5090158 -0.021363933 1.4272739 0.8673027 -1.1986258
-0.22153777 0.07093686 -1.2309229 -1.1824037 -0.1980188 0.43654245 2.006001 -0.38190705
0.63466394 -0.045261882 0.83036345 -0.69028145 -0.681756 -1.304611 0.4965387 -0.32791215
-1.980462 0.80752224 0.39868495 -1.2040331 -0.27531773 -0.38634118 -0.11723885 -0.010636512
-0.5211931 -1.3164592 -0.100238845 1.0170019 0.3830536 -1.5716523 -0.6611279 0.16508836
1.0431347 1.8014778 -1.0250589 0.16571838 0.27134556 -0.34954152 -0.93797374 0.7519055
0.2518072 0.42366213 0.46413243 0.5601465 -3.025916 -0.19719645 -2.372682 0.019568153
1.0405096 -0.23624656 0.42075187 1.5901374 1.0177656 1.0068524 1.6303351 -1.9902874
1.0052342 -0.099231884 0.74735177 1.6929545 -1.6902759 -1.2982633 0.45827377 0.9830901
0.11572455 0.66576475 -0.5551128 0.45991215 -0.44127578 -0.12049027 1.1942317 -0.30597526
2.294059 0.37040305 -0.41570714 0.17891137 -0.62169164 0.63771886 -1.4180057 1.1251639
-0.18950856 0.25542873 -0.61981535 -0.07188063 -1.0231979 0.7879031 -0.9345055 -0.5844468
-0.07977606 0.39518738 -0.006011602 1.512083 0.9281378 0.7069298 0.43571404 0.7705204
-1.2578366 0.20669012 -1.2422464 0.15387996 0.7792112 -0.3188157 -0.61178845 -0.6727256
0.32640964 0.92014456 -0.19377573 0.6332518 -0.24932936 -0.9132691 -0.98703974 0.37337327
0.5587544 -0.2888194 -0.87904465 0.5128869 0.98315126 0.9063958 -0.54917616 3.8277028
-0.098322555 0.2091869 -0.5710706 -0.73088044 -2.0092485 0.91726613 -1.1419896 1.930739
0.006300939 -0.5754734 -0.8806185 0.27200255 -0.37572026 0.55372864 0.9265893 -0.5867456
-1.3252325 -0.66428405 -0.61829275 0.42616868 0.3527653 -0.043653965 -0.72561353 0.5010905
0.9687879 -0.026758768 -0.40172288 0.37071076 0.26675808 0.023425132 0.34307465 -1.5830324
0.7762881 -0.96542645 0.08432715 -0.91293645 -0.994396 0.17033696 -0.37693205 -0.20153686
-0.70927155 -1.0747136 -0.27954483 0.40468735 -0.29056364 1.7228951 -1.9908559 -1.0977794
0.63533664 1.6818813 -0.17871144 0.76207304 0.15768649 1.2064687 0.31649914 -0.85986334
1.0380932 2.4538896 0.6610575 -0.6731618 0.15667908 0.09437204 1.5937829 -0.84923583
-1.0347092 -0.92229795 -2.0964866 -0.7898746 0.086364865 -0.9573863 -0.2649672 -0.63961214
-0.21703187 -0.6308959 -0.9674649 -0.90479153 1.95612 -0.452605 0.119648315 0.501102
-0.22445486 -1.3585738 0.45941114 -0.29655218 1.6064303 -0.54516196 -0.38572606 -0.5701637
0.6363897 0.06452233 -1.0940069 2.9182363 -0.58633834 2.4408078 -0.70639527 1.2291596
0.784179 -1.2575302 0.64089656 0.8757089 1.093259 0.6373046 -1.2298809 0.78063846

feature_bias f4 [1000]
00000000: ae30 a33f 3eaa e83e 1ed5 1b40 74ed 573f
00000010: 24fc 8d40 e460 1d3f c0ea 4940 58d7 613f
00000020: 668f 4240 9203 8640 5105 c140 6ed4 633f
00000030: 4a96 a73f da78 7740 b911 043e 1741 1c3f
00000040: 5414 9e3e b1b7 b73f 40c9 fc3f 7a61 6840
00000050: 0f7b 0a40 00e8 833e 68bc 0240 55ed c340
00000060: 07e7 8440 344f 2440 2ebe 5a3f 4caf 8e3e
00000070: b08a b440 a476 6040 2207 a93f ed82 b140
00000080: 806b 4940 3cde a040 b4f2 b140 4c4a 5e3f
00000090: 254c 0b3f d253 6340 b8ba 2340 da48 bd40
000000a0: 9d18 c040 5e58 aa40 9995 a440 fa83 6b3e
000000b0: 96ea 9640 1fbd 833f f22c 1c40 a626 673d
000000c0: 7ec6 4e40 a43e 9940 094c 1a40 6120 3040
000000d0: 0713 4540 ec9b ab40 b913 0e40 bff1 5f3e
000000e0: 7a9f a53e 4ccb 5e40 e316 6c40 e7fb 5940
000000f0: dea7 cd3f d419 c740 65e0 083f f261 053f
00000100: 2085 0c40 12d3 2c40 353a ef3c 1131 c340
00000110: 8a3b a740 fce1 653e 795b c140 c8bb f53f
00000120: 969c d03f 8e4e ac40 a904 4640 d71e 4d3e
00000130: 255e 6240 70f4 a940 775a 7f40 315a 1740
00000140: 5b95 6640 6459 bd40 8c3c 5340 d932 5340
00000150: 1dfa 0640 a057 a93d 4387 4b40 f647 ac40
00000160: 6065 ab40 8582 2140 9b0e 9940 af4e c040
00000170: e795 5840 3c15 9540 f6c5 9d40 2d98 9240
00000180: 3e85 8540 1631 8040 dfd2 2940 8b70 063d
00000190: c266 c23c c891 3440 f7cb a740 83d5 8c40
000001a0: f0d9 9e40 6eb7 523f ace7 8d3f 5ad6 7240
000001b0: 7702 5f40 960f 5540 5958 6340 129f 953f
000001c0: 2996 c93f 3dd6 373e df8f bf3e 19c0 b340
000001d0: 8ba3 b440 38fb 9040 660a ab40 a5b1 c03f
000001e0: 15e5 353e 928b b53f 296e 0640 815e a440
000001f0: 61f0 0740 94e6 253f 07f5 8a40 a6ef 0040
00000200: 0517 a540 1a3b bb40 0f30 b740 ef4c 7a40
00000210: d67e f43e 283e 933e 9821 9340 db71 1540
00000220: eb06 7540 8e23 9c40 ea46 b740 3117 8b3f
00000230: 3aa8 013f b601 aa3e b895 9940 a777 1640
00000240: 025b 8340 8c69 b33e bb3c 8c40 ba09 3740
00000250: 1947 ba40 f992 633f 77d5 a040 586a e83f
00000260: cac4 7540 89ec 753f 326a 223e 6f40 c440
00000270: c08a 913e 0a17 1d3e 7e8b b240 848c 4440
00000280: 4225 9f40 3a8a 8f40 ddb1 b640 b401 4c40
00000290: bf52 8b40 c0a1 0140 0864 0b40 e4e5 eb3f
000002a0: c6f5 9440 374c 963e 707e 3b40 70eb 9c40
000002b0: c269 9b40 6e36 993f f91e 2c40 0b49 bd40
000002c0: 8397 6b40 d7f4 6f3f d8ea 1340 c870 5f40
000002d0: 902f 6540 9885 be40 aad2 2e40 dde3 e53f
000002e0: 284d b640 eff9 bd40 a6aa 3f40 f1e7 913f
000002f0: 6228 c640 e53d 9640 9845 ba40 619f 9b40
00000300: c464 c740 3b94 bb40 3655 2640 67b6 b840
00000310: f906 bf40 f6d2 2440 789e 9140 c0ee 7840
00000320: 32c9 2840 55ee 8040 06e9 1440 2768 6e40
00000330: 253d bb3f 3b0f a940 1aa3 a640 e2ae be40
00000340: 2674 8d40 34a0 1440 755f 9040 44b1 3c40
00000350: a887 0740 d79f 3640 8363 4540 6d7d 7840
00000360: 7f38 a840 ee1b a440 342a da3f 8088 9640
00000370: 49c6 2b40 8759 6f40 21e6 1240 7bb7 843f
00000380: 4b4c e53f 5553 1a40 5661 793f 60cf 8b40
00000390: 0c12 5640 e0ea 9c40 45eb 1240 d567 a640
000003a0: 3ad2 a040 0748 7a40 1bd0 0d40 17dc 8740
000003b0: dc69 7b3f ecac 3e40 519f db3d 9530 2940
000003c0: 57bf 8040 b72a 333f 6c0f 433e 73a5 8840
000003d0: 602e ac40 28b5 613f 4876 c440 3ed5 c73f
000003e0: 2a1d dc3f bec8 6340 a714 a540 2633 3640
000003f0: 3f2a f03f 4279 9a40 fe0b c13f 6614 3c40
1.2749231 0.45442384 2.4348826 0.843467 4.437029 0.6147597 3.154953 0.88219213
3.0400023 4.187936 6.031899 0.88996017 1.309274 3.8667512 0.12897386 0.6103682
0.30874884 1.4352933 1.9748917 3.6309495 2.163761 0.2576294 2.0427494 6.122721
4.1532016 2.5673342 0.8544644 0.27868116 5.6419296 3.5072412 1.3205302 5.547232
3.1471863 5.027128 5.560877 0.8683212 0.5441306 3.551991 2.5582714 5.915143
6.0030046 5.323287 5.1432614 0.22999564 4.716136 1.029209 2.4402432 0.056433342
3.230865 4.7888966 2.4108908 2.7519763 3.0792863 5.3627834 2.2199538 0.21869563
0.32348233 3.4811583 3.688897 3.406 1.6066854 6.221903 0.534674 0.5210258
2.1956253 2.7003827 0.02920256 6.0997396 5.226018 0.22449487 6.042416 1.9197931
1.6297786 5.384589 3.0940344 0.20031296 3.5369961 5.3110886 3.9898965 2.3648798
3.602866 5.917162 3.3005705 3.2999785 2.1090157 0.08268666 3.1801307 5.3837843
5.356125 2.5235913 4.783033 6.009605 3.3841493 4.658842 4.930415 4.581076
4.172515 4.005992 2.6534956 0.032822173 0.02373064 2.8213978 5.243648 4.4010634
4.9641037 0.8231114 1.1086326 3.794333 3.4845254 3.3290763 3.5522673 1.168917
1.574895 0.17952819 0.37414452 5.6171994 5.6449637 4.5306664 5.3450193 1.5054213
0.17763169 1.4183218 2.1004736 5.136536 2.1240466 0.6480496 4.3424106 2.014627
5.15906 5.8509645 5.7246165 3.9109457 0.47753018 0.2875836 4.597851 2.3350742
3.8285472 4.87934 5.7274065 1.0866452 0.5064732 0.3320443 4.799526 2.351053
4.1048594 0.35041463 4.3824134 2.8599687 5.821179 0.8889614 5.0260577 1.8157454
3.840136 0.9606405 0.15860823 6.1328654 0.2842617 0.1534082 5.579528 3.0710764
4.973298 4.4856234 5.709212 3.187604 4.353851 2.0254974 2.1779804 1.8429532
4.6550016 0.29355022 2.9295921 4.90374 4.85666 1.1969736 2.6893904 5.9151664
3.6811225 0.9373297 2.3112087 3.4912586 3.581028 5.953808 2.731608 1.7960163
5.6969185 5.9367595 2.9947906 1.1398908 6.1924295 4.6950555 5.8209953 4.8632054
6.2310505 5.8618445 2.5989509 5.772266 5.969601 2.575376 4.5505943 3.8895721
2.63728 4.0290933 2.3267226 3.725107 1.4628035 5.283109 5.20741 5.958848
4.4204283 2.322278 4.5116525 2.9483194 2.1176548 2.8535058 3.0841987 3.8826554
5.2568965 5.1284094 1.7044129 4.7041626 2.6839774 3.7398393 2.295296 1.0368494
1.7913908 2.4113362 0.9741415 4.3690643 3.3448515 4.9036713 2.2956097 5.200175
5.0256624 3.9106462 2.2158267 4.2456164 0.98208404 2.9793043 0.107237466 2.6435902
4.023357 0.6998705 0.19048852 4.2701964 5.380661 0.8816705 6.1394386 1.5611951
1.71964 3.5591273 5.158771 2.8468719 1.8762892 4.827302 1.5081785 2.938745

linear.weight f4 [1, 1000]
00000000: 3a29 1cbc b5b5 1ebd 3ab5 223d 7425 4ebd
00000010: 65ff 403c 6697 79be 8a57 00bb 34b9 173c
00000020: 34a1 bd3c 1d5e aabc 031f 15bd 839f 31bb
00000030: 5bf1 bebc d307 b63d 527e a83d c652 9abc
00000040: 8d6f c93c 2b8d 283d 201a 9aba 5a5f f33b
00000050: d72a f3bb 2dc4 73bc bb6c 943c 560c 12bd
00000060: 1543 7b3b 54c4 98bc a500 3cbd f8af 41be
00000070: 0e5e f8bc 6c87 9e3d 94b2 1a3d 2bf3 38bb
00000080: a64c d43c e032 ac3c 6154 acbc c39b 1cbd
00000090: 9685 a63a a4ab ebbc d5b9 87bd 1e3f 65bc
000000a0: e7f6 dcbc e6d3 8e3c 0552 58bd aef0 f1bc
000000b0: ebf4 fc3c 0da3 c8bc ced9 533d b6ee 16bd
000000c0: 10d6 b13d ac5e 6cbb dc5d 633c b5f7 063d
000000d0: f119 ceb9 78a1 b23c 62c4 df3c 12d3 13bd
000000e0: 2068 25bd efd0 283d fdb4 683c 72d7 023d
000000f0: 62ae 9c3c effd 9cbd 886e 0bbd 53d5 ff3b
00000100: 957f 083d 4252 bf3c 58fd b4bb 78c8 92bb
00000110: 005a 2abd 66ff b1bc 0fe4 1fbd d269 2a3d
00000120: 8e21 56bb 3230 b8bc 3434 9c39 cd0c 84bc
00000130: f0b8 9fbe ccaf a53c 6bf9 93be 05d4 77bc
00000140: 419e 9f3c a387 9a3c 2510 243c cbbc a43d
00000150: c418 fa3c b5da ebbc bcf4 e53d 3f99 89be
00000160: 0bb5 81bd b2c0 e43c 42cf adbc e179 0abd
00000170: 7c62 c63d 3a78 d0bc a59d 8cbc bb2c 2bbd
00000180: 9a73 a038 67aa 673c 9f5b 0cbc 4970 223b
00000190: 76fd 713a 20e4 70bc a9bf 9ebb 9c67 1f3d
000001a0: 9e61 b33e af0d ab3c c867 9cbb 5c4b 013b
000001b0: bb91 c93c 9927 ef3c c4ea 9e3c 43c9 5ebc
000001c0: d53c 48bc 0312 36bc 3bbd debb 6607 97bc
000001d0: 4edb a9bc 83fd 0cbd aaa4 773c f476 12bc
000001e0: 10f0 653c 916a b83b 1a6f 493c dd82 c13c
000001f0: 7a56 4a3c 656a a1bb 6d3e 09bd 2bd0 213d
00000200: ed7b f3bc e1c3 6ebb 5456 51bd 0dd6 aabc
00000210: 6a91 91bc a8b4 b73b 4d01 5d3d 549e 9a3b
00000220: 20b5 04bd fb9d 70bd 8a74 b4bc 6778 483b
00000230: 54ac 60bc 9e04 33bc f024 4f3c 9651 503c
00000240: ffa9 b6bc 04ad 9b3c e0bc 543d d3d4 c83c
00000250: c7e4 ddbc 2063 ce3c 2001 c13a 444c cdbe
00000260: a97a ad3c 895f 073d 0aeb 883c 909d d13b
00000270: b889 f7bc 73e8 113b 48f9 94bc 4b8a b53d
00000280: 17c6 c13c 194b d43c 2200 9ebc 6d06 233b
00000290: 09aa 98bb d5ed f33c 0257 b23b 1ba2 a63b
000002a0: 59b4 f1bc ee22 2bbd e8e8 77bc 16f3 48bd
000002b0: c223 2bbd b34f 163c 51f6 87bc fdb2 353c
000002c0: b47d a93c c9a5 b8bc a37e a6bb a0a9 de3c
000002d0: 11c2 9c3c 9830 1ebd e08a e03c 91c7 f83d
000002e0: 46b0 6ebc 10d6 823c de98 bdbb 94d8 79bc
000002f0: 1a7d dfbc 7687 bcba c9ef 933c 0447 75bc
00000300: e59a 5fbc 6896 52bd abb4 a43b e985 653c
00000310: 8474 0cbc 4ab4 a43c 9ecb 82be 4562 bd3c
00000320: 8560 193d d2c1 0a3e d156 4e3c ef3b cf3c
00000330: 5292 d63c 1876 a03b c6df 01bd fbaa 123b
00000340: 35af 0d3c b32a a4be aaa7 29bd 6068 a63c
00000350: 5f1f 753c aae6 083d fd3b bb3d a7da 333c
00000360: 2222 f93c c1df 863c 9eaf 973e 9e8c df3c
00000370: e7dd 853c 8ebf 303d 3350 65ba 53a1 06bc
00000380: 55d2 043c 3111 1f3c cb33 2bbd 135f 2b3d
00000390: 8e06 393e 4ed8 3a3d 61ff 173d 5cc7 06bd
000003a0: 3c53 8a3a 5d87 373d 5531 7f3c f643 ec3c
000003b0: 1e63 10be 2846 c43c 96c3 0cbd d27b 913c
000003c0: 8538 06bd 37e2 213b 219a 66bd 2ecc 053f
000003d0: 8a80 023b 1504 e1be 20f0 ca3b 8157 f13c
000003e0: 8b61 693d d6a7 123d 8d14 29bd d2a9 1f3d
000003f0: b92a b3b9 a522 1dbd 344e cfbc 20d8 a63c
-0.009531314 -0.038747508 0.039723612 -0.050328687 0.011779641 -0.2437416 -0.0019583427 0.009260464
0.023148157 -0.02079683 -0.03640653 -0.0027103133 -0.023308447 0.08888211 0.08227219 -0.018838298
0.024589324 0.041150253 -0.0011757053 0.0074271383 -0.0074208784 -0.014878315 0.018118253 -0.035656296
0.0038339545 -0.018648304 -0.045899052 -0.18914783 -0.030318286 0.077406734 0.03776796 -0.0028221111
0.025915455 0.021020353 -0.021036329 -0.038234483 0.0012704607 -0.028768368 -0.066272415 -0.013992099
-0.026973201 0.017435025 -0.052812595 -0.02953371 0.030878505 -0.024491811 0.051721387 -0.036848746
0.08683407 -0.003606717 0.013877358 0.032951076 -0.0003931071 0.02180551 0.027315322 -0.036089964
-0.040382504 0.04121488 0.014203307 0.031943746 0.019126121 -0.076656215 -0.034040958 0.0078074127
0.033324797 0.023354653 -0.005523365 -0.004479464 -0.041589737 -0.021728229 -0.039035853 0.041604824
-0.0032673809 -0.022483919 0.00029793533 -0.016119385 -0.31195784 0.020225428 -0.28901228 -0.015126233
0.019484641 0.018863505 0.010013615 0.08043822 0.030529387 -0.028790811 0.1122832 -0.2687473
-0.06333359 0.027923916 -0.021216992 -0.03380764 0.09686753 -0.025447953 -0.017165015 -0.041790705
7.650927e-05 0.014139748 -0.008566766 0.0024786165 0.0009231189 -0.014702827 -0.004844625 0.03891717
0.35035414 0.020880548 -0.004773114 0.0019728756 0.024605623 0.029193686 0.019399054 -0.013597789
-0.012221535 -0.011112693 -0.0067974604 -0.018436145 -0.020734455 -0.034421455 0.015114943 -0.008939493
0.014034286 0.005627938 0.012294555 0.02362197 0.012349719 -0.0049260133 -0.0335068 0.039505165
-0.029722178 -0.003643267 -0.05110772 -0.02085402 -0.017769534 0.0056062527 0.05395632 0.004718581
-0.032399297 -0.058744412 -0.022028226 0.0030589344 -0.013712961 -0.010926394 0.012643084 0.012714764
-0.022297857 0.019003399 0.051937938 0.024515545 -0.027086629 0.02519375 0.0014725067 -0.4009725
0.021176653 0.033050094 0.016713638 0.0063969567 -0.030217037 0.0022263795 -0.018185273 0.08864268
0.023654027 0.025914716 -0.019287173 0.0024875656 -0.0046589416 0.029776493 0.005442501 0.0050852424
-0.029504942 -0.04178136 -0.015131213 -0.04905995 -0.04178215 0.009174275 -0.016596945 0.011090037
0.020689823 -0.02253999 -0.0050810142 0.027180493 0.019135507 -0.03862056 0.02740997 0.12147439
-0.014568394 0.015971214 -0.0057860455 -0.01524939 -0.027281333 -0.0014383632 0.018058674 -0.014970545
-0.01364777 -0.05141297 0.00502642 0.014008977 -0.008572701 0.0201055 -0.25545973 0.023118148
0.037445564 0.13550499 0.012593941 0.025297133 0.026192818 0.0048968904 -0.031707548 0.0022379744
0.00864773 -0.32063827 -0.041419663 0.020313442 0.014961093 0.033423103 0.09142301 0.010977424
0.030411784 0.016464116 0.29626173 0.027288731 0.016341163 0.04315143 -0.00087476074 -0.008217174
0.008106788 0.009708689 -0.04179744 0.041838717 0.18068907 0.04561644 0.037108783 -0.032904968
0.001055337 0.044806827 0.0155757265 0.028841 -0.1410031 0.023959234 -0.034366213 0.017759237
-0.032768745 0.0024701485 -0.056299333 0.5226468 0.001991304 -0.43948427 0.006193176 0.02946067
0.05697779 0.035804592 -0.041279364 0.038980313 -0.0003417337 -0.038363118 -0.025305845 0.020366728
