results/primary_sngp/SNGP/SNGP_R18750_LS1.23_OS1.81_25000Sin/model.pt (torch, 226339 bytes, 3 tensors)

feature_weight f4 [18750, 1]
000000 71 53 53 bf 2a 4b e9 be 37 fc 82 be 5e cd a2 3f
       -0.82549196 -0.45565158 -0.2558305 1.2718923
000010 94 8a 27 40 5c f2 82 bf 1d 52 7e be 30 e0 06 3f
       2.6178331 -1.0230212 -0.24836011 0.5268583
000020 b3 df 10 bf 89 17 f0 be e7 85 05 bf 82 68 5f 3f
       -0.5659134 -0.46892956 -0.52157444 0.8726884
000030 d6 43 61 3e 3e 8a 53 3f 31 28 2c bf ee b7 7e bf
       0.21998534 0.82632816 -0.6724883 -0.99499404
000040 b9 02 b7 3f a7 2d 8a bf b2 0e 48 be 29 2d 9d 3f
       1.4297706 -1.0795182 -0.19536856 1.2279407
000050 52 98 73 be 6a f2 4b be 55 cb ef be 6f 5f 32 be
       -0.23788574 -0.19916692 -0.46834818 -0.17419218
000060 de bd aa 3f ca c9 95 3e 75 04 5a 3f 08 53 10 3d
       1.3339193 0.29255515 0.8516305 0.035235435
000070 0f 23 06 bf 68 9c 96 be e3 1b b7 be e4 7d a4 3e
       -0.52397245 -0.29416203 -0.35763463 0.32127297
000080 99 72 b1 bf d2 1c b8 bd e8 1d 76 bf d5 f6 08 40
       -1.3863097 -0.08989872 -0.96139383 2.1400654
000090 70 5c 1d 3f 63 0a 26 40 fa 24 0d bf 29 ef ba 3f
       0.61469173 2.594384 -0.55134547 1.4604236
0000a0 16 40 a4 3f 3f 03 b4 3f d1 a2 36 bf 98 5d 1a c0
       1.2832057 1.4063491 -0.7134219 -2.4119625
0000b0 24 4a 6d 3f ab 78 6e 3f a9 6b 56 3f c8 58 0a be
       0.92691255 0.93152875 0.83758026 -0.1351043
0000c0 25 b6 c8 3e 37 12 17 bd e8 75 ae 3d 8b e1 7f be
       0.39201465 -0.036882605 0.085185826 -0.24988382
0000d0 75 80 54 3e 16 2c 76 bf 78 f7 05 3f fa 5e ee 3e
       0.20752127 -0.9616102 0.5233073 0.46556836
0000e0 f6 88 55 3f 2c ca 59 bf 1c e4 31 3e d6 fb 0e bf
       0.8341211 -0.85074115 0.17372173 -0.5585302
0000f0 81 93 1a bf 85 7d 64 3f f7 44 a6 3f 1b fd de be
       -0.60381323 0.8925403 1.2989796 -0.4355248
000100 ce 8d 4f bf e6 f2 a1 be aa 6d 61 bf 33 1f 77 3f
       -0.8107575 -0.3163063 -0.8805796 0.9653198
000110 7d ed ae 3f ca c1 a1 bf 39 9b f7 3f 8c 3d b4 3f
       1.3666226 -1.2637265 1.9344245 1.4081283
000120 ee 8e 8d bd 03 8f 1b bc 1a 8c 0f bf e5 ca 0f bf
       -0.06912027 -0.009494546 -0.56073153 -0.5616897
000130 e3 e6 a2 be 4a ba 08 3f 56 69 0a 40 cd 35 80 3f
       -0.31816778 0.53409255 2.1626792 1.0016419
000140 1c 6d cf 3f 2d 53 58 3f 16 af 31 3f cc 5d 08 3f
       1.6205173 0.84501916 0.69407785 0.5326812
000150 32 c9 7c be 18 c1 80 3f f5 f5 96 3e 5c 25 22 bf
       -0.24686125 1.0058928 0.29484525 -0.63338256
000160 04 ff 9d bf 4c 5f b7 bf f4 e2 da 3f f6 38 33 3f
       -1.234345 -1.4325957 1.7100511 0.7000879
000170 8b ed 20 bf d1 5b 50 be a9 41 e1 be 26 cc 69 3f
       -0.6286246 -0.20347525 -0.43995407 0.9132713
000180 04 0b cd bf 66 65 02 c0 39 98 4c bd 2f d2 42 be
       -1.6018987 -2.0374389 -0.04994986 -0.19025491
000190 80 d3 88 bf b6 e9 bb 3c 1d 6f 80 bf fb a4 7d 3c
       -1.0689545 0.02293859 -1.0033909 0.015481229
0001a0 46 31 4e 3f a7 99 d3 be f1 e8 56 3e 21 f5 ee 3e
       0.80543935 -0.41328165 0.20987298 0.46671394
0001b0 f5 58 6a bf ff 03 88 be 74 c6 7b bf 2d 48 19 bf
       -0.9154199 -0.2656555 -0.9834969 -0.59875757
0001c0 65 a2 df 3e 50 be dd 3e 9b a2 c9 bf 45 93 af 3e
       0.43678585 0.4330926 -1.5752748 0.34292045
0001d0 5a d1 9a be d4 35 72 bf 66 cb 16 3f 6f bc 4c be
       -0.30237848 -0.94613385 0.5890411 -0.19993757
0001e0 58 ea 26 bf 36 ab 9d 3f b2 67 dc 3e 62 b6 77 3e
       -0.6520133 1.2317874 0.43047863 0.24190667
0001f0 53 7d c5 bd 41 5c a5 3f bc 64 ec be dc 1d 51 3f
       -0.09643044 1.2918779 -0.46170604 0.81686187
000200 70 ff e2 be 11 f8 c6 3d 29 6a 40 bf 4f c0 18 c0
       -0.44335508 0.09715284 -0.7516199 -2.3867376
000210 c7 3c f4 3d 10 19 a8 3f c6 9a 77 3e bc fb 7a bf
       0.11925655 1.3132648 0.24180135 -0.98040366
000220 01 cd cb bf 7b 4a ed be 79 95 b5 bd 7a b3 bc bf
       -1.5921937 -0.46345887 -0.088664 -1.4742272
000230 5e 17 4f bf b7 21 90 3f 9a 7b a1 bf f2 de 3e 3f
       -0.8089503 1.1260289 -1.2615845 0.7455894
000240 da 3d 60 bf 16 76 b5 3e 2e 1e b0 be e0 11 73 3f
       -0.8759438 0.35441655 -0.34398025 0.9494915
000250 2d a1 0e 3f 7c 47 22 3f bf a7 a3 3f f9 0b fb bf
       0.55714685 0.63390326 1.2785567 -1.9613029
000260 0d ed bc 3f 57 94 98 bd 88 79 bf be c6 d0 ef bf
       1.4759842 -0.074501686 -0.37397408 -1.8735588
000270 c2 57 2e 3f 7f c0 df 3e eb c8 3b bf ca 2b 0d 3f
       0.6810266 0.4370155 -0.7335345 0.5514494
000280 3f 75 d9 bd 82 57 f0 3e 1e 78 d3 be ac 06 ab bc
       -0.10618066 0.46941763 -0.4130258 -0.020877205
000290 31 23 e5 3e ca 07 3c bf 6d 9b 2d 3f 15 74 30 bf
       0.4475341 -0.73449385 0.67815286 -0.6892713
0002a0 3b 87 51 bf 5a e7 5d 3f de d3 5b bf f5 c0 a4 3e
       -0.8184697 0.8668114 -0.8587016 0.32178465
0002b0 30 10 89 bd ad 4b 87 bf 86 af a2 3f ac 42 fd 3e
       -0.06692541 -1.056997 1.2709816 0.4946493
0002c0 50 e9 83 3f db ff 81 3f b6 ab bb bf bf 40 34 c0
       1.0305576 1.0156206 -1.4661777 -2.8164518
0002d0 6b 73 57 bf a7 15 23 bf 58 8b 15 40 79 e7 9e bf
       -0.8416049 -0.63704914 2.3366299 -1.241439
0002e0 40 81 00 40 e5 df 32 bf a4 55 b4 3e e5 74 07 3f
       2.0078888 -0.69872886 0.3522159 0.5291274
0002f0 dd a0 c0 3f 72 6d 10 3f 13 9e bf bf ae 52 5d 3e
       1.5049092 0.56417 -1.4970115 0.21613571
000300 6e c6 2a c0 2f 2f 20 40 e1 0d 01 3f 94 8d ad bd
       -2.6683612 2.5028799 0.504118 -0.084742695
000310 e4 86 3e bf c6 99 91 3f 07 67 af be 66 9d fe bd
       -0.74424577 1.1375053 -0.3425829 -0.12432365
000320 85 73 c1 3e e8 1b e8 bd fb b3 0d 3d c0 4c bf 3f
       0.37783447 -0.11333448 0.03459547 1.4945297
000330 7c ad 6a 3f 13 34 9a bf c8 0b b6 3f 66 c5 4a bd
       0.91670966 -1.2047142 1.4222345 -0.04950466
000340 5a b5 63 bf 74 49 d3 3f 47 93 69 3e aa fc 5e bf
       -0.88948596 1.6506791 0.22810088 -0.87104285
000350 d3 73 19 bf 1b ef 2b 40 7e 4a 98 be 69 b0 c8 3f
       -0.5994236 2.6864688 -0.29744333 1.5678836
000360 66 a8 00 3f 9c 0f 9d 3f 41 28 57 3f 1a 77 e8 3d
       0.50256956 1.2270389 0.840458 0.11350842
000370 c4 a8 f0 3e 37 75 2e 3f 61 48 aa 3e b4 6c a8 3c
       0.47003758 0.68147606 0.33258346 0.020559646
000380 83 2e 4b 3f f2 d7 63 be e5 f9 fd 3d ce 1e 86 bf
       0.79367846 -0.22250345 0.12401179 -1.0478151
000390 04 95 1f 3e 51 2d 69 3f de 78 4c 3f d7 9b c9 bf
       0.15584189 0.9108477 0.7987193 -1.5750684
0003a0 06 0e 33 bf d1 ef a7 be 16 d1 a8 bf ad 0c 71 3d
       -0.69943273 -0.32800153 -1.3188808 0.05884998
0003b0 21 6e 03 be 5f 51 28 3f 9c f1 aa 3f f3 9c 9a bf
       -0.1283498 0.6574916 1.3354983 -1.2079147
0003c0 a0 95 13 3f 76 4e 3e 3f f1 49 37 be 78 de 8a be
       0.57650185 0.7433847 -0.178993 -0.27122855
0003d0 e9 3b 04 40 ec b5 a9 3f 27 6a d3 be 42 d9 2e bf
       2.0661566 1.3258643 -0.41291925 -0.6830026
0003e0 b7 fa 80 bf f2 e2 07 bf d2 78 8e bf a3 b1 14 3f
       -1.0076512 -0.53080666 -1.1130621 0.5808355
0003f0 2f 96 ac bd b9 3f a1 3f 0b 58 34 3f f3 cf 87 3e
       -0.08427083 1.2597572 0.7044684 0.2652584

feature_bias f4 [18750]
000000 c0 e7 7f 40 9f 9f c1 40 95 0d 75 3e f7 94 ad 40
       3.99852 6.050735 0.23930962 5.424434
000010 0c ce d6 3e 8c b8 5a 40 6b 9d 0e 40 0b fe b2 40
       0.41954076 3.4175138 2.228358 5.593511
000020 70 3a 9c 40 c9 36 57 40 7e 91 b8 3f 07 a4 ad 3f
       4.8821335 3.3627188 1.4419401 1.3565682
000030 b2 b4 c8 40 7d 8f 09 40 50 48 34 40 8f 9b ee 3f
       6.2720575 2.1493828 2.8169136 1.8641223
000040 59 24 b8 3f df 9d 0d 40 2e 39 c8 40 6e 8e 19 40
       1.4386092 2.2127607 6.25698 2.3993182
000050 ad 6f de 3f 05 2c 5d 40 34 ad 93 40 71 41 90 40
       1.7377831 3.4558117 4.614893 4.5079885
000060 cc 1c af 3f fe 31 5a 40 dc 9e 43 40 2e c2 b7 40
       1.3680663 3.4093013 3.056571 5.7424536
000070 f0 85 95 40 d7 72 49 40 97 7f 7c 40 e3 d2 8b 40
       4.6726 3.1476343 3.9452875 4.369493
000080 20 ac 45 40 76 fc 0b 40 04 33 4b 40 ea 26 ea 3e
       3.0886307 2.187284 3.1749887 0.45732814
000090 00 1b 1b 40 eb 1d c1 40 be ca 87 3f 47 d5 6f 3f
       2.423523 6.034902 1.0608747 0.9368481
0000a0 7a 99 89 40 83 ed b1 3f c2 1a 2e 40 90 4f 67 3f
       4.299985 1.3900608 2.7203832 0.9035578
0000b0 32 8e 16 40 fb ae 9a 40 fd da c4 40 9c b3 44 3f
       2.352429 4.83386 6.151732 0.7683656
0000c0 00 00 bd 3f c0 5a 80 40 96 d9 6a 40 ff a4 52 3f
       1.4765625 4.011078 3.6695304 0.82283014
0000d0 fd 3c ba 40 e9 af 8a 40 81 59 07 40 7c c6 32 40
       5.819945 4.3339734 2.114838 2.7933645
0000e0 0d 4c 9e 40 ef 0b a4 40 41 92 a7 40 52 00 83 40
       4.9467835 5.1264567 5.2366033 4.093789
0000f0 b5 29 35 40 c9 0a 4d 3f 10 01 0c 40 9b 1c b5 3f
       2.8306706 0.8009458 2.1875648 1.4149355
000100 76 18 bb 40 c1 90 3f 3e 6e ac 8b 40 d8 b4 32 40
       5.846736 0.18707563 4.3647985 2.7922878
000110 a2 18 b1 3f 81 1b a4 40 e6 59 3f 40 fe 46 57 40
       1.3835642 5.1283574 2.989862 3.363708
000120 78 86 4f 40 cb cd e0 3f 80 ca 10 3f 17 a4 12 40
       3.2425823 1.7562803 0.5655899 2.2912652
000130 11 54 d2 3f 2f a0 ae 40 7d 29 fd 3e e8 9e 07 40
       1.6431905 5.4570537 0.49445716 2.1190739
000140 84 82 ca 3f 35 18 09 3f d5 18 95 40 3b cf bd 40
       1.582108 0.5355256 4.6592813 5.9315467
000150 61 c3 9f 40 87 a2 a0 3f bb 6e 9f 40 3d 22 32 40
       4.9926 1.25496 4.982267 2.7833397
000160 06 3e 24 3f e9 11 bf 3e f8 7c f3 3f d2 62 68 40
       0.6415714 0.37318352 1.9022512 3.6310315
000170 bb 01 f2 3f 81 30 76 40 80 19 1a 40 a9 ef a5 3f
       1.8906778 3.8467104 2.4078064 1.2963763
000180 47 3f 85 40 d7 42 16 40 99 fd 3a 40 3c 10 a6 40
       4.1639743 2.3478296 2.9217284 5.1894817
000190 4d f8 4e 40 6e a7 85 3f 2f 10 a1 40 d9 69 91 40
       3.233905 1.044172 5.0332255 4.544171
0001a0 84 65 b9 3e ed 7a ad 40 a7 37 69 40 5d e1 b1 40
       0.36210263 5.4212556 3.6440217 5.55876
0001b0 b2 a8 62 40 7d ef 38 40 48 6c 74 3e a1 69 a0 40
       3.5415463 2.8896172 0.23869431 5.012894
0001c0 d8 ba 5f 3f 7a 2c 54 40 09 b0 9d 40 d0 1a 4e 40
       0.87394476 3.3152146 4.9277387 3.2203865
0001d0 3b 99 a2 40 cc 10 68 40 fb 1b 98 3f 3e ac 7e 40
       5.081205 3.6260252 1.1883539 3.9792628
0001e0 ff 2e 4f 40 91 02 4a 3f 19 e5 70 40 60 f4 b9 40
       3.2372434 0.78910166 3.763983 5.811081
0001f0 af bc 53 40 5e ad 1b 40 08 b6 a2 40 e9 35 4d 40
       3.3083913 2.4324565 5.0847206 3.2064154
000200 fa a6 b7 40 1c 30 44 40 30 a5 8c 40 73 bb bc 40
       5.739133 3.0654364 4.3951645 5.897882
000210 ba 7b ce 3f 28 17 c3 40 3b 36 ff 3f 14 92 97 40
       1.6131508 6.0965767 1.9938425 4.736582
000220 5a 4b ee 3e 8d 15 9c 3f 21 29 8c 40 5d f9 a4 40
       0.46541864 1.2194077 4.3800206 5.15544
000230 07 d0 64 3f 61 38 39 3f a6 a1 85 40 2d 59 0c 40
       0.89379925 0.7235165 4.1759825 2.1929429
000240 c2 ae 72 40 e6 ae 98 40 5f 54 a1 40 2a 31 a1 40
       3.7919164 4.77135 5.041549 5.0372515
000250 df d0 a1 3f 28 2a 92 40 fd b0 00 40 eb eb 40 40
       1.2641867 4.567646 2.0108025 3.0143993
000260 dc 10 44 3f 0f e9 8e 40 61 45 8e 40 e6 f4 84 40
       0.76588225 4.4659495 4.445969 4.154895
000270 0b bd 60 3f f5 bc 26 40 35 cf 82 3f c3 1d ae 40
       0.87788457 2.605283 1.0219485 5.441133
000280 bd 0a c9 40 83 55 c3 40 76 1f 93 40 60 e1 46 40
       6.282561 6.1041884 4.5975904 3.1075058
000290 c1 43 2a 40 b5 7a de 3f 94 88 4b 40 e3 29 97 40
       2.6603854 1.7381197 3.180211 4.723863
0002a0 cf d0 3a 40 6a f8 4b 3f 1a 21 46 40 1b 74 b5 3f
       2.9189947 0.79675925 3.0957704 1.4176058
0002b0 5c 07 13 40 17 21 9a 3f d6 46 b9 40 b9 90 30 3f
       2.2973242 1.2041348 5.789897 0.6897083
0002c0 ed b1 42 40 31 6f 91 40 43 e8 c7 40 77 7b 56 40
       3.0421097 4.544823 6.2471023 3.3512857
0002d0 93 9a ac 40 4d 1f 16 40 95 6a 02 40 6f 09 79 40
       5.393869 2.3456604 2.0377553 3.8912008
0002e0 0e f6 5b 40 73 85 47 40 0f 99 63 40 4a 71 e4 3e
       3.436893 3.11752 3.556217 0.44617683
0002f0 0c e2 78 40 cd 0a 24 40 f4 bb 1b 40 11 ab cc 3f
       3.8887968 2.5631592 2.4333467 1.5989705
000300 e7 13 87 40 97 3b b0 3f 49 fd 4d 40 46 4a fb 3f
       4.2211795 1.3768185 3.2185843 1.9632041
000310 29 b3 91 40 37 5b ad 40 c0 6e c0 3f cc 4b c7 40
       4.55312 5.4173846 1.5033798 6.2280025
000320 14 f2 85 40 2c 92 9a 40 35 55 88 40 bf 71 13 3f
       4.1858006 4.8303432 4.2604012 0.5759544
000330 90 68 7c 40 26 a9 f4 3e 19 4f aa 3f 7f 57 07 40
       3.943882 0.477853 1.3305389 2.1147153
000340 b9 34 0d 40 ba b3 16 40 a7 d5 88 40 51 f0 ae 40
       2.206343 2.3547196 4.2760806 5.4668355
000350 d0 78 95 40 9c e2 b3 40 79 21 98 40 fe f0 8a 40
       4.6709976 5.6214123 4.754086 4.341918
000360 73 9c 5c 40 fc a7 01 40 2a 90 05 3f d4 97 84 3f
       3.447049 2.025878 0.521731 1.0358834
000370 80 24 9f 40 52 1b 8c 3f 58 a5 eb 3f 65 07 4d 40
       4.9732056 1.0945837 1.8409834 3.2035763
000380 43 55 15 40 bf ef a1 40 a2 fc b2 40 43 9e 83 40
       2.333329 5.060516 5.593339 4.113069
000390 25 2d 00 40 93 79 c8 40 e3 0c d6 3f 57 ee 77 40
       2.0027554 6.2648406 1.6722683 3.873922
0003a0 68 6d 90 40 cd 73 a6 40 a0 1d a8 40 24 c9 db 3d
       4.5133553 5.201636 5.2536163 0.10731724
0003b0 1a d6 4d 40 7f 95 7c 40 5e bc 49 40 36 ec 5e 3d
       3.2161927 3.9466245 3.152122 0.054424487
0003c0 e2 b4 9f 3d 27 be 20 3e bb 2c 93 3e 3b 87 0a 3f
       0.077981725 0.15697537 0.28745064 0.54112595
0003d0 20 30 12 40 ee c3 75 40 29 74 cb 3f c4 bf 63 3f
       2.2841873 3.8400836 1.5894824 0.88964486
0003e0 ad 61 88 40 81 ce ba 3d c3 f7 6f 3f b1 ae a7 40
       4.2619233 0.09121419 0.9373743 5.2400746
0003f0 26 96 4c 40 7e 6b 77 3f dd 99 c6 40 6f 2b 05 40
       3.1966643 0.96648395 6.206282 2.080776

linear.weight f4 [1, 18750]
000000 e9 b0 0e c7 eb 4b d6 47 fd c2 de 47 dd af 49 46
       -36528.91 109719.836 114053.98 12907.966
000010 e9 3e 17 c6 11 21 4d c7 4b 25 9d c7 1e 4c 88 47
       -9679.728 -52513.066 -80458.586 69784.234
000020 9c 34 06 47 fc bf c7 c7 dd fb 3d c5 0c 35 0a 47
       34356.61 -102271.97 -3039.7415 35381.047
000030 22 14 ec 47 a0 c5 cd c6 2c 73 b7 c7 17 f5 0e c7
       120872.266 -26338.812 -93926.34 -36597.09
000040 ce 3a 54 46 f9 b6 38 c7 47 18 ee 47 0d 86 97 c6
       13582.701 -47286.973 121904.555 -19395.025
000050 8b 18 df c6 f2 84 dd c7 09 83 96 45 ac a9 90 c6
       -28556.271 -113417.89 4816.3794 -18516.836
000060 61 89 95 46 aa ed e3 c7 91 72 91 c7 3f 5c cf 47
       19140.69 -116699.33 -74469.13 106168.49
000070 eb 63 43 46 a8 76 e6 c7 5c 4c 8a c7 84 4a 43 c7
       12504.9795 -117997.31 -70808.72 -49994.516
000080 18 3e d7 c6 67 84 91 c7 d4 cd 7e c7 b6 46 24 c6
       -27551.047 -74504.805 -65229.83 -10513.678
000090 9f c7 6f c7 ed 96 b8 c5 99 a2 08 47 71 32 9f 46
       -61383.62 -5906.8657 34978.598 20377.22
0000a0 1e 66 d6 c6 08 90 73 46 26 6c ae c7 a2 34 cb 43
       -27443.059 15588.008 -89304.3 406.4112
0000b0 2d 9f 07 c7 e4 a1 30 c6 f3 75 91 47 d6 51 a6 47
       -34719.176 -11304.473 74475.9 85155.67
0000c0 5b d5 bb 46 ef f9 9a c7 f1 a2 d4 c7 88 44 92 47
       24042.678 -79347.87 -108869.88 74889.06
0000d0 d2 6c cd 47 3f 03 c0 c5 42 a3 1b c7 78 fd bc c7
       105177.64 -6144.406 -39843.258 -96762.94
0000e0 78 b4 a8 c4 8b ef 3f 47 a9 7f 59 47 1b 9d 2f c7
       -1349.6396 49135.543 55679.66 -44957.105
0000f0 c5 c1 c1 c7 d5 3d 7d 47 23 04 04 c6 0a b6 28 45
       -99203.54 64829.832 -8449.034 2699.3774
000100 84 a0 9e 47 68 89 dc 47 e9 ff c4 c5 b4 68 56 c7
       81217.03 112914.81 -6303.989 -54888.703
000110 e8 b6 87 46 dd d0 df 46 5f 9d 65 45 f3 60 d3 c6
       17371.453 28648.432 3673.8357 -27056.475
000120 6d 22 f1 c7 21 74 b6 c6 7e 8e 95 47 2b 8e 9c c7
       -123460.85 -23354.064 76572.984 -80156.336
000130 df 0c 9a c6 b7 20 62 47 e1 f3 2a c6 6c a4 78 c6
       -19718.436 57888.715 -10940.97 -15913.105
000140 bc ff 9d 45 e5 6d 95 47 1c 33 bc c6 f5 0d b3 47
       5055.967 76507.79 -24089.555 91675.914
000150 50 59 23 47 1e 06 12 47 71 63 a6 46 be 42 bc c7
       41817.312 37382.117 21297.72 -96389.484
000160 5b 5c b2 46 4c 93 8b 46 00 b6 51 44 9a 6f ad c7
       22830.178 17865.648 838.84375 -88799.2
000170 f8 fa 3a c7 64 3f ab c7 0d 16 b3 c7 89 72 15 47
       -47866.97 -87678.78 -91692.1 38258.535
000180 95 4e 85 c4 ef 69 01 46 79 2e ee c7 9f 0d 73 47
       -1066.4557 8282.483 -121948.945 62221.62
000190 4e 5d 51 c7 05 bc 77 47 4a 71 13 47 7d a0 a7 c6
       -53597.305 63420.02 37745.29 -21456.244
0001a0 c5 60 a1 47 82 fe a2 47 5f e5 d6 c7 97 b0 8a 47
       82625.54 83453.016 -110026.74 71009.18
0001b0 d0 e9 5e c7 b1 46 e6 c7 67 29 60 47 62 90 35 47
       -57065.812 -117901.38 57385.402 46480.383
0001c0 5d 50 a0 47 e4 b2 d9 c7 9a 63 0e 46 88 31 e3 c7
       82080.73 -111461.78 9112.9 -116323.06
0001d0 2d 11 4d 47 48 23 45 c7 20 f4 51 47 69 44 94 c7
       52497.176 -50467.28 53748.125 -75912.82
0001e0 df 0f b4 c7 cf cf 19 47 50 49 c0 c7 08 3f c9 47
       -92191.74 39375.81 -98450.625 103038.06
0001f0 46 a8 ed c7 c2 25 87 c6 7a 28 52 47 75 e7 9d c7
       -121680.55 -17298.879 53800.477 -80846.914
000200 6b bf c6 47 30 ed f0 c7 92 f3 f8 c5 a5 cf 38 c6
       101758.836 -123354.375 -7966.4463 -11827.911
000210 1d de 41 c4 a1 24 ea 46 ac 62 21 c7 95 e6 a3 46
       -775.4705 29970.314 -41314.67 20979.291
000220 64 1a fb 45 cc d5 b3 46 28 e4 11 c7 f6 61 85 46
       8035.299 23018.898 -37348.156 17072.98
000230 14 fd 07 47 4a 07 40 47 0c a9 c9 c5 34 c8 05 c7
       34813.08 49159.29 -6453.131 -34248.203
000240 88 2c 37 c7 e6 5e ae c5 ca b4 3e 47 e7 98 2c 45
       -46892.53 -5579.8623 48820.79 2761.5564
000250 28 cc 38 47 a9 b8 fb c6 2a 98 0f c5 e5 41 a7 45
       47308.156 -32220.33 -2297.5103 5352.237
000260 39 fd a2 46 c4 a8 d7 c6 bb 05 89 c6 da 17 3f c3
       20862.611 -27604.383 -17538.865 -191.09317
000270 65 84 8f 47 34 a8 aa c7 01 21 e1 46 4a 4c 58 47
       73480.79 -87376.41 28816.502 55372.29
000280 54 e5 f1 47 8b b3 ca 47 cf 95 8d 44 f3 75 f3 c7
       123850.66 103783.086 1132.6815 -124651.9
000290 a4 6c b0 c7 c2 6d 04 c7 9d 63 b5 c7 36 89 9e 46
       -90329.28 -33901.758 -92871.23 20292.605
0002a0 b1 33 a0 c7 84 5e 82 47 55 a3 95 c7 57 3e e3 46
       -82023.38 66749.03 -76614.664 29087.17
0002b0 18 0d a5 c7 8a 36 39 45 80 d6 c6 46 27 7a b4 47
       -84506.19 2963.4087 25451.25 92404.305
0002c0 98 e3 5e c7 27 1d e2 c6 ba 9b a4 46 ff 90 72 45
       -57059.594 -28942.576 21069.863 3881.0623
0002d0 27 3d 7b 47 36 b6 9c c7 96 fa 28 c5 eb df 8f c6
       64317.152 -80236.42 -2703.6616 -18415.959
0002e0 ce 05 e0 45 45 76 b1 c7 ca b9 d7 c7 10 8c c5 47
       7168.7256 -90860.54 -110451.58 101144.125
0002f0 00 9b 93 c6 ec 4f 93 c7 7a cf 99 c6 7d 17 8d 45
       -18893.5 -75423.84 -19687.738 4514.936
000300 0b 5e 09 c5 3b cc 0f c6 c8 a3 d0 c7 6b fa 44 c7
       -2197.8777 -9203.058 -106823.56 -50426.418
000310 23 0a b4 45 5c cd 90 46 98 87 83 c5 de 62 f1 47
       5761.267 18534.68 -4208.949 123589.734
000320 9f d6 85 c7 83 ae 92 46 b9 39 59 c7 db 83 9f 46
       -68525.24 18775.256 -55609.723 20417.928
000330 58 79 76 c7 6d bb ee 46 9f 3d 7d 46 4c fe 80 c7
       -63097.344 30557.713 16207.405 -66044.59
000340 25 b0 67 c7 3b fb 34 c5 2d c3 64 c7 56 47 80 47
       -59312.145 -2895.702 -58563.176 65678.67
000350 d5 24 5a 46 96 b3 c8 c4 f2 d9 72 46 bd 08 2e c6
       13961.208 -1605.612 15542.486 -11138.185
000360 9c f7 ce c7 0e c7 71 c5 40 bd 96 47 5d 53 82 47
       -105967.22 -3868.441 77178.5 66726.73
000370 28 6e 4a 46 82 20 67 47 83 17 9a c6 b7 2d f3 c7
       12955.539 59168.508 -19723.756 -124507.43
000380 ae 8b 24 c7 59 02 3f 47 83 55 b4 47 f3 fa 84 c6
       -42123.68 48898.348 92331.02 -17021.475
000390 57 50 34 c7 13 89 89 47 3f 9e 35 46 26 36 a9 c5
       -46160.34 70418.15 11623.562 -5414.7686
0003a0 f8 78 89 44 7c cd 7d 47 7b 6f dd 46 e5 26 f2 47
       1099.7803 64973.484 28343.74 123981.79
0003b0 6c ba ef c7 ac c8 99 c7 10 9e f4 c6 d3 27 22 47
       -122740.84 -78737.34 -31311.031 41511.824
0003c0 aa 6e c6 47 1b d0 ac 47 11 45 e1 47 d9 71 bd 47
       101597.33 88480.21 115338.13 96995.695
0003d0 5e b2 42 44 d1 21 01 c7 a5 e0 7b c6 97 8e 27 47
       778.787 -33057.816 -16120.161 42894.59
0003e0 8f 49 14 c6 ed 3b c7 47 b2 d4 7a 46 28 27 09 47
       -9490.39 102007.85 16053.174 35111.156
0003f0 e7 d1 f1 c7 a1 a7 03 47 c3 31 ac 47 dd c4 42 c7
       -123811.805 33703.63 88163.52 -49860.863
