results/primary_sngp/SNGP/SNGP_R3750_LS1.23_OS1.81_25000Sin/model.pt (torch, 46435 bytes, 3 tensors)

feature_weight f4 [3750, 1]
-1.5323555 -0.7796182 -0.34774786 -1.32349 -1.1076038 0.8019821 -1.0475729 -0.38725567
1.2127104 -0.11523934 -0.9514412 0.1345165 -1.0677476 -0.7768843 1.097225 -1.1539078
-1.1756153 0.8908494 0.11872261 2.4944415 1.5643241 0.023387035 -0.20693332 -0.6054195
1.5401168 0.43706688 -0.24724519 -0.05490595 0.2167594 -0.122883014 -0.24178761 -1.1163027
0.005472357 -0.08860911 -0.2863587 0.19343972 0.91915625 -1.1508567 0.18723662 -2.2415392
-0.9867774 1.3239332 -0.9817933 0.45961016 0.43760777 0.5344456 -0.06065361 0.5015956
-0.56792706 -0.22816429 0.006147671 0.12562671 0.49556398 0.069014005 1.1197627 -1.2324965
-0.58254874 -0.8621399 0.6112883 0.51682043 -0.14621285 0.7722163 0.8682749 -0.45921192
-1.5440531 1.063535 -0.12793797 -0.60750705 0.5075279 0.14864202 -0.9508041 -0.43242136
0.039895356 0.6797606 -1.688282 -1.1117129 -0.66142106 1.9124941 -0.4262626 -2.3155413
-0.96869886 1.4758091 0.26708528 1.149042 -0.7560283 0.6110169 0.25250944 -0.13156022
-0.3558133 0.094521955 -0.8282561 2.215339 -0.9029338 -0.8105489 -2.3217866 0.7978364
0.59873146 0.36698493 0.20003538 -0.5425329 0.1126913 -1.8351102 0.10547562 0.26264486
0.20363955 0.71152395 -0.18845125 -0.82591504 -0.33023933 0.87102664 -0.9864235 1.9373838
0.55607784 2.529952 -0.53063226 -0.72547996 1.3122625 -0.14604029 1.290801 0.11468838
-1.1601491 -1.7240986 0.3280365 -0.93009853 -0.2532929 1.6363221 -0.0028089297 -0.19486971
0.93602794 0.43951532 -0.35661325 -0.59106445 1.2252527 -0.34482443 -0.6405337 -1.1928217
-1.6999769 -0.65511376 -0.74515575 -0.60487396 0.5706145 1.9209871 0.45502743 -0.44157273
2.2092326 0.59117097 1.2675014 0.3125241 0.0402569 0.72581977 0.97538334 1.3732889
-0.20182937 -0.53534985 0.91360396 1.286586 0.059341416 -0.1669374 -0.78637016 -0.08991104
0.6263101 -0.33407304 -1.0752357 -0.78119445 0.68967533 0.17619431 1.2166857 -1.4964813
1.5568259 0.6639579 0.32097787 -1.4783102 -0.78809255 -0.06723168 -1.8520064 2.0505955
-2.0806632 0.13926892 0.3843695 1.975089 1.4185635 -0.36352327 0.71231997 -0.5676507
1.3899626 -0.27579224 0.10362514 0.07719208 0.4775414 -1.6316036 1.9848069 0.4496161
-1.5150312 -0.9018637 -1.236113 0.25157318 -0.010368231 0.47467414 0.20980874 -0.71989965
0.61867464 -1.2933985 1.1884985 -1.9870468 -1.6221651 -0.39709598 0.74761766 -0.34776276
-1.1974854 1.0272241 -0.73532075 -0.94837344 -0.12053883 -1.1028237 0.41362953 0.20394959
-0.839672 0.22213428 -0.09462572 -0.3897941 -2.1114466 -0.22044207 0.3650285 1.1443987
1.8873578 1.3980598 -0.5855993 0.04250366 -0.9153646 2.0733957 -0.34770435 -0.89874095
-1.2508976 -0.82568425 -0.107988045 0.2486297 -1.2735313 -2.0496562 -1.4504403 0.75656587
2.7209961 0.35428625 -0.17778209 -0.3789032 -0.9483077 0.11046608 0.43470818 0.15013357
-0.33431652 0.5574785 -0.68198824 0.019224282 -0.9538394 3.3079202 -0.17993599 -0.6330724
00000000: 3a24 c4bf 0f95 47bf 020c b2be 1f68 a9bf
00000010: f6c5 8dbf b34e 4d3f de16 86bf 6046 c6be
00000020: 183a 9b3f 9a02 ecbd a791 73bf b2be 093e
00000030: f4ab 88bf e4e1 46bf de71 8c3f 40b3 93bf
00000040: 907a 96bf b50e 643f d724 f33d eea4 1f40
00000050: c63b c83f 2b96 bf3c 54e6 53be c6fc 1abf
00000060: 8c22 c53f 3bc7 df3e d82d 7dbe 10e5 60bd
00000070: 2df6 5d3e 17aa fbbd 2c97 77be 02e3 8ebf
00000080: 7551 b33b b178 b5bd 9c9d 92be 1015 463e
00000090: d34d 6b3f 464f 93bf f5ba 3f3e 6175 0fc0
000000a0: 729d 7cbf a576 a93f ce56 7bbf 0652 eb3e
000000b0: 200e e03e 6dd1 083f eb6f 78bd 9268 003f
000000c0: ab63 11bf e6a3 69be 6772 c93b 4aa4 003e
000000d0: 90ba fd3e 3757 8d3d 6254 8f3f 72c2 9dbf
000000e0: ea21 15bf 33b5 5cbf 647d 1c3f 584e 043f
000000f0: d2b8 15be f8af 453f 4447 5e3f d31d ebbe
00000100: 88a3 c5bf ea21 883f 2c02 03be 9585 1bbf
00000110: 59ed 013f 9d35 183e e667 73bf 5566 ddbe
00000120: 5069 233d ca04 2e3f a019 d8bf 9c4c 8ebf
00000130: e452 29bf 9bcc f43f 173f dabe d431 14c0
00000140: a6fc 77bf 50e7 bc3f 67bf 883e cf13 933f
00000150: 128b 41bf 9b6b 1c3f eb48 813e b9b7 06be
00000160: 292d b6be ba94 c13d 9708 54bf 1dc8 0d40
00000170: ab26 67bf 2280 4fbf 2798 14c0 023f 4c3f
00000180: 7746 193f 73e5 bb3e 13d6 4c3e 70e3 0abf
00000190: b2ca e63d e4e4 eabf 9a03 d83d 6379 863e
000001a0: e386 503e 6f26 363f 5df9 40be 2b6f 53bf
000001b0: 2115 a9be 9afb 5e3f 4086 7cbf 31fc f73f
000001c0: 1e5b 0e3f bcea 2140 84d7 07bf 0eb9 39bf
000001d0: 38f8 a73f 968b 15be f838 a53f bee1 ea3d
000001e0: c47f 94bf 43af dcbf 66f4 a73e f01a 6ebf
000001f0: 9baf 81be 0173 d13f 0516 38bb ed8b 47be
00000200: 879f 6f3f 2708 e13e 0396 b6be 0050 17bf
00000210: 15d5 9c3f d48c b0be 04fa 23bf 62ae 98bf
00000220: d898 d9bf 89b5 27bf 87c2 3ebf 05d9 1abf
00000230: cb13 123f e8e2 f53f 5bf9 e83e d215 e2be
00000240: 1164 0d40 fb56 173f 7c3d a23f 2903 a03e
00000250: 6be4 243d 53cf 393f b9b2 793f eec7 af3f
00000260: 5cac 4ebe b00c 09bf f3e1 693f daae a43f
00000270: fc0f 733d a3f1 2abe 8e4f 49bf 4823 b8bd
00000280: dc55 203f 9f0b abbe 53a1 89bf 5cfc 47bf
00000290: 908e 303f 486c 343e 5bbc 9b3f b38c bfbf
000002a0: 1246 c73f 25f9 293f 3657 a43e 4539 bdbf
000002b0: 6fc0 49bf c3b0 89bd 8c0e edbf f53c 0340
000002c0: 9629 05c0 839c 0e3e 14cc c43e b7cf fc3f
000002d0: 7d93 b53f b91f babe 9a5a 363f 8e51 11bf
000002e0: 4bea b13f a434 8dbe 6b39 d43d e216 9e3d
000002f0: 4e80 f43e 63d8 d0bf 270e fe3f 1534 e63e
00000300: 8bec c1bf 8ae0 66bf f338 9ebf 33ce 803e
00000310: 83df 29bc 7d08 f33e 1ad8 563e 584b 38bf
00000320: 7661 1e3f 158e a5bf b820 983f 8d57 febf
00000330: 1ba3 cfbf 2a50 cbbe df63 3f3f f60d b2be
00000340: 3447 99bf 147c 833f fb3d 3cbf 9ac8 72bf
00000350: 10dd f6bd 5429 8dbf 40c7 d33e 29d8 503e
00000360: bff4 56bf 2b77 633e 21cb c1bd 1893 c7be
00000370: f121 07c0 91bb 61be 04e5 ba3e a87b 923f
00000380: f194 f13f a0f3 b23f d6e9 15bf 5118 2e3d
00000390: 5655 6abf 84b2 0440 4e06 b2be e313 66bf
000003a0: 6a1d a0bf 0b60 53bf d628 ddbd c998 7e3e
000003b0: 1303 a3bf 912d 03c0 07a8 b9bf 4dae 413f
000003c0: cd24 2e40 0265 b53e 820c 36be 9aff c1be
000003d0: 4bc4 72bf 0a3c e23d 1292 de3e 9dbc 193e
000003e0: 892b abbe e9b6 0e3f c896 2ebf 3e7c 9d3c
000003f0: d22e 74bf f7b4 5340 2441 38be 0811 22bf

feature_bias f4 [3750]
3.095447 5.323189 0.86577564 2.997542 1.5805197 0.09497723 0.14107156 0.37615186
4.6996593 5.7188516 6.05076 3.887001 0.024150835 0.19174536 5.3165264 5.1828465
6.083979 5.5899363 1.9968764 5.1921344 4.939868 4.45862 2.0922546 4.6187067
4.1107483 2.609212 2.1093326 2.057853 5.551253 5.152475 0.65964735 4.0658674
3.3425558 0.3334974 6.173311 1.9735311 0.59399664 1.0829096 1.4774415 5.0744653
5.253519 2.0072033 2.0238345 2.7759907 1.3321253 6.0990825 0.7038643 3.092543
2.8684359 1.0064304 1.0178524 0.7271642 4.9315786 2.6277096 1.5596188 1.969255
5.7877245 1.0467644 6.0719986 0.48448214 2.000363 5.4819584 3.8265364 5.896087
2.6088288 6.18672 1.2612529 1.3417816 4.071781 1.3422741 4.2671027 3.3161135
1.7712734 5.7814856 1.662212 0.03555832 5.0452557 4.8763404 5.8427167 4.04752
1.0578887 1.596273 5.980724 2.385412 3.9389539 5.4025803 5.448114 2.9091442
2.3167856 1.2314945 0.1532861 2.076109 1.9320372 6.238213 4.782264 6.199122
2.3117468 3.9819067 5.8189507 2.7398245 3.4523995 0.5899973 3.8528798 3.2433689
2.032114 0.18386348 5.439089 0.48910245 3.3003953 1.1039033 2.5909154 1.3209121
0.19541702 2.1261806 3.3753133 3.6828723 0.84392804 2.9393466 5.8686423 5.4300494
0.14473349 1.166986 3.5076017 1.8835176 2.736406 2.2971947 1.7876352 2.6020763
5.427714 2.503256 1.218028 4.401397 1.3821107 4.9657493 4.865558 5.1277657
4.2192807 1.691415 6.136408 3.8627915 1.5502145 2.0540302 0.7905851 0.07548789
4.4289193 1.8980702 4.274432 2.0463612 3.9212449 5.0876937 3.6053152 1.0646644
2.524385 4.75469 2.0669935 1.5407182 1.3638823 4.8206363 0.8357229 5.026415
4.8341203 5.736249 0.35223848 2.6710062 4.4240603 1.4807518 4.632891 4.6426687
5.4187193 1.2528462 4.995 1.9674749 5.1715193 3.299122 2.4633048 0.1402836
4.826525 1.8817806 2.3617263 2.3605227 2.9792922 5.5889416 1.3896409 4.0001283
6.01248 0.10668694 1.7196262 6.1548395 0.66600496 0.4543141 0.7785949 1.6840717
2.2686288 5.0039 1.5534159 0.0017062541 4.6361556 5.7197666 1.5831333 1.7969077
0.6044304 2.891703 0.27993578 1.4784149 0.4411734 4.258415 0.07482613 6.1547217
6.0418515 3.7913127 4.0222993 1.3972322 1.16218 6.1645536 3.065334 5.5433927
0.965375 1.024254 3.797834 5.997159 2.8137872 0.9207555 3.267584 0.34208372
1.4839572 3.494762 4.7244654 0.3548503 3.2393193 5.438331 5.445231 5.737633
4.8884673 4.1000385 2.79105 6.032826 3.237328 5.1604123 4.4160285 1.7451897
2.2586186 2.9801507 3.4277763 5.990831 3.1680079 4.730053 3.4155645 0.75118995
5.761988 5.042891 3.005959 4.4047894 4.9946427 1.2373263 0.6893465 1.9505428
00000000: ce1b 4640 9057 aa40 79a3 5d3f bad7 3f40
00000010: 784e ca3f 6c83 c23d 1075 103e fa96 c03e
00000020: 9c63 9640 d500 b740 d39f c140 a0c4 7840
00000030: f9d7 c53c e558 443e fc20 aa40 e1d9 a540
00000040: f5af c240 c2e0 b240 a599 ff3f f725 a640
00000050: 6613 9e40 04ad 8e40 80e7 0540 72cc 9340
00000060: 408b 8340 54fd 2640 4eff 0640 ddb3 0340
00000070: dda3 b140 13e1 a440 a6de 283f 961b 8240
00000080: 6fec 5540 2cc0 aa3e c48b c540 ab9c fc3f
00000090: 2a10 183f c89c 8a3f ce1c bd3f 0562 a240
000000a0: d41c a840 0576 0040 8186 0140 d5a9 3140
000000b0: 1583 aa3f af2b c340 7330 343f 39ec 4540
000000c0: 7494 3740 b6d2 803f fd48 823f 6f27 3a3f
000000d0: 7ecf 9d40 652c 2840 97a1 c73f 8c10 fc3f
000000e0: 0a35 b940 60fc 853f d04d c240 0b0e f83e
000000f0: f305 0040 346c af40 f9e5 7440 bfac bc40
00000100: 0df7 2640 9cf9 c540 bc70 a13f 80bf ab3f
00000110: 084c 8240 a3cf ab3f 1b8c 8840 343b 5440
00000120: 16b9 e23f ee01 b940 5dc3 d43f 9aa5 113d
00000130: bc72 a140 fb0a 9c40 89f7 ba40 4985 8140
00000140: e668 873f ac52 cc3f 1762 bf40 97aa 1840
00000150: d217 7c40 f0e1 ac40 f356 ae40 6b2f 3a40
00000160: 3746 1440 9da1 9d3f 08f7 1c3e f8de 0440
00000170: ff4c f73f 719f c740 4f08 9940 355f c640
00000180: a9f3 1340 8fd7 7e40 d834 ba40 4959 2f40
00000190: 1df4 5c40 100a 173f 9595 7640 5b93 4f40
000001a0: 280e 0240 b546 3c3e 040d ae40 a36b fa3e
000001b0: ad39 5340 b44c 8d3f 8fd1 2540 a613 a93f
000001c0: 661b 483e 5813 0840 2205 5840 2eb4 6b40
000001d0: ab0b 583f 411e 3c40 ebcb bb40 f7c2 ad40
000001e0: 0435 143e cc5f 953f 8c7c 6040 1b17 f13f
000001f0: 4721 2f40 3d05 1340 3bd1 e43f 6b88 2640
00000200: d5af ad40 5935 2040 57e8 9b3f 3fd8 8c40
00000210: 01e9 b03f 6be7 9e40 a7b2 9b40 a816 a440
00000220: 5904 8740 4980 d83f 745d c440 fa37 7740
00000230: 6e6d c63f 3b75 0340 c963 4a3f 6599 9a3d
00000240: b5b9 8d40 f7f3 f23f 26c8 8840 95f7 0240
00000250: adf5 7a40 63ce a240 7cbd 6640 ec46 883f
00000260: 868f 2140 6c26 9840 9f49 0440 4136 c53f
00000270: b293 ae3f a742 9a40 f0f1 553f 64d8 a040
00000280: 1db1 9a40 5a8f b740 9a58 b43e c4f1 2a40
00000290: e791 8d40 4689 bd3f a540 9440 be90 9440
000002a0: 2666 ad40 445d a03f 0ad7 9f40 38d6 fb3f
000002b0: 167d a540 d124 5340 c9a6 1d40 81a6 0f3e
000002c0: e572 9a40 30de f03f 8626 1740 ce12 1740
000002d0: b9ac 3e40 9cd8 b240 c1df b13f 0d01 8040
000002e0: 3c66 c040 af7e da3d b61c dc3f 72f4 c440
000002f0: 4d7f 2a3f dc9b e83e ff51 473f a98f d73f
00000300: 3731 1140 f31f a040 55d6 c63f 63a4 df3a
00000310: 635b 9440 5408 b740 1da4 ca3f 1201 e63f
00000320: f3bb 1a3f a911 3940 be53 8f3e b33c bd3f
00000330: 7be1 e13e f044 8840 713e 993d 7bf3 c440
00000340: d956 c140 dea4 7240 adb6 8040 81d8 b23f
00000350: 50c2 943f 0644 c540 6f2e 4440 7963 b140
00000360: d122 773f c11a 833f b60f 7340 bae8 bf40
00000370: 1715 3440 a2b6 6b3f 1920 5140 9925 af3e
00000380: 4ff2 bd3f 2eaa 5f40 d22e 9740 f0ae b53e
00000390: 0251 4f40 cf06 ae40 553f ae40 b19a b740
000003a0: 536e 9c40 8433 8340 90a0 3240 e90c c140
000003b0: 6230 4f40 1922 a540 1b50 8d40 6062 df3f
000003c0: 358d 1040 caba 3e40 b060 5b40 e3b4 bf40
000003d0: a4c0 4a40 985c 9740 9c98 5a40 fc4d 403f
000003e0: 3562 b840 5d5f a140 a261 4040 09f4 8c40
000003f0: 1dd4 9f40 b560 9e3f 0379 303f 63ab f93f

linear.weight f4 [1, 3750]
-31947.725 136095.89 139516.02 -69306.92 -38991.05 174927.45 113905.76 214157.75
-34664.348 228230.23 146722.03 -200915.66 115537.37 165249.75 31197.824 77025.66
99570.11 90643.53 -100354.22 6743.2466 -6889.5854 -68724.086 -143428.33 19516.562
-29239.754 -186510.47 -148104.42 -128432.53 180767.2 121437.32 191047.6 -34128.145
-261174.94 248140.3 253600.73 -87701.15 146096.25 14578.83 39224.81 -23996.256
104233.17 -2632.947 -96195.914 -204908.94 86458.28 210285.56 199442.22 -223842.4
-217469.3 122522.47 140364.8 203819.52 15379.134 -228558.77 38672.67 -62345.906
205453.05 42503.77 194930.56 214412.62 -120199.53 92836.78 -149638.86 227344.06
-32847.445 113052.22 70437.195 9059.469 -162749.67 71206.57 -22707.977 -226755.98
-49807.31 151463.17 -6454.905 106030.24 103582.79 5274.1914 227330.94 -1056.7903
30914.06 17790.943 236658.4 -47677.754 -95798.42 101951.26 156868.03 -258870.97
-186335.27 95435.51 157779.98 -4708.1147 -93318.06 171658.56 -19810.027 168241.45
-112970.66 -183458.47 225028.12 -216345.2 -254423.34 -1509.8954 -206005.97 -255607.27
-100919.12 193884.92 184311.98 126995.87 -241131.56 109282.06 -135439.4 -10651.157
220324.36 -4787.953 -206871.69 -138295.92 66507.51 -259834.23 54015.28 166730.12
91380.91 -394.10498 -241020.42 -85051.016 -242792.45 -4810.2544 -57550.02 -231085.81
62509.92 -169597.61 59439.035 -27788.729 48252.215 87212.195 70745.67 68274.484
-256.92307 -64467.758 187150.6 -131022.555 42395.484 -1754.7139 186924.72 231473.88
22232.75 -31244.059 -60375.383 -93095.63 -191608.7 29162.652 -140095.42 49541.39
-220987.62 45852.977 -33318.094 32039.719 59362.945 41635.188 85380.54 88847.2
-14680.572 224957.11 94436.695 -176112.52 -94845.5 37585.168 -40120.176 14924.514
7561.5923 100882.445 45824.918 -32478.117 115756.61 -261528.7 6502.6562 -18651.932
-15723.456 -69791.69 -151892.64 2684.0227 -45004.363 205459.97 75377.664 -112029.766
45741.09 249923.92 -30899.822 262444.8 201330.92 11901.94 -17125.092 5834.6455
-34289.848 84380.42 -30998.021 255810.25 -19444.822 176310.83 13525.812 -83130.41
192456.83 -76640.97 97891.29 8940.396 12950.237 -78957.8 185090.8 247678.39
95679.734 -123977.164 -85005.25 -17083.434 95908.37 113011.54 -235297.03 180620.75
57910.492 149220.58 -205193.64 239731.89 22835.908 142337.4 -245859.64 107183.98
-6377.284 -57638.848 41098.203 250770.97 -143478.58 -1780.4957 184421.0 151958.95
45165.992 -60655.766 -251394.89 243184.44 -72052.836 -18808.27 6650.397 10623.641
-1352.8258 -238078.17 -246432.34 240562.22 -140305.0 -4308.874 -235267.38 200215.31
227623.81 34964.164 -198793.72 -82155.57 79470.38 10495.134 192178.78 -112835.4
00000000: 7397 f9c6 f9e7 0448 013f 0848 765d 87c7
00000010: 0d4f 18c7 ddd3 2a48 e178 de47 7023 5148
00000020: 5968 07c7 8fe1 5e48 8248 0f48 ea34 44c8
00000030: afa8 e147 7060 2148 a6bb f346 d470 9647
00000040: 0e79 c247 c409 b147 1c01 c4c7 f9b9 d245
00000050: af4c d7c5 0b3a 86c7 1511 0cc8 2079 9846
00000060: 826f e4c6 9e23 36c8 1ba2 10c8 44d8 fac7
00000070: cd87 3048 a92e ed47 e691 3a48 2550 05c7
00000080: bc0d 7fc8 1353 7248 2fa8 7748 934a abc7
00000090: 10ac 0e48 52cb 6346 cf38 1947 8378 bbc6
000000a0: 9694 cb47 278f 24c5 f5e1 bbc7 3c1b 48c8
000000b0: 24dd a847 645b 4d48 8ec4 4248 9a98 5ac8
000000c0: 535f 54c8 3c4d ef47 3313 0948 e10a 4748
000000d0: 894c 7046 b133 5fc8 ac10 1747 e889 73c7
000000e0: 43a3 4848 c507 2647 a45c 3e48 2863 5148
000000f0: c4c3 eac7 6452 b547 b721 12c8 0404 5e48
00000100: 724f 00c7 1cce dc47 9992 8947 e08d 0d46
00000110: 6bef 1ec8 4913 8b47 f467 b1c6 ff70 5dc8
00000120: 4f8f 42c7 cbe9 1348 3db7 c9c5 1f17 cf47
00000130: 654f ca47 88d1 a445 bc00 5e48 4a19 84c4
00000140: 1f84 f146 e3fd 8a46 9a1c 6748 c13d 3ac7
00000150: 361b bbc7 a11f c747 0231 1948 becd 7cc8
00000160: d1f7 35c8 c165 ba47 ff14 1a48 eb20 93c5
00000170: 0843 b6c7 a4a2 2748 0ec4 9ac6 5d4c 2448
00000180: 54a5 dcc7 9e28 33c8 08c1 5b48 4d46 53c8
00000190: d675 78c8 a7bc bcc4 7e2d 49c8 d19d 79c8
000001a0: 8f1b c5c7 3b57 3d48 fffd 3348 ef09 f847
000001b0: e47a 6bc8 0871 d547 da43 04c8 a16c 26c6
000001c0: 1729 5748 a09f 95c5 ec05 4ac8 fb0d 07c8
000001d0: c1e5 8147 8fbe 7dc8 48ff 5247 88d2 2248
000001e0: 747a b247 700d c5c3 1b5f 6bc8 821d a6c7
000001f0: 1d1a 6dc8 0952 96c5 05ce 60c7 74ab 61c8
00000200: ec2d 7447 679f 25c8 092f 6847 7519 d9c6
00000210: 377c 3c47 1956 aa47 d62c 8a47 3e59 8547
00000220: 2776 80c3 c2d3 7bc7 a6c3 3648 47e7 ffc7
00000230: 7c9b 2547 d856 dbc4 2e8b 3648 780c 6248
00000240: 80b1 ad46 1e18 f4c6 62d7 6bc7 d1d3 b5c7
00000250: 2d1e 3bc8 4ed5 e346 dbcf 08c8 6485 4147
00000260: e8ce 57c8 fa1c 3347 1826 02c7 704f fa46
00000270: f2e2 6747 30a3 2247 45c2 a647 9a87 ad47
00000280: 4a62 65c6 47af 5b48 5972 b847 21fc 2bc8
00000290: c03e b9c7 2bd1 1247 2db8 1cc7 0e32 6946
000002a0: bd4c ec45 3909 c547 eb00 3347 3cbc fdc6
000002b0: 4e16 e247 2d66 7fc8 4035 cb45 ddb7 91c6
000002c0: d3ad 75c6 d84f 88c7 2955 14c8 5dc0 2745
000002d0: 5dcc 2fc7 fea4 4848 d538 9347 e2ce dac7
000002e0: 17ad 3247 fb10 7448 a567 f1c6 9a25 8048
000002f0: bb9c 4448 c3f7 3946 2fca 85c6 2a55 b645
00000300: d9f1 05c7 36ce a447 0b2c f2c6 90d0 7948
00000310: a5e9 97c6 b52d 2c48 3f57 5346 345d a2c7
00000320: 35f2 3b48 7cb0 95c7 a531 bf47 96b1 0b46
00000330: f358 4a46 e636 9ac7 b3c0 3448 99df 7148
00000340: dedf ba47 9524 f2c7 a006 a6c7 de76 85c6
00000350: 2f52 bb47 c5b9 dc47 42c8 65c8 3063 3048
00000360: 7e36 6247 25b9 1148 6962 48c8 f91c 6a48
00000370: d167 b246 5a00 0b48 e918 70c8 fd57 d147
00000380: 464a c7c5 d926 61c7 348a 2047 bee4 7448
00000390: a51d 0cc8 dd8f dec4 4019 3448 bd65 1448
000003a0: fe6d 3047 c4ef 6cc7 b980 75c8 1c7c 6d48
000003b0: 6bba 8cc7 8af0 92c6 2dd3 cf45 90fe 2546
000003c0: 6d1a a9c4 8b7f 68c8 16a8 70c8 8eec 6a48
000003d0: 4004 09c8 fea6 86c5 d8c0 65c8 d485 4348
000003e0: f449 5e48 2a94 0847 6e22 42c8 c975 a0c7
000003f0: 3137 9b47 89fc 2346 b2ac 3b48 b361 dcc7
