results/SNGP_FINAL_RESULTS/SNGP/SNGP_R150_LS1.25_OS1.75_1000Sin/model.pt (torch, 3654 bytes, 3 tensors)

feature_weight f4 [150, 1]
0.057868864 0.009336249 -1.6193544 -0.46654135 -0.040614415 0.5841204 -1.5416747 0.10952303
0.24764428 0.8896971 0.6794176 -1.0706099 -0.7875037 -2.0808458 0.7564396 -0.34377012
0.31261918 0.3985352 0.8119955 -0.012892733 0.9612921 -0.4310397 -0.044930916 0.6866598
1.3322585 0.60877675 1.0238284 -1.2804707 -0.16361862 0.2664542 -0.090489805 1.0773723
0.8869393 0.03837503 0.66729397 0.17447004 -0.50908285 1.0246242 0.9317779 -0.2870456
-1.612192 -0.38841376 1.8801049 -0.26263687 -1.6993073 0.5472696 0.060434256 -0.53999394
0.8322404 -0.30800936 -1.046167 -0.8663069 0.5312425 -0.68194056 0.9745412 -0.13236827
0.12186724 0.6827731 0.6808802 1.0384456 1.1500202 1.6958575 1.3355762 -0.5749353
-2.1938264 -0.7030905 -0.19199423 0.55167615 -1.0699986 -0.44939718 0.5032263 -1.1599696
0.4274502 -0.17384307 1.3483064 -1.4763923 1.3928912 0.34964833 -0.8619816 2.1112626
0.32443082 -1.2272996 -2.6433055 1.0097212 0.40703434 0.5554838 -0.08685859 -0.2170738
0.20696296 -1.572803 0.80763906 0.22696768 0.75805146 -0.71808857 0.054143783 -0.58408767
-0.053634603 -0.14908302 0.7588884 0.85133046 -1.097812 -0.1344889 0.17460182 -1.8661314
0.38501945 0.27653915 -0.1885065 0.6658527 0.79925585 -0.18870446 -1.38264 0.05743449
1.090014 -0.6424566 0.36678135 1.003679 0.26097804 0.7953675 0.27501428 0.3804934
-0.28813756 1.2953553 0.9588645 -1.0700618 -0.20009637 2.0778177 -0.13583139 -0.11739553
0.6980168 0.60202664 -0.96467847 -0.4791859 0.2090901 -0.039234113 0.54070437 0.9048483
1.3451657 -0.47924227 0.62284434 1.5998504 1.8906418 -1.2570086 0.11334923 0.22381909
1.23501 0.5427625 0.34881026 -0.067227334 0.029866273 1.4249244
00000000: e707 6d3d 11f7 183c 0147 cfbf 82de eebe
00000010: 4d5b 26bd ea88 153f 9955 c5bf 9c4d e03d
00000020: 7696 7d3e 30c3 633f 50ee 2d3f bf09 89bf
00000030: d899 49bf 942c 05c0 07a6 413f a302 b0be
00000040: 9f0f a03e ce0c cc3e f0de 4f3f 0b3c 53bc
00000050: 3d17 763f 3cb1 dcbe 7b09 38bd f0c8 2f3f
00000060: 7287 aa3f cbd8 1b3f cf0c 833f 77e6 a3bf
00000070: a48b 27be af6c 883e b852 b9bd 56e7 893f
00000080: 740e 633f 232f 1d3d c7d3 2a3f 46a8 323e
00000090: 4153 02bf e326 833f ff88 6e3f a4f7 92be
000000a0: 4f5c cebf 2bde c6be 47a7 f03f 5778 86be
000000b0: e782 d9bf dc19 0c3f e989 773d 0b3d 0abf
000000c0: b50d 553f 67b3 9dbe cde8 85bf 4ac6 5dbf
000000d0: 82ff 073f a893 2ebf 887b 793f 8c8b 07be
000000e0: 8895 f93d 38ca 2e3f 2a4e 2e3f c9eb 843f
000000f0: dd33 933f dc11 d93f 29f4 aa3f f62e 13bf
00000100: a767 0cc0 bdfd 33bf 239a 44be a63a 0d3f
00000110: b7f5 88bf 6317 e6be 70d3 003f e279 94bf
00000120: c1da da3e eb03 32be 4e95 ac3f 6cfa bcbf
00000130: 424a b23f 1b05 b33e d3aa 5cbf ed1e 0740
00000140: cc1b a63e 2718 9dbf eb2b 29c0 8b3e 813f
00000150: ce66 d03e 3034 0e3f ebe2 b1bd 9848 5ebe
00000160: 19ee 533e 9c51 c9bf 6fc1 4e3f 376a 683e
00000170: a90f 423f a7d4 37bf dfc5 5d3d c586 15bf
00000180: f5af 5bbd 38a9 18be 8346 423f cbf0 593f
00000190: 1b85 8cbf 75b7 09be d2ca 323e 65dd eebf
000001a0: 4521 c53e 8a96 8d3e d907 41be 5375 2a3f
000001b0: 089c 4c3f be3b 41be 59fa b0bf 6e40 6b3d
000001c0: 9485 8b3f 0978 24bf c4ca bb3e 8e78 803f
000001d0: ea9e 853e 349d 4b3f acce 8c3e 08d0 c23e
000001e0: c486 93be 34ce a53f 2578 753f c9f7 88bf
000001f0: 10e6 4cbe f7fa 0440 6217 0bbe 116d f0bd
00000200: 3bb1 323f 6b1e 1a3f 2bf5 76bf db57 f5be
00000210: b71b 563e f3b3 20bd 9a6b 0a3f 23a4 673f
00000220: 642e ac3f 3e5f f5be ba72 1f3f e6c7 cc3f
00000230: 8d00 f23f a8e5 a0bf a423 e83d d530 653e
00000240: cf14 9e3f 7cf2 0a3f 4297 b23e 7cae 89bd
00000250: 1daa f43c ec63 b63f

feature_bias f4 [150]
0.42042348 2.0484345 6.195872 1.4409473 5.7168546 0.78177893 5.5958824 0.7040751
2.8767781 5.707572 2.8907824 0.03913898 2.9848695 1.6880327 3.5632813 5.3111534
5.961987 5.6949344 0.45729706 2.6563106 3.2541804 0.761035 2.9123003 5.7378597
2.9140184 0.32188842 5.3742714 1.9828695 0.8530892 4.5586796 5.732711 3.0486183
0.7693633 5.4312425 2.8806193 5.4219995 5.811959 0.040648244 0.8078458 1.9435953
2.2090504 1.2749878 0.051188372 2.8062375 0.47868553 2.782254 3.7858403 2.0871382
1.3615286 5.9303584 0.48343202 1.6348491 3.1149132 1.8907644 0.36135697 5.5365086
0.64615047 0.49673453 1.9690531 2.8652163 1.5902228 1.6848023 3.1110456 2.9641037
1.7649138 0.73749983 1.3946178 3.7577455 0.057379346 1.1797799 1.3345135 5.767685
4.6760645 1.5647743 3.0338116 4.6889524 0.5949198 4.7959266 1.3727328 1.1162744
6.026506 4.608962 2.1673343 4.6383147 5.0189033 3.603154 2.2595336 4.1662264
2.864608 4.7714458 3.030378 1.9432665 4.5357943 2.4764645 5.4684362 1.328124
4.436168 1.1738489 3.8950021 3.5855234 0.7142602 1.745893 4.731251 0.9681992
0.17214665 3.1573079 3.6245198 5.379248 3.7976115 0.5546187 0.49894038 2.8891919
2.3956518 0.09392262 0.6158128 0.96054316 2.492793 1.4785833 0.3487975 5.9345956
4.2892146 3.2827542 4.618953 0.5206168 5.558702 1.4896958 2.7239683 5.8008947
0.4593359 2.1774716 2.0182526 4.6171637 5.569477 2.2509604 4.1586647 1.9887713
5.2321773 2.0432043 0.45764312 2.065843 1.3600646 1.0068188 1.293439 0.2976432
3.277918 4.7526064 0.13100669 0.0088537205 0.044903394 4.078952
00000000: bf41 d73e 8d19 0340 9544 c640 f670 b83f
00000010: 79f0 b640 aa22 483f 7811 b340 443e 343f
00000020: 221d 3840 6ea4 b640 9402 3940 3250 203d
00000030: 1a08 3f40 7511 d83f cd0c 6440 f8f4 a940
00000040: 99c8 be40 e73c b640 d722 ea3e fe00 2a40
00000050: 7e44 5040 31d3 423f 2163 3a40 8c9c b740
00000060: 477f 3a40 8fce a43e 08fa ab40 abce fd3f
00000070: 0e64 5a3f b4e0 9140 5e72 b740 901c 4340
00000080: fef4 443f bdcc ad40 115c 3840 0581 ad40
00000090: 91fb b940 c67e 263d fbce 4e3f bbc7 f83f
000000a0: 1561 0d40 cd32 a33f e6aa 513d 6599 3340
000000b0: 4516 f53e 7310 3240 354b 7240 ac93 0540
000000c0: 9246 ae3f 7fc5 bd40 6784 f73e bc42 d13f
000000d0: bd5a 4740 9104 f23f c803 b93e 142b b140
000000e0: 1e6a 253f fd53 fe3e ef09 fc3f b45f 3740
000000f0: 6c8c cb3f 9aa7 d73f 5f1b 4740 e0b3 3d40
00000100: b2e8 e13f cacc 3c3f d682 b23f e77e 7040
00000110: 9b06 6b3d 0703 973f 57d1 aa3f e090 b840
00000120: 52a2 9540 864a c83f f829 4240 e60b 9640
00000130: aa4c 183f 3b78 9940 b5b5 af3f 14e2 8e3f
00000140: 23d9 c040 9e7c 9340 9bb5 0a40 136d 9440
00000150: db9a a040 139a 6640 339c 1040 ba51 8540
00000160: bd55 3740 afaf 9840 b7f1 4140 f5bc f83f
00000170: 3a25 9140 657e 1e40 6efd ae40 f8ff a93f
00000180: 17f5 8d40 ae40 963f b747 7940 3779 6540
00000190: c2d9 363f 6c79 df3f 6866 9740 e7db 773f
000001a0: 3647 303e 5511 4a40 22f8 6740 cd22 ac40
000001b0: 110c 7340 7efb 0d3f 1d75 ff3e 85e8 3840
000001c0: 5c52 1940 815a c03d e8a5 1d3f 28e6 753f
000001d0: ec89 1f40 3842 bd3f 9695 b23e 35e8 bd40
000001e0: 3f41 8940 a518 5240 77ce 9340 2547 053f
000001f0: e3e0 b140 5aae be3f 7f55 2e40 eea0 b940
00000200: 132e eb3e b25b 0b40 0d2b 0140 cebf 9340
00000210: 2839 b240 bc0f 1040 c813 8540 0f90 fe3f
00000220: ff6d a740 dcc3 0240 3350 ea3e c636 0440
00000230: 9916 ae3f 70df 803f 698f a53f b164 983e
00000240: 69c9 5140 5a15 9840 9e26 063e 320f 113c
00000250: 9fec 373d c686 8240

linear.weight f4 [1, 150]
-0.03258765 -0.04792832 -0.2025823 -0.0010600929 0.02153739 -0.013872939 -0.0728305 -0.052898057
-0.034407295 -0.08564907 0.0018551571 -0.12596503 0.10540403 1.0220073 -0.012055893 -0.032856353
-0.020586519 -0.053974845 -0.020474844 0.06386208 0.058197834 -0.03882294 0.0022455452 -0.11027533
0.19892873 0.04638613 -0.20631139 -0.076994225 0.038107388 0.016853604 -0.084014826 0.13519178
0.0052898424 0.061142016 0.11728493 0.056358818 0.026031429 -0.11223161 -0.004185909 0.028854279
0.1792202 0.044846687 0.10167145 0.09617471 0.025568103 0.08198661 0.026184775 0.082438424
0.006576975 0.060570046 -0.12638243 -0.015890367 0.000487876 0.04359672 -0.12198947 0.011521525
-0.019604772 0.05706172 0.092953466 0.18403213 0.2413635 -0.16292289 0.12786554 0.022437261
1.3079554 -0.029626165 0.038965333 0.03618974 -0.12686282 0.032295704 -0.018040532 -0.114422
0.067216314 0.026909776 0.20188574 0.12541547 -0.10969879 -0.04463074 -0.111821756 -0.94916284
0.048797518 0.28243235 1.189495 -0.15375896 -0.050428465 0.059603967 0.02420115 -0.09339707
0.041245434 0.038163308 0.09374357 -0.080955595 -0.04788585 0.029574364 0.07802873 -0.057829205
-0.00975704 0.07279442 0.06322562 0.06325179 -0.2615844 0.08249284 -0.029738462 0.4830071
0.024044441 -0.04541622 0.071634136 0.027876751 0.018005015 0.032159537 -0.2670419 -0.06875908
0.24285008 -0.0022734683 0.033249814 0.06604049 -0.010350825 0.01981591 -0.09359711 0.04636028
-0.091825455 0.07281472 -0.07835693 -0.150077 -0.09946647 -1.0963051 0.0049002413 -0.0033408825
-0.021361023 -0.022409765 -0.08890497 -0.08849805 0.06505184 0.081395134 0.0225097 0.10140113
-0.23545781 -0.04146102 0.026074937 0.051467713 -0.4950348 -0.23414744 -0.07033975 -0.07312569
0.13822593 -0.042713303 -0.093855806 0.055311255 -0.06464118 -0.056356914
00000000: a17a 05bd 7c50 44bd bc71 4fbe d1f2 8aba
00000010: 2e6f b03c 534b 63bc 2828 95bd a2ab 58bd
00000020: aaee 0cbd c868 afbd be28 f33a fafc 00be
00000030: 11de d73d 23d1 823f 1586 45bc 6294 06bd
00000040: 0fa5 a8bc ba14 5dbd dcba a7bc 1fca 823d
00000050: da60 6e3d ce04 1fbd ff29 133b 08d8 e1bd
00000060: f9b3 4b3e 62ff 3d3d 4b43 53be 26af 9dbd
00000070: 7e16 1c3d 9210 8a3c f70f acbd b76f 0a3e
00000080: 6a56 ad3b 0d70 7a3d 1533 f03d 81d8 663d
00000090: dd3f d53c b0d9 e5bd f329 89bb cf5f ec3c
000000a0: 8085 373e 29b1 373d 1f39 d03d 3ff7 c43d
000000b0: 3374 d13c 99e8 a73d 7481 d63c 7ad5 a83d
000000c0: aa83 d73b 4c18 783d 656a 01be 842c 82bc
000000d0: 9cc9 ff39 7992 323d 9ed5 f9bd c7c4 3c3c
000000e0: 309a a0bc 8db9 693d 635e be3d eb72 3c3e
000000f0: fe27 773e 42d5 26be 2fef 023e 59ce b73c
00000100: 156b a73f 92b2 f2bc 1d9a 1f3d b13b 143d
00000110: 54e8 01be 8048 043d bdc9 93bc 1556 eabd
00000120: b5a8 893d e471 dc3c 23bb 4e3e ea6c 003e
00000130: c2a9 e0bd b9ce 36bd ce02 e5bd 56fc 72bf
00000140: e8df 473d f99a 903e 5f41 983f fd72 1dbe
00000150: 148e 4ebd 4a23 743d 7d41 c63c f746 bfbd
00000160: f9f0 283d 2151 1c3d a1fc bf3d 0ccc a5bd
00000170: f423 44bd f045 f23c 87cd 9f3d 51de 6cbd
00000180: fedb 1fbc 3e15 953d 6f7c 813d 288a 813d
00000190: 64ee 85be 02f2 a83d 139e f3bc b54c f73e
000001a0: d9f8 c43c 5c06 3abd ebb4 923d c95d e43c
000001b0: 417f 933c b8b9 033d b7b9 88be 8fd1 8cbd
000001c0: b1ad 783e 78fe 14bb f530 083d 3d40 873d
000001d0: 8296 29bc fa54 a23c d7af bfbd 47e4 3d3d
000001e0: fc0e bcbd e21f 953d 9979 a0bd c9ad 19be
000001f0: 14b5 cbbd ba53 8cbf 3492 a03b b5f2 5abb
00000200: 50fd aebc af94 b7bc cf13 b6bd 773e b5bd
00000210: e639 853d 7eb2 a63d 4366 b83c 65ab cf3d
00000220: da1b 71be 08d3 29bd 1b9b d53c cfcf 523d
00000230: 3475 fdbe 59c4 6fbe 490e 90bd ecc2 95bd
00000240: 198b 0d3e 25f4 2ebd 7937 c0bd 0e8e 623d
00000250: 9862 84bd 82d6 66bd
