results/SNGP_75000/SNGP/SNGP_R11250_LS1.23_OS1.81_75000Sin/model.pt (torch, 136483 bytes, 3 tensors)

feature_weight f4 [11250, 1]
0	0xbee800aa	-0.45313007
1	0x3e4100f0	0.18848014
2	0xbecbcfc3	-0.39806947
3	0xbfe71261	-1.8052484
4	0xbf24e6f9	-0.64414936
5	0xbf0adf3e	-0.5424689
6	0xbe3b9f90	-0.18322587
7	0x3fd9f86c	1.7028937
8	0xbfb72a7c	-1.430984
9	0x3ee12d4b	0.43979868
10	0xbdf4c3d7	-0.11951416
11	0x3f86ee61	1.0541497
12	0xbf811e2e	-1.0087335
13	0x3fa77b7c	1.308456
14	0xbf877e53	-1.0585426
15	0xbec63675	-0.38713422
16	0x3f22dff3	0.6362297
17	0x3f3b0661	0.7305661
18	0xbfa727f8	-1.3059072
19	0xbefa5a47	-0.48897
20	0xbeaa6939	-0.33283404
21	0xbdaefb92	-0.08544077
22	0xbe87a6a0	-0.26494312
23	0xb9a24407	-0.00030949732
24	0xbf4b92cf	-0.7952089
25	0x3f3f6be5	0.7477401
26	0xbd2f1f99	-0.042754743
27	0x3ea1de18	0.31614757
28	0xbe261eb5	-0.16222651
29	0xbf47e744	-0.7808726
30	0x3ed2e57d	0.4119071
31	0x3e70f4d6	0.23530897
32	0x3e686130	0.22693324
33	0x3ef71897	0.48260948
34	0xc009db35	-2.1540043
35	0xbf3e04ea	-0.7422625
36	0xbe9ed619	-0.3102272
37	0x3f9ab2b7	1.208579
38	0x3f25a804	0.64709496
39	0xbb9ef7e4	-0.004851328
40	0xbe91386e	-0.28363365
41	0x3f2a7024	0.66577363
42	0x3fd5c201	1.669983
43	0xbfe38503	-1.7774967
44	0x3f100363	0.5625517
45	0xbdeeb090	-0.116547704
46	0xbf75ebf9	-0.9606319
47	0x3dada4e2	0.084787145
48	0x3f5e5802	0.8685304
49	0xbfcaaabb	-1.5833353
50	0xbed2b84d	-0.41156235
51	0x3e9a8744	0.30181324
52	0x3f90a250	1.1299534
53	0x3ee7c20e	0.4526524
54	0x3f67bf3c	0.90526175
55	0x3eb8c474	0.36087382
56	0x3f15d67e	0.58530414
57	0x3e8d1f68	0.27563024
58	0x3e993eb9	0.29930666
59	0xbfc946f9	-1.5724784
60	0x3e2605c3	0.16213135
61	0x3dcdf365	0.100561894
62	0x3f3b114d	0.73073274
63	0xbe33adfc	-0.17546839
64	0x3ea910fb	0.33020768
65	0xbfcc4e6f	-1.5961436
66	0x3ea5a8cb	0.3235534
67	0x3e1b92ce	0.1519272
68	0xc00412c2	-2.063645
69	0x3fcea56c	1.6144233
70	0xbff8691d	-1.9407078
71	0xbff66486	-1.9249427
72	0xbd13aa53	-0.036051106
73	0x3f4bd109	0.7961584
74	0x3e2a8174	0.16650945
75	0xbda542f9	-0.08069415
76	0xbf7a2059	-0.9770561
77	0x3eddedf3	0.43345603
78	0xbc2b8798	-0.01046934
79	0xbfd56bf5	-1.6673571
80	0x3f6a25c6	0.9146389
81	0xbf20d416	-0.6282362
82	0x3f03ff13	0.5156109
83	0xbf29feb2	-0.6640426
84	0x3f40afe2	0.75268376
85	0x3f9870a4	1.1909375
86	0x3e5bde34	0.21471483
87	0xbf0b03f7	-0.54302925
88	0x3eb2c3aa	0.34914905
89	0xbf80a201	-1.004944
90	0x3edf5db9	0.43626192
91	0x3f4e1e08	0.80514574
92	0x3f06c59b	0.5264527
93	0x3f8da473	1.1065811
94	0xbfee0b60	-1.8597221
95	0xbfabcd0d	-1.3421952
96	0x3e4dbf81	0.20092584
97	0xbfdef7d8	-1.7419386
98	0xbfa115a7	-1.2584733
99	0xbf550d49	-0.83223397
100	0x3f5738fa	0.84071314
101	0xbe774e9d	-0.24151082
102	0xbfd3671d	-1.6515843
103	0x3ff49f8c	1.911119
104	0xbe891402	-0.26773077
105	0x3ed175dc	0.40910232
106	0xbdb90c97	-0.090356044
107	0xbf12c10c	-0.57325816
108	0x3ea56ccd	0.3230957
109	0x3f58cd88	0.84688616
110	0xbea8704c	-0.32898176
111	0x3ebc4c52	0.36776978
112	0x3fa06441	1.2530595
113	0xbfd2d552	-1.647135
114	0xbf01c72f	-0.50694555
115	0x3f549e08	0.83053637
116	0x3eb7f702	0.3593064
117	0x3f83b1e2	1.028866
118	0x3e96c5e2	0.29447848
119	0x3f24ac3a	0.64325297
120	0x3fdf30b9	1.7436744
121	0x3ed20f79	0.4102743
122	0xbee72934	-0.45148623
123	0x3ffa09bd	1.9534222
124	0x3c58f57e	0.013242124
125	0xbe0a6bed	-0.13517733
126	0x3d2dde67	0.042448428
127	0x3f26e6c3	0.65195864
128	0x3f6bb697	0.92075485
129	0xbe445a4a	-0.19175068
130	0xbea9e3b5	-0.3318154
131	0x3f9c8986	1.2229469
132	0x3fc5962e	1.5436456
133	0xbfe73805	-1.8063971
134	0xbfc2f03d	-1.5229565
135	0x3d9b7688	0.075909674
136	0xbf12ec5d	-0.5739191
137	0xbf601f9c	-0.8754823
138	0x3f8da2ca	1.1065304
139	0x3faf4333	1.3692383
140	0x3ef22e73	0.47301063
141	0x3e3ea7ee	0.18618748
142	0xbebc742f	-0.3680739
143	0x3f019e44	0.5063212
144	0xbe20fac7	-0.15720664
145	0x3d8b7b45	0.06810621
146	0xc03aaf7b	-2.9169605
147	0xbf5ae2b6	-0.85502183
148	0xbf84f018	-1.0385771
149	0x3f2eecc5	0.6833003
150	0x3e830398	0.2558868
151	0xbf2b1582	-0.66829693
152	0x3fca2f1c	1.5795627
153	0xbd38ba2c	-0.045099422
154	0x3f0db675	0.5535653
155	0x3f8b6c62	1.0892451
156	0xbf9873d2	-1.1910346
157	0x3fb11d6a	1.3837101
158	0xbf143168	-0.5788789
159	0xbf89f8f6	-1.0779102
160	0xbf97066b	-1.1798834
161	0xc02545bc	-2.5823812
162	0xbe8ce884	-0.27521145
163	0x3fbc90af	1.4731654
164	0x3fb69b3f	1.4266127
165	0xbfa8255b	-1.31364
166	0x3ebd057f	0.36918256
167	0xbfcd9968	-1.6062441
168	0xc00b6d24	-2.1785364
169	0xbf6c5a13	-0.9232494
170	0xbfac4045	-1.3457114
171	0x3f0bc04d	0.545903
172	0xbf4e5d20	-0.8061085
173	0x3fcb4ae0	1.5882225
174	0xbec48b85	-0.38387695
175	0x3f3b5d8f	0.73189634
176	0x3fae8819	1.3635284
177	0xbf1afec3	-0.60544986
178	0x3fd5dbe6	1.6707733
179	0x3ece11fe	0.40248102
180	0x3cde7b31	0.027158352
181	0x3e0649a2	0.13114026
182	0x3f70e773	0.94103163
183	0xbe92c30c	-0.28664434
184	0xbf29adee	-0.6628102
185	0xbed4e60e	-0.41581768
186	0xbe309267	-0.17243348
187	0xbfceb1cb	-1.6148008
188	0xbe0c3b24	-0.13694435
189	0xbe24c542	-0.16090873
190	0xbe1d8576	-0.15382943
191	0x40240f2a	2.5634255
192	0xbf590123	-0.8476736
193	0xbf3fd3d5	-0.74932605
194	0x3f97c60e	1.1857316
195	0xbea2e237	-0.31813213
196	0x3fe049e0	1.7522545
197	0x3f6699b0	0.9007826
198	0x3eaeffbf	0.34179494
199	0xbe506e9d	-0.20354696
200	0x3f062d3e	0.52412784
201	0x3ed44135	0.41456
202	0x3d7f21b5	0.062288005
203	0xbf1c5394	-0.6106503
204	0xbe765d4f	-0.24059032
205	0xbf7d4dc2	-0.98946774
206	0xbf112fa7	-0.56713337
207	0x3e98aefd	0.29821005
208	0x3bd16005	0.0063896202
209	0x3fa87281	1.3159944
210	0xbf5121d6	-0.81692255
211	0x3f63a66f	0.8892583
212	0x3e98e4c7	0.29862043
213	0xbe75db64	-0.24009472
214	0xbf7cd55c	-0.9876306
215	0x3f2f0d55	0.6837972
216	0xbf1a77c9	-0.6033903
217	0xbf939f0b	-1.1532911
218	0xbed7a52b	-0.421182
219	0x3fc5fcc1	1.5467759
220	0x3dace7be	0.08442639
221	0x3f27efa7	0.65600055
222	0xbfadc553	-1.3575844
223	0x3eea8176	0.45801896
224	0x3eb59da6	0.3547184
225	0x3f329519	0.69758755
226	0xbf80cc37	-1.0062321
227	0xbe619bc1	-0.22032072
228	0xbf87130c	-1.0552688
229	0x3ec5c4f0	0.38626814
230	0xbfa58079	-1.2929832
231	0x3e877416	0.26455754
232	0x3e22def9	0.1590537
233	0x3fde2484	1.7354894
234	0x3f873e7b	1.0565943
235	0xbe28fb12	-0.16502026
236	0xbf68a07f	-0.908699
237	0x3febcd05	1.8421942
238	0xbd8da58c	-0.06916341
239	0xbf2327ac	-0.6373241
240	0xbec1c284	-0.37843716
241	0x3ed0bff3	0.40771446
242	0x3f305ec1	0.68894583
243	0x3fdc53ee	1.7213113
244	0x3f4d69df	0.8023967
245	0xbfce7682	-1.6129916
246	0xbf3dae2c	-0.7409389
247	0xbfe1c8b1	-1.7639371
248	0xbe45c253	-0.1931241
249	0xbfd1d450	-1.6392918
250	0x3d1f0795	0.03882559
251	0x3f02175b	0.5081689
252	0x3dd0d899	0.10197563
253	0xbff9606d	-1.9482552
254	0x3eb9f251	0.36317685
255	0xbf5498c1	-0.83045584

feature_bias f4 [11250]
0	0x3f5d4a2f	0.8644132
1	0x40372e86	2.8622146
2	0x4095dfd5	4.6835732
3	0x408fcb5c	4.493574
4	0x405cc2ad	3.449382
5	0x402ab2f1	2.6671717
6	0x3f29d85b	0.6634576
7	0x402e1a23	2.7203453
8	0x402ba017	2.681646
9	0x404d9182	3.212006
10	0x400a2baa	2.158915
11	0x407b1da4	3.9236841
12	0x3f1fbdcb	0.62398976
13	0x3f937aa5	1.1521803
14	0x4050e6c3	3.2640846
15	0x405325d2	3.2991834
16	0x3fd00241	1.6250688
17	0x4027a19f	2.6192396
18	0x3fd0a369	1.6299869
19	0x3f063b6e	0.5243443
20	0x407f8007	3.9921892
21	0x40997f61	4.796799
22	0x406da535	3.7132084
23	0x4070311d	3.7529976
24	0x405e4934	3.473218
25	0x40be5708	5.948124
26	0x40340400	2.8127441
27	0x40b6de29	5.714619
28	0x3f515fc5	0.8178676
29	0x402408b0	2.5630302
30	0x3eb8b1ce	0.36073154
31	0x404d51c4	3.2081156
32	0x40b0d93b	5.5265174
33	0x40abff77	5.3749347
34	0x40c61611	6.1901937
35	0x408531f5	4.1623483
36	0x3fa1141b	1.2584261
37	0x404b59d3	3.1773574
38	0x4031edc3	2.7801368
39	0x40a98151	5.2970357
40	0x40a6fbcd	5.2182374
41	0x4063fd19	3.5623229
42	0x407028a0	3.7524796
43	0x40803411	4.006356
44	0x40a59c56	5.175334
45	0x3f1f2f8a	0.62181914
46	0x40af998a	5.4874926
47	0x3ebf7b34	0.37398684
48	0x40c28e17	6.079845
49	0x401fe80a	2.4985375
50	0x40a96e14	5.2946873
51	0x40737df5	3.8045628
52	0x4052aece	3.2919192
53	0x40b6f061	5.716843
54	0x3ecf7be4	0.4052421
55	0x40b6fd04	5.7183857
56	0x40031a09	2.048464
57	0x40521469	3.2824957
58	0x40325648	2.7865162
59	0x3f5d12d6	0.86356866
60	0x4077d766	3.8725219
61	0x3d2c696a	0.04209272
62	0x40588690	3.383213
63	0x40a5f21d	5.185805
64	0x3fc21bc6	1.5164726
65	0x400417e1	2.0639575
66	0x40961047	4.689487
67	0x40890ef5	4.283076
68	0x40740657	3.812887
69	0x3fce4fde	1.6118124
70	0x406ef9f7	3.7340066
71	0x3ed87465	0.42276302
72	0x404d0cb7	3.203901
73	0x408c1a46	4.378207
74	0x4067e828	3.6235447
75	0x4048a78f	3.135227
76	0x3ffac292	1.9590628
77	0x3f2beb23	0.67155665
78	0x3fe26f7e	1.7690275
79	0x3fd7356a	1.6813176
80	0x3dc4f143	0.096163295
81	0x40bb9f07	5.8631625
82	0x40910ac5	4.5325646
83	0x408a1dfb	4.3161597
84	0x4060d8ea	3.5132394
85	0x403ccfc1	2.9501803
86	0x4073a9c4	3.8072367
87	0x402c8876	2.695829
88	0x40262c47	2.5964525
89	0x3f965116	1.1743495
90	0x403e562c	2.9740095
91	0x40a42476	5.129451
92	0x40b73fd9	5.726544
93	0x40839e5c	4.113081
94	0x408e7605	4.4519067
95	0x3f8c3c13	1.0955833
96	0x3fc50a59	1.5393783
97	0x402dc95d	2.7154152
98	0x403b8161	2.9297717
99	0x40129eaa	2.290934
100	0x3fbb9739	1.4655524
101	0x3f1805ce	0.5938386
102	0x40aee11f	5.4649806
103	0x40a9ceb2	5.3064814
104	0x4014d601	2.3255618
105	0x40a44f45	5.1346765
106	0x40c51333	6.1585937
107	0x3f9b4df3	1.2133163
108	0x404dabe7	3.213617
109	0x401453f9	2.3176253
110	0x40bcc2aa	5.8987627
111	0x3f8cf2c3	1.1011585
112	0x40a9046c	5.28179
113	0x4064a3af	3.5724905
114	0x4097c282	4.7424936
115	0x40896e25	4.2946954
116	0x405dcc92	3.465611
117	0x400ebebb	2.2303913
118	0x3e8713c2	0.26382262
119	0x40a5e8b9	5.1846585
120	0x4031dffa	2.7792954
121	0x40918373	4.547296
122	0x404fa39a	3.2443604
123	0x40496c51	3.147236
124	0x3fece1c2	1.8506396
125	0x40990c29	4.7827344
126	0x3fa24056	1.2675884
127	0x4053fece	3.312427
128	0x409b9c7b	4.8628516
129	0x40c090ae	6.017661
130	0x4016e579	2.357756
131	0x40641a9a	3.5641236
132	0x3f020578	0.50789595
133	0x3fc57907	1.542756
134	0x3fff4dee	1.9945657
135	0x3cad1761	0.021129312
136	0x3fb19195	1.3872553
137	0x40c22887	6.067447
138	0x40c73777	6.2255206
139	0x3fad9ab7	1.356284
140	0x40aa6b52	5.3256006
141	0x3db86820	0.09004235
142	0x3f983927	1.1892442
143	0x406a2176	3.6582923
144	0x408bc4f1	4.3677907
145	0x4017487d	2.3637993
146	0x3c6b5fc0	0.01436609
147	0x4042922c	3.0401716
148	0x409652d4	4.697611
149	0x40174665	2.3636715
150	0x3f9de4ef	1.233549
151	0x40a1c341	5.0550847
152	0x4036f037	2.8584116
153	0x403d4ed9	2.9579375
154	0x3fb01764	1.3757138
155	0x40aa9546	5.330722
156	0x40742c99	3.815222
157	0x407a2109	3.9082663
158	0x3fa64d0c	1.2992263
159	0x3fb5dfae	1.4208887
160	0x3f201895	0.6253751
161	0x404af548	3.1712208
162	0x409f8abd	4.985686
163	0x40881979	4.2531095
164	0x40150c8d	2.328891
165	0x400e8351	2.226765
166	0x400102b0	2.015789
167	0x406d6b8b	3.709689
168	0x40a41b49	5.1283307
169	0x3f6df508	0.92952013
170	0x400e7b60	2.2262802
171	0x405b303d	3.4248192
172	0x3f299ac0	0.66251755
173	0x403ce14f	2.9512517
174	0x3fc62953	1.5481361
175	0x40610af8	3.5162945
176	0x4004b4cf	2.0735357
177	0x403cf32f	2.9523427
178	0x3fa8c3fb	1.3184808
179	0x3e975976	0.2956044
180	0x3ff9f7a8	1.9528704
181	0x3fdfa784	1.7472997
182	0x3decbc45	0.11559347
183	0x401af6f1	2.421322
184	0x3e3e7d46	0.18602476
185	0x40146ee2	2.3192677
186	0x4090679d	4.512648
187	0x408a0c8d	4.314032
188	0x407660a6	3.849649
189	0x3f976a39	1.1829292
190	0x40bcb090	5.896553
191	0x407a6799	3.912573
192	0x40b16716	5.5438337
193	0x3f6edaf4	0.93302846
194	0x402ea185	2.7286084
195	0x40bf4ce5	5.9781365
196	0x3e832d6b	0.2562059
197	0x40a33609	5.100346
198	0x3fedf3d7	1.8590039
199	0x40abb3b2	5.3656855
200	0x40ac8cc7	5.3921847
201	0x408e0bcf	4.4389415
202	0x40594ea5	3.395425
203	0x40c45b60	6.136154
204	0x40bfdfd9	5.996075
205	0x4026ed92	2.6082501
206	0x40bc9fdb	5.8945136
207	0x40b125dc	5.5358715
208	0x3f0182d9	0.5059028
209	0x409165af	4.5436625
210	0x40463750	3.097126
211	0x404f1215	3.2354786
212	0x40a2340a	5.0688524
213	0x40a76867	5.2314944
214	0x408d0edd	4.4080644
215	0x403ebf40	2.980423
216	0x40aa2501	5.317017
217	0x40ab062a	5.3445024
218	0x3faff595	1.3746821
219	0x40a4c3c3	5.1488967
220	0x40997b8f	4.796333
221	0x4067984e	3.618671
222	0x3f064686	0.5245136
223	0x3f393cd2	0.7235843
224	0x3f85f503	1.0465397
225	0x40bda2c0	5.926117
226	0x3fb6357c	1.4235072
227	0x40a0ac5a	5.021039
228	0x3f861e5b	1.0478014
229	0x400a0e36	2.1571174
230	0x4069ff05	3.6561902
231	0x4005bdc2	2.089707
232	0x3f8375d5	1.0270334
233	0x40413694	3.0189562
234	0x40667f6b	3.601527
235	0x3fe15232	1.7603209
236	0x4055dfc2	3.341782
237	0x40c5b858	6.178753
238	0x406b795c	3.6792822
239	0x40c05baa	6.0111895
240	0x40b82299	5.7542233
241	0x3f253d73	0.6454689
242	0x3f810870	1.00807
243	0x403a97f6	2.915525
244	0x40928a03	4.579347
245	0x408bbd6f	4.366874
246	0x408236f9	4.0692105
247	0x40be3bf5	5.944819
248	0x408bd74e	4.3700323
249	0x4079a230	3.9005241
250	0x40954528	4.664692
251	0x4019310e	2.393619
252	0x3ec2ba73	0.38032874
253	0x40491e1f	3.1424634
254	0x3f8dbf8b	1.1074079
255	0x40af1060	5.470749

linear.weight f4 [1, 11250]
0	0xbf8f90b3	-1.1216034
1	0x400df938	2.218336
2	0xbe528519	-0.20558585
3	0xbd520e22	-0.05128301
4	0x3fce8169	1.6133243
5	0x3ff36f7e	1.90184
6	0xbfe0cf58	-1.7563276
7	0x3cf328a0	0.029682457
8	0x3ef234cd	0.4730591
9	0x40085f12	2.1308026
10	0x3fb0dbf9	1.381713
11	0x3f81fb21	1.0154763
12	0xbf34a0fc	-0.7055814
13	0xbf0051c8	-0.5012479
14	0x3f7e0990	0.9923334
15	0x4006831b	2.101752
16	0xbe88d6d4	-0.267264
17	0x3f9f4fbd	1.2446209
18	0x3ea1ed94	0.3162657
19	0xbfce862d	-1.6134697
20	0x3fa55c97	1.2918881
21	0xbe86df7a	-0.26342374
22	0x3fe9fc34	1.8280091
23	0x3ffbaecf	1.9662722
24	0x3faa9924	1.3327985
25	0xbfb5bcef	-1.4198283
26	0x40114de9	2.2703803
27	0xbfe1e3d0	-1.7647648
28	0xbfc2bb78	-1.5213461
29	0x3fc3af34	1.5287843
30	0xc006b060	-2.104515
31	0x40141985	2.3140576
32	0xbfca0d05	-1.5785223
33	0xbf81167d	-1.0084988
34	0x3e3b4d3a	0.18291178
35	0x3f074bcb	0.52850026
36	0xbef95b73	-0.48702583
37	0x3f4addbc	0.7924459
38	0x3fc705de	1.5548666
39	0xbfaabd7a	-1.3339074
40	0xbfa42e37	-1.2826604
41	0x3fe22130	1.7666378
42	0x3e1528be	0.14566323
43	0xbce0531e	-0.027383383
44	0xbf0ba9b4	-0.5455582
45	0xbff13ae7	-1.88461
46	0xbf92c005	-1.146485
47	0xc00f51a4	-2.239358
48	0xbfa69858	-1.3015242
49	0x3e8592a3	0.26088437
50	0xbfb5d508	-1.4205637
51	0x3ff3d4f1	1.904936
52	0x3f77aeb9	0.9675098
53	0xbfcc2305	-1.5948187
54	0xbfb22ded	-1.3920265
55	0xbfdc1b35	-1.7195803
56	0x3f0fd072	0.5617744
57	0x40121925	2.2827847
58	0x4002c727	2.0434053
59	0xbd085077	-0.033279862
60	0x3fe9b883	1.8259434
61	0xc017cdae	-2.3719287
62	0x3fdb114a	1.7114651
63	0xbf973d77	-1.1815633
64	0xbeb935ad	-0.36173764
65	0x3e674d3c	0.22588056
66	0x3e8dd716	0.2770316
67	0x3f8a1053	1.0786232
68	0xbdba2fe5	-0.090911664
69	0xbe073524	-0.13203865
70	0xbd993397	-0.07480543
71	0x3dacabbf	0.084311955
72	0x401928cc	2.393115
73	0x3f641930	0.89100933
74	0x4008c4b5	2.137006
75	0x40185b2c	2.3805647
76	0x3f5340b1	0.82520586
77	0xbfea11f4	-1.8286729
78	0x3ef943da	0.4868458
79	0x3e01d461	0.12678672
80	0xbfae44b2	-1.3614714
81	0xbfe97417	-1.8238553
82	0x3f2e941d	0.6819475
83	0x3eacfb6c	0.3378557
84	0x3fd54357	1.6661175
85	0x3f39b7b0	0.7254591
86	0x3ff6d337	1.9283208
87	0x3ff6dc50	1.9285984
88	0x3fe11b03	1.7586368
89	0xbdc742e7	-0.097295575
90	0x40018fa1	2.0243914
91	0xbe7ab0ff	-0.24481581
92	0xbfc20d7a	-1.5160363
93	0x3f585c6f	0.8451604
94	0xbcf05db4	-0.029341556
95	0xbc47271f	-0.012155323
96	0xbe5d0d55	-0.21587117
97	0x3d64cd60	0.055859923
98	0x3f407ed1	0.75193506
99	0x3fa27a79	1.2693626
100	0xbf0dccc6	-0.55390584
101	0xbfe7f87f	-1.812271
102	0xbe2f457c	-0.1711635
103	0x3d5aab74	0.053386167
104	0x3fda061c	1.7033114
105	0xbf1e5f20	-0.618639
106	0xc018203c	-2.3769674
107	0xbeaccc08	-0.33749413
108	0x40105f66	2.2558227
109	0x3f315106	0.69264257
110	0xc009e504	-2.154603
111	0xbf9c1283	-1.2193149
112	0xbde8c0dc	-0.1136491
113	0x3da3c573	0.07996645
114	0xbec1a596	-0.37821645
115	0x3f791fbe	0.9731406
116	0x400a4ab5	2.1608098
117	0x3ebf740a	0.37393218
118	0xc00ed0dd	-2.231498
119	0xbef9eed1	-0.48815015
120	0x3c84ca68	0.016209796
121	0x3f21aee5	0.6315749
122	0x40038839	2.0551894
123	0xbdf7ed19	-0.1210577
124	0x3f2748a5	0.6534522
125	0xbe84422b	-0.25831732
126	0xbf3e0468	-0.74225473
127	0x3fea549d	1.8307072
128	0x3e481235	0.19538195
129	0xc013184c	-2.298358
130	0x3fde8081	1.7382966
131	0x3f50b2c2	0.8152276
132	0xbe9ab3b8	-0.3021524
133	0x3d31f8a9	0.04345003
134	0x3e9396a8	0.2882588
135	0xc018c8be	-2.3872523
136	0xbb9291ae	-0.004472933
137	0xbfb9f228	-1.4527025
138	0xbf70f197	-0.94118637
139	0xbeb547ab	-0.3540624
140	0xbf6d35f7	-0.9266047
141	0xc015927b	-2.3370655
142	0xbf14d365	-0.5813506
143	0x3ff4e9a2	1.9133799
144	0x3f2dd14b	0.6789748
145	0x3fd5d1c2	1.6704638
146	0x3d705900	0.058678627
147	0x3fbb9e71	1.4657727
148	0xbebaf551	-0.36515287
149	0x3f780674	0.96884847
150	0xbf7092ce	-0.93974006
151	0xbf73450c	-0.9502723
152	0x3e27c8bf	0.16385172
153	0x401704db	2.3596714
154	0xbf39dbea	-0.7260119
155	0xbe8bc438	-0.2729814
156	0x3ed5810e	0.41700023
157	0x3f081437	0.53155845
158	0xbe381dbe	-0.17980096
159	0x3e61b3eb	0.2204129
160	0xbef405bc	-0.47660625
161	0xbe1c66b7	-0.15273558
162	0xbf4c5b42	-0.7982675
163	0x3eaddb78	0.33956504
164	0x3dea132c	0.11429438
165	0x3f19ab22	0.6002675
166	0x3f36aa1d	0.7135332
167	0x3dafa785	0.08576874
168	0x3e0f5587	0.1399747
169	0xbeeb177e	-0.4591636
170	0x3f0b4b2e	0.5441159
171	0x3ffe631d	1.9873997
172	0xbf778f5a	-0.9670311
173	0x3e27a182	0.16370204
174	0x3e5bc190	0.21460557
175	0x3fd86b95	1.6907831
176	0x3cc8b435	0.024499992
177	0x3ff51fdc	1.9150348
178	0xbe0b7fa2	-0.13622907
179	0xc008fb99	-2.1403563
180	0x3f61bbab	0.88176984
181	0x3ea401a7	0.3203251
182	0xbfa88329	-1.3165027
183	0x3fea7ee9	1.831998
184	0xbfd741bf	-1.6816939
185	0x3fd5541c	1.6666293
186	0x3eb27065	0.34851375
187	0xbd7505ed	-0.059820104
188	0x3fdc894f	1.7229403
189	0xbf48f9df	-0.78506273
190	0xc00eaad4	-2.2291765
191	0xbe14081c	-0.14456218
192	0xbfac00a2	-1.3437693
193	0xbf2922b4	-0.6606858
194	0x3f1d432a	0.6143061
195	0xc00d1c13	-2.2048385
196	0xbd43b2ee	-0.047778063
197	0xbe0e56df	-0.13900326
198	0x3ec8f228	0.3924725
199	0xbfc44599	-1.533374
200	0xbf7e65a9	-0.9937387
201	0x3f57e5a6	0.8433479
202	0x4014f37b	2.3273609
203	0xbff25d28	-1.8934679
204	0xc010d70c	-2.2631254
205	0x3f9cc65f	1.2248038
206	0xbff52557	-1.915202
207	0xbfc2c90c	-1.5217605
208	0xc005a596	-2.0882316
209	0x3ec18780	0.3779869
210	0x3fc2cef7	1.5219411
211	0x3fb3aa5c	1.4036365
212	0xbf165025	-0.5871604
213	0xbfa624ca	-1.2979977
214	0xbc9eb1e7	-0.01937194
215	0x3fd5060c	1.664247
216	0xbfaf2656	-1.3683574
217	0xbf4ee4be	-0.8081778
218	0xbe024880	-0.12722969
219	0x3d48eab1	0.049051944
220	0xbe085beb	-0.13316314
221	0x3fe0af80	1.7553558
222	0xbea84778	-0.32867026
223	0xbfe1f2a1	-1.765217
224	0xbfa7e2b9	-1.3116065
225	0xbfbcb1a2	-1.4741709
226	0x3e5c0372	0.2148569
227	0xbf5a5de9	-0.85299546
228	0xbe4a6b59	-0.19767512
229	0x3f7a0d9e	0.9767703
230	0x3ed2e91d	0.41193476
231	0x3f760b8d	0.96111375
232	0xbfa88fa0	-1.3168831
233	0x3d1e4580	0.0386405
234	0x3f8e4d13	1.1117271
235	0x3f10cb14	0.5655987
236	0x3f9e9af4	1.2391038
237	0x3d59f09e	0.053207986
238	0x4001d9bf	2.0289152
239	0xbfec7bfe	-1.847534
240	0xc00095ef	-2.0091512
241	0xbff0dccc	-1.8817382
242	0xbf9f24b9	-1.2433082
243	0x3d39cf42	0.045363672
244	0x3f179210	0.5920725
245	0xbd7bf788	-0.06151536
246	0x3f2b17ea	0.66833365
247	0xbd282949	-0.041054998
248	0x3f26635b	0.64995354
249	0x3c923fdb	0.017852714
250	0x3e1212d2	0.14264992
251	0x3fa09533	1.2545532
252	0xc00ef37a	-2.2336106
253	0xbde858b9	-0.113450475
254	0xbf9a2c09	-1.2044688
255	0xbfa8ab47	-1.317727
