results/SNGP_FINAL_RESULTS/SNGP/SNGP_R750_LS0.25_OS2.75_5000CrazySin/model.pt (torch, 10758 bytes, 3 tensors)

feature_weight f4 [750, 1]
00000000: ae6e 17bf 2d9e 7c3f 735f 233d 56b5 24be
00000010: 3b19 2bbf 5cbf 78bf e5ef be3f 1aa0 683f
00000020: 18d3 69bf eaee f13f 2f3f 77bf 2e40 d73e
00000030: e049 963e c9b0 07bf d9c2 8d3e 9465 a53a
00000040: f7a3 ccbe 6158 a13d c362 c2bf c4cc 023f
00000050: e864 023f e5ce 97bf 7c43 f43d e149 cbbe
00000060: e501 93bf fb40 58c0 9926 48bf 5cf4 0a40
00000070: c18a 31c0 188c 223f d36e e5be 5976 4dbf
00000080: e17c 1fbf 517e 7e3f e6ab c43f 4f65 f7bf
00000090: 222c 01c0 ee56 c63c 4bc8 f43e 2654 b6bf
000000a0: b9d7 af3e 6b0f 8cbf 6803 8a3e 5b5c 03bf
000000b0: f05c 9abf f722 0bbf 7619 a1be 082d f73d
000000c0: bc13 773f b64f d6be 785f 473f 814c 0940
000000d0: e7be 6dbf 36bf 9f3e 23ae 953f b25d 273f
000000e0: a39b 8c3f 659c 573f 99d4 0abf 08cb d9be
000000f0: 158a 34be 08e5 89bf bdc6 233f 8d85 433e
00000100: 35ea f6bd 0e31 8d3e b823 233f 4579 18bf
00000110: 9765 1c40 e4c5 47bf 0d8f 333f 93c1 55bf
00000120: 8d1d 473f 85bd 54bd 2f4e 81bf 5639 11bf
00000130: 4587 1d3e c2e3 1f3e cadb 79bf c7e7 17bf
00000140: b9e1 8a3f c757 363f 4b82 64bf ad71 c93f
00000150: a259 97bf a5ae 07bf 397a 2fc0 c6bf 96bf
00000160: bfdf c83f 56e9 7e3f a351 4abe 3e39 b83e
00000170: db9e 1f3b 748e 72bf 095b 893f 36ee cb3f
00000180: 6b08 67bf 15c1 2a3f 1b89 933e ba51 ab3f
00000190: ac0c dd3e b79f 1c3f 9e03 9d3e d266 173d
000001a0: 5ea0 57bf ff28 8b3e 2952 b23e 83bd 8cbf
000001b0: 36bc 993f df48 323f 5ea2 a8bf aa1f dcbe
000001c0: 4248 f13f 39c0 6ebf 5ac4 f0bd 46af 0fbf
000001d0: 3951 773f 06ca fa3e 5a2c c4be 9c81 3abf
000001e0: 3b35 f6bf 83dd 073f 2fda 213a 542d 243f
000001f0: b768 5f3f ade0 9bbe 2588 b03e febe 0e3e
00000200: 951d cf3e 0ee9 be3f aba0 abbe e79e 89bf
00000210: 289d 303f bda2 c03f 0f25 0c40 2bb6 523f
00000220: 7629 193f 43aa 12bf 6ff5 d2bf 26a6 acbf
00000230: 12b0 a1be 7b05 dd3e 5b56 93bf 2620 013f
00000240: 5d27 063f 9e5f 693f 2730 cd3f c89e 1abf
00000250: 74dc b8bd 6c4f 8ebf 75f9 973e 5e7a 343e
00000260: 14cb 9b3f b0ba 983f c9fa c8bf c399 59bf
00000270: 8490 7f3e 8794 ee3c f2ab aa3d 62f5 c03e
00000280: b4db 513f fc71 043e a53b b2be 9717 9bbe
00000290: cb45 473f ecd4 883f 4cbb 8c3f 4292 593f
000002a0: 7a15 c13e 5c5b 1dc0 190e d9be 199f c9be
000002b0: c752 963e 2910 c6bf 3e8a 1fbf 33c7 66be
000002c0: 3cc1 21bf 585f 1f3f c0ed 52be a21a 993f
000002d0: 869f cdbe 7852 0cc0 cc3f 223f da3d 63bf
000002e0: 48ff 39bf 06a1 623f d809 863f a5b8 1dbe
000002f0: 6a88 50bf 991d 61bf c910 bbbd ed4e 86be
00000300: 70d9 8bbe 3b47 a13f f582 6dbf 1b70 cf3e
00000310: 7749 86bf 0f1a a03d 421b 9cbf a7d3 563f
00000320: b7ef bfbe a488 3fbe b50c 403f 0797 633f
00000330: f65f 7a3d 2bed fcbd 7ef7 ef3e f44d 843f
00000340: bf09 4bbf 8e6d 17c0 87aa 84bf a710 0ac0
00000350: 5755 ea3f b1a8 183f 58a5 1bbe 5e76 37c0
00000360: 29fa 8bbe d1c8 af3f bdff 173f f94e 74bf
00000370: cb14 1a3e b37c 0e3f 6325 98be 0be9 9a3e
00000380: 77a2 2dbf 9f56 55be 31db ba3f 2828 443f
00000390: 3b19 a63f de64 3e3f 2cdc 52be 683f b23f
000003a0: d25e 5a3f 7e52 88bf edc1 e33e e3ca 9e3f
000003b0: e715 823e 3a44 f63d f0cb 38bf e60c 73bf
000003c0: 6770 8ebf 02b9 12be 6522 8c3f e4ee 973f
000003d0: c8bf b43e cfa9 27be 92d3 61bf 83ee 76bd
000003e0: 20aa 0640 196b 8abf 5e82 9cbe 44c9 f2be
000003f0: 4b86 af3e fd34 993f f4f6 813f 5674 1c3e
-0.5915326 0.9867886 0.03988595 -0.16084799 -0.66835374 -0.9716699 1.491696 0.90869296
-0.9133773 1.8901036 -0.96580786 0.42041153 0.29353237 -0.5300413 0.2768772 0.0012618774
-0.39968845 0.07878185 -1.518639 0.510937 0.5093522 -1.1860014 0.11926934 -0.39704803
-1.1484953 -3.378966 -0.78183895 2.1711645 -2.7740939 0.63495016 -0.44811115 -0.8025871
-0.62299925 0.99411494 1.5364959 -1.9327792 -2.0183187 0.024211373 0.4780906 -1.424443
0.3434427 -1.0942205 0.26955724 -0.513128 -1.2059612 -0.5435023 -0.31464738 0.12069136
0.9651449 -0.4185769 0.7788005 2.1452944 -0.9286942 0.3120057 1.1693767 0.6537734
1.0984997 0.84223014 -0.5423065 -0.42537713 -0.17630799 -1.077302 0.63975126 0.19093914
-0.1205639 0.27576488 0.6372638 -0.5956004 2.4437006 -0.7803633 0.70140153 -0.83498496
0.77779466 -0.051938552 -1.0101985 -0.5672811 0.15383632 0.15614226 -0.97600996 -0.5933804
1.0850135 0.7122769 -0.8926131 1.5737816 -1.1824229 -0.5300086 -2.7418349 -1.1777275
1.5693282 0.9957479 -0.19757704 0.35981172 0.002435616 -0.94748616 1.0730907 1.5932071
-0.9024722 0.6670087 0.2881554 1.3384316 0.4317373 0.61181206 0.30666822 0.03696329
-0.84229076 0.27179715 0.34828308 -1.0995334 1.2010562 0.6964244 -1.317455 -0.42992908
1.8850176 -0.9326206 -0.11756201 -0.5612682 0.9660831 0.48982257 -0.38315088 -0.7285402
-1.9234995 0.53072375 0.00061741745 0.64131665 0.8726916 -0.30444852 0.3447887 0.13940045
0.40452257 1.4914873 -0.33521017 -1.0751618 0.689898 1.5049664 2.1897619 0.82309216
0.5982889 -0.5729105 -1.648115 -1.3488204 -0.31579643 0.43168244 -1.1510729 0.5043968
0.52403814 0.91161525 1.603032 -0.6039853 -0.09026423 -1.1117988 0.29682508 0.17624804
1.217135 1.1931973 -1.5701534 -0.85000247 0.24957472 0.029123558 0.08333577 0.37687212
0.81975865 0.12934107 -0.3481113 -0.30291435 0.7784087 1.0689979 1.0994658 0.84988797
0.37711698 -2.4587011 -0.42393568 -0.39379194 0.2936003 -1.5473682 -0.62320316 -0.22536926
-0.6318548 0.6225486 -0.20598507 1.1961253 -0.4016077 -2.1925335 0.63378596 -0.88766253
-0.72655153 0.8852695 1.0471754 -0.15402468 -0.8145815 -0.8793579 -0.09134061 -0.2623209
-0.2731433 1.2599863 -0.9277795 0.40515217 -1.049117 0.0781747 -1.2195818 0.83916706
-0.37487575 -0.18704468 0.7501939 0.88902324 0.06112667 -0.12349924 0.4686851 1.033629
-0.79311746 -2.3660617 -1.0364541 -2.1572664 1.8307294 0.596324 -0.15199792 -2.8665996
-0.27339295 1.3733159 0.593746 -0.95433 0.15046994 0.55659026 -0.29716024 0.30255923
-0.67826027 -0.20833825 1.4598142 0.76623774 1.297645 0.7437266 -0.20591801 1.39256
0.85300934 -1.0650175 0.4448389 1.2405666 0.25407335 0.12024732 -0.72186184 -0.94941556
-1.1128052 -0.14328387 1.0947996 1.1869779 0.35302567 -0.1637337 -0.88213456 -0.060286056
2.1041336 -1.0813934 -0.30568212 -0.47419178 0.34282145 1.1969296 1.0153489 0.15278754

feature_bias f4 [750]
00000000: fc6e 6d40 60c6 ab40 feea 0140 cd30 3b3f
00000010: 687a a740 462d 773f 12c0 b440 3ce2 7140
00000020: e8ac 5640 e583 9440 1707 8040 1f0c 9740
00000030: fb85 dc3f f2f9 a940 585e 2f3f a3b5 6640
00000040: d25c 2340 1e33 8440 fa6c 903f 3061 2840
00000050: 85a6 9c40 c108 5540 d4e0 2540 17e3 7a3f
00000060: b0cf 9740 75b0 8340 e71e c240 edf5 543e
00000070: 1dc0 d83f a70f 9440 b634 b53e c091 cc3f
00000080: b1ba 283f 18be bc40 06f8 0640 83da 3c40
00000090: 4d23 d43f b640 0a40 463a ac40 1060 f13f
000000a0: c945 b73f 80ce a940 815a 4840 e8e2 6240
000000b0: 43ec b740 b2c8 2040 a13e cf3e d4e2 ac40
000000c0: 3111 c83f 3510 7240 d106 8440 88ab dc3e
000000d0: 7add 9a40 95c0 b640 1011 c540 9211 9b40
000000e0: d289 683f d597 ad40 145d 2340 6dd4 b040
000000f0: 0536 443f 2c33 1f3f 5dc0 5a40 ce7f 9440
00000100: 80cd 6f40 3cce 2440 2160 a040 e9c1 4140
00000110: 05a7 073f 9e8b 5f40 fcdc c240 4f0d a540
00000120: 8414 1740 43cb 9640 21d4 343f 974a d63f
00000130: b2e2 fd3f 049a 8240 6c0a 0a40 3938 ae3f
00000140: f3d0 4c40 9024 2c40 48f1 a240 6213 6c3f
00000150: 5a1e 8c40 f510 6340 f650 3a3f 716a 9840
00000160: a2e4 1640 4e9f 0640 6d4c 6840 47ee c33f
00000170: 10c1 2440 61a9 2940 4d4e 0640 a1f6 8c40
00000180: b04b bf3e 59a9 0a40 7a61 9f40 aef5 693f
00000190: 9d8b 9140 6a43 5f40 2492 c740 b1aa 0040
000001a0: aa58 5f40 dcec a740 a9b3 b93f 7a45 ba40
000001b0: 3f32 bc40 c8a4 813f 71b7 a540 d886 873f
000001c0: e9f1 dc3f 35b6 863f 995f 0e40 5efa b840
000001d0: fa1f f13f 926f 2240 cbc2 9440 66a2 893f
000001e0: 54d3 b640 80a3 c040 ac43 3240 becc c93e
000001f0: 0b53 a140 078c 0140 0791 6d40 28b0 2840
00000200: 89b4 773f 251e 7840 8abf b640 ecfe 9140
00000210: f99f b940 f415 033f cb3e 2840 c128 c040
00000220: f10f 9940 00d7 5840 3ab2 803f 110c 3140
00000230: 94fd 743d 219e 473f 4f09 a040 4cc6 4a40
00000240: 2fab 9640 59aa 8c3f 4371 9340 d409 2940
00000250: d8be a13f 307b 9340 8680 1a40 6aa4 643f
00000260: 2333 a140 e349 2940 955c 0a40 257b 8140
00000270: f095 7840 7aa7 ad40 2bfd f63f 64ac 6c40
00000280: bfbd 1340 58f7 7340 d065 9c40 ee07 6640
00000290: 19bd 8940 3ea2 7d3f 911e ed3f 5d82 6840
000002a0: f69a a940 be2e b03f 7b4e 9840 09d3 8a3f
000002b0: e4c7 0340 3dc0 ad40 b806 bf3f f297 373f
000002c0: 946e 063e 36ba ad40 4d5e 3440 0aa1 8940
000002d0: a518 6640 ad5c bc40 28f7 2a40 0c33 2340
000002e0: 0096 a440 6ec9 a640 b28a fa3f 3570 7e40
000002f0: d541 9040 79a3 e13f 94cf c740 1452 8640
00000300: 4403 ad3f 128b 783f 79dd 4040 5aa2 7d40
00000310: 979a ad3f e0da 0840 37ff ad40 fe6d 9640
00000320: 6450 3040 5d1a 9d3f c77a cc3f 4967 193f
00000330: ba02 a540 76cc 8740 ca46 8940 139e 2240
00000340: f4da 5540 58ad 8d3f 4225 b040 38d2 2b40
00000350: 68aa 2240 1196 dc3f e88d 8e3f 5a39 ae3f
00000360: 3b72 4e3d 2eea e83f b3a6 9f3f 15f8 053e
00000370: 5aed 9f40 3129 3740 5efb b440 75c7 c140
00000380: 19ca 993e 599e 8540 0d74 9d40 ad21 763f
00000390: 8207 c840 b513 513e 4275 1640 dfb7 843f
000003a0: d115 dc3f 4082 e13e ad4a ad3e 3974 b33f
000003b0: 0b26 9440 3f6c d83e d778 7240 48aa 0040
000003c0: a80a 4e3f ee52 a33f e84d 7b40 b800 bc40
000003d0: da10 5e40 b1f1 9b40 6bdd bb3e 0d81 3d40
000003e0: c18a c540 c439 6f40 6c30 7340 3932 a440
000003f0: 769c a740 a588 8a3f 8d50 cc3f 0f40 3b40
3.709899 5.3679657 2.0299678 0.7312134 5.233692 0.96553457 5.648446 3.7794333
3.3543034 4.6411004 4.0008655 4.7202296 1.7228388 5.311761 0.6850333 3.6048362
2.5525403 4.13124 1.1283257 2.6309319 4.895327 3.3286593 2.5918474 0.9800276
4.7441025 4.11529 6.0662723 0.20796938 1.6933628 4.6269107 0.35391778 1.5981979
0.6590987 5.898205 2.1088881 2.950837 1.6573273 2.1601996 5.3821135 1.8857441
1.4318172 5.3064575 3.130524 3.5450993 5.7475905 2.5122495 0.4047747 5.402689
1.5630246 3.7822392 4.125832 0.43099618 4.8395357 5.7110085 6.158333 4.845895
0.908353 5.424784 2.552556 5.525931 0.7664493 0.6218746 3.417991 4.640601
3.7469177 2.5750875 5.0117345 3.0274603 0.52989227 3.4928966 6.0894756 5.1578746
2.3606272 4.712312 0.70636183 1.6741513 1.9834807 4.0813007 2.156886 1.3610908
3.2002532 2.6897316 5.0919533 0.92217076 4.378705 3.54791 0.72779787 4.7629933
2.3577046 2.1034732 3.6296647 1.5307091 2.5742836 2.650963 2.098529 4.405106
0.37362432 2.1665862 4.980649 0.913905 4.5482926 3.4884896 6.2365894 2.0104182
3.4897866 5.2476635 1.4507953 5.820981 5.8811336 1.0128412 5.1786427 1.0588026
1.7261325 1.0524355 2.2245848 5.7805624 1.8837883 2.5380597 4.6487784 1.0752685
5.713297 6.0199585 2.7853804 0.39414018 5.041387 2.0241716 3.7119768 2.6357517
0.9675985 3.8768399 5.710881 4.5623684 5.800778 0.5120537 2.6288326 6.004975
4.783196 3.3881226 1.005439 2.7663615 0.059812143 0.7797566 5.0011363 3.168353
4.7083964 1.0989486 4.607576 2.6412249 1.2636366 4.6087875 2.4140944 0.89313376
5.0374923 2.6451347 2.1619008 4.0462823 3.8841515 5.426694 1.9296011 3.698022
2.3084562 3.8119717 4.8874283 3.594234 4.304333 0.99075687 1.8524953 3.6329567
5.300166 1.3764265 4.75958 1.0845653 2.0590754 5.4297166 1.4923925 0.71716225
0.1312812 5.428981 2.8182557 4.300908 3.5952542 5.886313 2.6713352 2.5499907
5.1433105 5.2120886 1.9573576 3.9755986 4.508036 1.7628013 6.244089 4.1975193
1.3516622 0.97087204 3.0135176 3.9630342 1.3562802 2.138359 5.437404 4.700927
2.7549067 1.227367 1.5974969 0.59923226 5.156583 4.2437086 4.2898912 2.540898
3.3414888 1.1068525 5.504548 2.6847057 2.5416508 1.7233297 1.1137056 1.3611252
0.050401907 1.8196466 1.2472748 0.13082917 4.9977236 2.8618891 5.6556845 6.055598
0.30037 4.1755795 4.9204164 0.96145135 6.2509165 0.20417674 2.3509068 1.0368613
1.7194158 0.44044685 0.33846036 1.4019843 4.629644 0.42270085 3.7886255 2.0103931
0.8048501 1.2759683 3.92663 5.8750877 3.4697785 4.8732533 0.36692366 2.9610016
6.1731877 3.7379007 3.7998304 5.1311307 5.237849 1.0822951 1.5962082 2.9257848

linear.weight f4 [1, 750]
00000000: c808 833c 7624 b23b 7783 5ebc 4d7c 9fbc
00000010: d8aa 11bd 88c3 c13c d936 103c 5407 613a
00000020: d70c 9fbd aa2d 853d 3455 42bd 30ea 4e3d
00000030: 4260 5dba 2d1b 273d 57f8 9bbb 9d59 d2bc
00000040: c905 ac3c de24 06bd db03 bcbd 4d0b 8d3b
00000050: 03e1 2abc 0d3a e13c 955f 113d 04bd de3c
00000060: 0d89 6e3d e23a a33d 6eea dcbc 334d 613e
00000070: 30ae 503e 1926 bcbb aecd 5f3d 9a4d 13bb
00000080: 38b2 20bd f56c 60bc 10ec da3d 9579 4f3e
00000090: 93de 37be 7e43 a4bc 4918 013c 1490 6d3d
000000a0: 049a ce3b 0fee 583b 15a0 1b3d 175e 92bc
000000b0: 10a1 c93b 3bf4 15bd 73a6 40bc aa34 9ebc
000000c0: a8f4 4c3b e37e 8fbb f74e c1ba dddd ba3e
000000d0: 176e e2bb 259e d33b bc1f 77bd 2cff 86bc
000000e0: ca8c 22bd d1cf 723d b4b1 5f3c a2fb 5ebb
000000f0: 6664 c93b 1eb6 47bd 004e 29bb 29d7 febb
00000100: 0d0e 0c3b daa0 1e3c ba17 23bd b730 52bc
00000110: 91f7 92bf 7152 a7bb 3275 75bd 7164 4abd
00000120: 2b67 21bc 2e37 92ba 2688 a3bc b78d dfbc
00000130: bcbc f33c ff4d 0fbd aa84 e03c 940f 203b
00000140: 73dd 883d 87d1 213d 2e43 79bc 921f 05be
00000150: 81f3 d73c 3270 01bd 6852 b73e 0a35 ac3c
00000160: d553 993e bdec 3d3c 549f fb3c 03c6 38bd
00000170: caea 1ebb 0ea6 8c3c 8ea0 303d a7e3 813d
00000180: f398 8a3c bb2f 273d 37b4 223d 442e 233d
00000190: 314b 0fbc 37db 1d3d 57fa 163b 0edb d93b
000001a0: 3953 5cbd 0d9b f7bc 6d19 493c 78d5 dfbc
000001b0: 85a4 d8bc 8c1c 23bd 35f4 09bd ee0d 7a3c
000001c0: a93c 03bc c984 c33c e71b 25bd 65bb 183d
000001d0: fb73 1fbd bf63 32bd 31e1 a63b 8268 8ebc
000001e0: 5ad5 70be 4087 b6bc 5381 82bc ff70 be3b
000001f0: 14d5 d83c be10 543d b556 b4bc 0943 373d
00000200: 4cc9 06bd d82c 4f3d ac0e 803c 44ff ec3c
00000210: 4167 2ebd 6cb9 b3bd ea82 5a3e 832b 323d
00000220: b167 983a 56d6 2b3d 7dab fabe f5a6 06be
00000230: a118 aabc 25e9 7eba acf2 9f3c 4c6f 23bd
00000240: ba41 95bc 074d 9f3c 6f31 66bd 38a2 02bd
00000250: e0d4 5fbc 32a1 ec3b a0b5 9bbc 5ad7 a53c
00000260: 886e 0fbd 4604 a73b 2b95 263e 6183 ebbc
00000270: a1fa c83c cff0 8abc fab0 363c 8a1e fb3c
00000280: 764f 60bc cf78 02ba 781b 96bb f62e 1e3c
00000290: 9813 b339 5812 423c 929d 713d 5344 bfbc
000002a0: f24f f13c c70d 2240 5a7d d03b b9f0 3c3d
000002b0: db31 1c3c 1b2e e2bd d955 40bd 2747 79bc
000002c0: e60f e0bc 7d86 8abd 1a65 0ebb 0d1a c33c
000002d0: f8ee 013c 493f 443e fedf 683b e726 92bb
000002e0: e76f 25bc 9c52 e83c 891b 01bc 2cfd 6cbb
000002f0: d143 27bc 2936 2d3d a5b9 8b3c 60b3 57bc
00000300: c8f6 153d 70e8 40bb 9e2b dbbb af70 0bbd
00000310: decf 8e3c 9a35 3c3c e514 d4bc 9968 803d
00000320: 34e1 14bb 6b8f 0fbd 77e4 0fbd 048e 043d
00000330: 7de1 8fbc 0e63 7a3c 528e a73c 5db8 113d
00000340: ca1d db3c f811 823f b519 c8bb 73d3 afbe
00000350: 8ac2 1d3f 5577 723d b388 c8bc 1680 87bf
00000360: ab9b 49bc 41e9 13be b6cc 85bc e6e6 4e3d
00000370: ac53 85bb 1464 cabc e7e5 ebbc fb42 e2bc
00000380: b00a a5bb bec6 143c 4736 a73d 16ea 3fbd
00000390: 84a0 933d c595 69bd b082 2fbb 0ef6 a9bb
000003a0: c227 e2bb 3478 6abd 4be9 4e3d 0f65 11bc
000003b0: a0a0 143b f55a 1cbc bc55 7b3c c213 3c3a
000003c0: 3751 afbd 4d6c 9fbc 5e0f a73c 2ee5 94bd
000003d0: 8957 fbbc f85f da3c 2686 633d 7646 43bd
000003e0: f887 3a3e a485 c13c 5d31 b4bc 6a9e ad3c
000003f0: e128 333d 311d d2bc 91e2 a8bb 99a5 8a3c
0.015995398 0.0054364754 -0.013581148 -0.01946845 -0.03556332 0.023652807 0.008802139 0.0008584161
-0.07766121 0.0650285 -0.047444537 0.050516307 -0.00084448245 0.0407974 -0.004759829 -0.025677497
0.020998852 -0.032750003 -0.09180423 0.0043043257 -0.010429624 0.027493501 0.035491545 0.027189739
0.05823617 0.079702154 -0.026967254 0.22002105 0.20378947 -0.0057418463 0.05463951 -0.0022476674
-0.039232463 -0.013697852 0.106895566 0.20261224 -0.17955999 -0.020051714 0.007879325 0.05799873
0.006304981 0.0033100878 0.037994463 -0.017867131 0.0061532333 -0.03660987 -0.011758435 -0.019312222
0.0031273756 -0.0043791397 -0.0014748265 0.36497393 -0.0069100964 0.0064580613 -0.060333 -0.016479097
-0.03968505 0.05928022 0.013653208 -0.0034024497 0.0061460016 -0.048757665 -0.0025833845 -0.007777114
0.002137068 0.009681905 -0.03981755 -0.012828997 -1.1481801 -0.0051062633 -0.05992622 -0.049412195
-0.009851257 -0.0011155361 -0.019962382 -0.027289255 0.029753082 -0.034986492 0.02740701 0.0024423348
0.06682863 0.03950646 -0.015213771 -0.13000324 0.026361229 -0.03160114 0.35805058 0.021021385
0.2994677 0.011592087 0.030715622 -0.045110714 -0.0024248832 0.017169025 0.043121867 0.06342249
0.016918635 0.040817004 0.039722648 0.039839044 -0.008745954 0.038539138 0.0023037398 0.006648428
-0.053790305 -0.030225301 0.012274128 -0.02732347 -0.026445637 -0.039822146 -0.03368016 0.01526211
-0.008010068 0.023867028 -0.040309813 0.03728809 -0.038928967 -0.043552157 0.005092763 -0.017383818
-0.23518887 -0.02228129 -0.015930807 0.00581181 0.026468791 0.05177378 -0.022014001 0.044741664
-0.032906815 0.050579876 0.015631996 0.028930314 -0.04257894 -0.08775601 0.21339002 0.043498527
0.0011627582 0.041952454 -0.4895896 -0.13149627 -0.020763697 -0.00097240723 0.019524895 -0.039901063
-0.018219817 0.01944591 -0.056199487 -0.031892985 -0.013661593 0.0072213644 -0.019007504 0.02024429
-0.03501752 0.005096945 0.1626784 -0.02874917 0.024533572 -0.01696053 0.011150593 0.03065421
-0.01369082 -0.00049771083 -0.0045809112 0.009654751 0.0003415614 0.011845194 0.05898816 -0.02334801
0.029457066 2.532091 0.0063625993 0.04612801 0.009533371 -0.1104395 -0.04695687 -0.015214718
-0.027351331 -0.06763933 -0.0021727742 0.023816133 0.00793051 0.19164766 0.00355339 -0.004460204
-0.01009748 0.028359704 -0.0078801 -0.0036161644 -0.01020904 0.04228798 0.017056296 -0.013165325
0.036612302 -0.0029435419 -0.006688549 -0.03404301 0.017433103 0.011487389 -0.02588887 0.062699504
-0.002271724 -0.035048883 -0.03512999 0.032362 -0.017563576 0.015282406 0.020453606 0.035576213
0.026747603 1.0161734 -0.00610658 -0.3434101 0.6162497 0.059195835 -0.024479246 -1.0585964
-0.012305181 -0.14444448 -0.016332965 0.05051317 -0.0040688124 -0.024705924 -0.02879615 -0.02761983
-0.0050366744 0.009080587 0.081646495 -0.0468541 0.0720835 -0.057027597 -0.0026780777 -0.0051868027
-0.006901712 -0.05724354 0.050515454 -0.008874192 0.0022678748 -0.00954317 0.015340265 0.0007174575
-0.085604124 -0.019460822 0.02039307 -0.07270275 -0.030681388 0.02665709 0.055547856 -0.04767462
0.1821593 0.023623295 -0.021996194 0.021193702 0.043740157 -0.025648685 -0.005153962 0.016924666
