results/primary_sngp/SNGP/SNGP_R250_LS1.23_OS1.81_5000Sin/model.pt (torch, 4387 bytes, 3 tensors)

feature_weight f4 [250, 1]
000000 6e 4a df be dd c2 14 3f 48 5d a2 3f a0 16 d5 3e
       -0.43611473 0.5810984 1.2684717 0.41618824
000010 a9 48 3a be f4 f1 6d bf 1f 2c 24 bf 09 1d 41 3f
       -0.1819178 -0.92947316 -0.64129823 0.7543493
000020 99 fa eb bf 58 b9 15 3f 50 70 8b 3f e8 22 7f bf
       -1.8435851 0.5848594 1.089365 -0.9966264
000030 48 5a 83 bf 47 33 02 3f 81 7f c0 3e 49 44 39 bf
       -1.0261927 0.50859493 0.37597278 -0.7236982
000040 2f 98 c7 3f 98 26 1a be 06 28 cd bd 39 7c dc bf
       1.5593318 -0.15053785 -0.100173995 -1.722541
000050 b3 a7 aa be c6 77 b3 bf 64 9d c5 3f e9 34 dc 3f
       -0.3333107 -1.4020927 1.5438657 1.7203647
000060 b7 9d 21 bd da 99 e2 be 94 c9 91 bf be 11 45 bf
       -0.03945705 -0.44258004 -1.1389642 -0.769802
000070 e2 1c 8e 3f 7c 17 65 3f 04 a9 90 3f b5 69 af bf
       1.1102564 0.8948896 1.130158 -1.3704134
000080 7a e8 86 3f 75 15 0d 40 c0 e1 3a bf 8a 68 05 bf
       1.0539696 2.2044346 -0.7300072 -0.5211264
000090 5e 35 0e bf 03 43 6c bf 0b 94 b0 bf e1 5d d2 3f
       -0.5555018 -0.9228975 -1.3795179 1.64349
0000a0 81 57 21 bf 19 14 1c bf b6 fa 40 3f 69 84 32 3f
       -0.63024145 -0.60968167 0.75382555 0.6973329
0000b0 14 20 ff bf 66 cf af 3f 66 57 0c bd 5f 1d 83 bd
       -1.9931664 1.3735168 -0.034263037 -0.064020865
0000c0 32 ff a4 3f 1e ac b3 3f b6 46 21 bf 45 6c 36 bf
       1.289038 1.4036901 -0.6299852 -0.71258956
0000d0 7b 16 86 bf a0 f9 a2 3e 19 08 39 3f d3 28 87 3f
       -1.047561 0.31831074 0.7227798 1.0559334
0000e0 8b 18 af bf b6 8d a0 be 81 40 0f 3f 8f cc a2 bf
       -1.3679365 -0.31358117 0.559578 -1.2718676
0000f0 a2 74 14 bf 30 e9 36 bf 4d 76 6d 3f b0 c7 82 3f
       -0.5799047 -0.71449566 0.9275864 1.021719
000100 ca 2b b8 bf 6f bb 06 bc 66 71 e6 bf ef 04 b6 3e
       -1.4388363 -0.008223399 -1.8003356 0.3555064
000110 86 44 a6 3e f1 50 91 3f 0c e1 9e be f7 27 27 bf
       0.32474154 1.1352826 -0.31031072 -0.65295357
000120 a5 26 02 bf 1d 27 3b 3f 98 ae fb bd 7a cc 60 be
       -0.50840217 0.7310656 -0.122891605 -0.21953002
000130 ad 79 77 3f 01 2a 80 3e d2 df 59 3f 5c 29 f4 bf
       0.9667004 0.25032046 0.8510715 -1.9075122
000140 7b 46 7f be ee d2 27 3f 00 32 8c 3e 27 05 0d 3f
       -0.2492923 0.6555623 0.27381897 0.55085987
000150 9e d4 da 3f e7 dc f4 3c d2 63 4a 3f d2 4e 66 bf
       1.7096136 0.02989049 0.79058564 -0.8996402
000160 08 d2 f9 3f 0c 7c 1e 40 fb 4f dd 3f 53 87 ce bf
       1.9517221 2.4763212 1.7290033 -1.6135048
000170 fb 7a 28 3f 86 ef 67 3f 99 ee 73 3e 40 e9 46 3f
       0.65812653 0.9059986 0.23821487 0.7769966
000180 98 d5 86 3e 2b 97 11 bf 79 7c 02 bf a6 d8 41 3e
       0.26334834 -0.5687129 -0.5097118 0.18930301
000190 31 07 20 bf 2a a8 4a bf 79 de 84 3e 5d ce 75 3f
       -0.62510973 -0.7916285 0.25950983 0.9601801
0001a0 29 2b 46 3f 57 d4 0c be 06 36 89 3f a1 3a 67 3c
       0.7740961 -0.13752876 1.0719612 0.014113099
0001b0 b3 3c 3c be 08 82 78 bf fc df 37 c0 a7 5f 2c bf
       -0.1838253 -0.9707341 -2.873046 -0.67333454
0001c0 ea 03 a2 be b3 a1 f7 be 72 73 f1 be 20 c5 dc 3e
       -0.3164361 -0.48365554 -0.4715839 0.43119144
0001d0 f0 26 44 bf 39 59 2f bf 2f 84 b0 bf d7 5d 99 bf
       -0.76621914 -0.6849552 -1.3790339 -1.1981763
0001e0 6b b9 aa 3d e2 b5 f4 be 1f f8 0e c0 0d 29 65 3f
       0.08336147 -0.47795016 -2.233894 0.89515764
0001f0 af 61 9a bf ed b1 fd be d1 54 ba bf cf 28 ee 3e
       -1.2061061 -0.4954981 -1.4557134 0.4651551
000200 65 71 3d bd 93 1b 62 bf d4 a8 8a bf 03 cd e6 bd
       -0.04625072 -0.88323325 -1.0832772 -0.11269572
000210 9b 95 e2 3e 57 4d f5 3d 37 92 73 bf 9d 95 67 bf
       0.44254765 0.11977642 -0.9514498 -0.90462667
000220 1d 2c 6c bf 01 28 68 bf a8 3a 89 be 8a fa c9 bf
       -0.9225481 -0.9068604 -0.26802564 -1.5779583
000230 50 d0 44 bf f4 46 88 3e fe e4 01 3f 09 7f 83 be
       -0.7688036 0.26616633 0.5074004 -0.25682858
000240 c9 e7 d9 bf 52 27 44 3e 41 25 a8 bd 3e 37 84 bf
       -1.702386 0.19155625 -0.082102306 -1.0329359
000250 f6 d7 17 40 64 d1 80 3e c0 2b 4c 3f f3 c8 d0 bf
       2.3725562 0.25159752 0.7975426 -1.6311325
000260 ba c0 3a 3e 96 29 6b 3f 15 13 3e bf 2d 52 d1 be
       0.18237582 0.9186033 -0.74247867 -0.40883008
000270 96 f1 54 bf bd bc a2 bf 00 07 d4 3b b7 91 e0 3d
       -0.8318113 -1.2713848 0.006470561 0.10965293
000280 e8 af 01 bf 7a 0c 05 c0 f4 1f 5a be 6f a6 0e 3f
       -0.50659037 -2.0788865 -0.21301252 0.5572271
000290 1d 36 9c be 42 37 c9 3e c4 4d 63 3f 5b 77 d5 3e
       -0.30510035 0.3929997 0.88790536 0.41692623
0002a0 0e 29 a0 bf d7 48 0e bf 9a dc 40 be f6 58 8c 3f
       -1.2512529 -0.55579895 -0.18834153 1.0964649
0002b0 49 cf 67 3f 89 d1 54 bf d5 f3 c5 3f 33 70 7c 3f
       0.9055067 -0.83132225 1.5465037 0.986087
0002c0 e7 c7 84 3e cb 33 e1 3e 4b 41 4e 3f 02 cf 39 be
       0.25933763 0.43984827 0.8056838 -0.18145373
0002d0 4a 3e cc be 48 da 30 3e 86 4d 26 bf 63 f8 8f 3f
       -0.39891273 0.17270768 -0.6496204 1.1247677
0002e0 61 c3 c6 3e 8b 34 d4 3e e8 ad 9f bf 94 f6 11 3f
       0.38820937 0.41446337 -1.2474947 0.57016873
0002f0 a7 0f 2c 3f 7b f4 14 bf 3f 96 bf 3f d7 1c 5b be
       0.67211384 -0.5818555 1.4967726 -0.2139772
000300 93 75 ed 3e a2 ec a2 bf b2 3b 0b 3d 70 3a e5 bf
       0.46378765 -1.2728465 0.033992477 -1.7908459
000310 62 ca 7d 3e e1 90 57 bf 6b 69 ae be 89 e7 4d 3f
       0.24784234 -0.8420544 -0.34064803 0.8043142
000320 b3 67 b7 bf c8 f1 67 3f eb 8a 33 be 18 fa 37 3f
       -1.4328521 0.90603304 -0.17533462 0.7186599
000330 fb 0a 87 bf 7b 41 44 bd 71 32 78 be d9 09 95 be
       -1.0550226 -0.04791401 -0.24237992 -0.29109076
000340 b9 88 ea 3e 01 6b 76 bf 64 9f a3 bf dd 44 24 3f
       0.45807436 -0.96257025 -1.2783017 0.6416758
000350 65 4c 41 3e 1a 8f c9 3e e1 50 78 bc 4a ba 4f bf
       0.18876798 0.3936699 -0.015156002 -0.8114363
000360 04 aa 9e 3f fe 1a d8 3e ea 68 c8 be 56 1a 25 bc
       1.2395635 0.42208093 -0.39142543 -0.01007708
000370 a6 fa 96 3f c8 2f 0b bf 51 a0 e1 3e e6 05 16 40
       1.1795242 -0.54369783 0.44067624 2.34411
000380 f1 df 00 3e 8e 8c 4a be 91 25 28 bd 44 41 d4 3f
       0.12585427 -0.1978018 -0.04105145 1.6582417
000390 35 04 63 3e dc 46 89 3f a9 3e 4b 3f c9 d2 d7 bf
       0.22169574 1.072475 0.79392487 -1.6861202
0003a0 d7 46 bc be e4 74 09 be 59 9d 92 3f 45 9a 9e bf
       -0.36772797 -0.13423496 1.1454269 -1.2390829
0003b0 b5 95 66 3e d4 e3 48 3e e9 8e 75 3e e1 ad 25 40
       0.22518046 0.1961816 0.23980297 2.5887377
0003c0 71 18 de bd 90 05 b4 bd 8d b3 ec 3f 1a 50 dd bf
       -0.108445056 -0.087901235 1.8492295 -1.729007
0003d0 f2 30 f2 bf bc e2 3f 3f a5 28 ec be 50 51 7b bf
       -1.8921187 0.74955344 -0.4612476 -0.9817095
0003e0 24 1f b4 bf 93 ff ba bf
       -1.4072003 -1.4609245

feature_bias f4 [250]
000000 65 68 09 40 fe 94 45 40 ec 7b 9e 40 67 a5 73 3f
       2.1469967 3.0872188 4.952627 0.9517426
000010 69 39 99 3f e2 f2 4a 40 d2 85 8b 40 42 ce f4 3e
       1.1970645 3.1710744 4.3600855 0.47813612
000020 f3 3b 45 3f 46 96 05 3f ac af b4 3f 8d d4 18 40
       0.770446 0.52182424 1.4116111 2.387973
000030 39 08 6e 3f 47 0d 92 40 bf f3 8d 40 ff d6 ae 3f
       0.92981297 4.564121 4.436004 1.3659362
000040 d1 9b 9c 3f d2 2d c5 40 57 bb c6 40 b7 46 a1 3e
       1.2235051 6.1618433 6.2103686 0.31499264
000050 f0 4d 03 3f 68 19 be 3f 71 51 6b 3f c8 df 81 3f
       0.512908 1.4851503 0.91921145 1.0146418
000060 6c e5 3b 40 99 c4 3e 3f fa b0 aa 3f fc 5d b5 40
       2.9358778 0.74518734 1.3335259 5.6677227
000070 77 77 8b 3f cf 3a 86 40 84 f7 17 40 ef 6f ef 3f
       1.0895833 4.194679 2.3744822 1.8706034
000080 78 fd 88 40 a4 99 c8 40 76 8d b5 40 c3 2b 8c 40
       4.280941 6.268755 5.673518 4.380342
000090 4e 4b a3 40 63 24 f2 3f 42 69 85 40 9b 42 47 40
       5.1029425 1.8917354 4.169099 3.1134403
0000a0 b3 f8 a4 40 1f 06 0c 40 fe 65 da 3e 01 72 67 40
       5.155359 2.1878736 0.4265594 3.6163332
0000b0 f8 35 62 40 7f ea b3 40 2e 11 c8 40 62 05 a3 40
       3.534544 5.622375 6.252097 5.094407
0000c0 c9 6d 64 40 87 cf 46 40 d1 20 7b 40 f8 e7 03 40
       3.5692008 3.1064165 3.923878 2.0610332
0000d0 b6 13 90 40 1c a6 98 40 c2 c1 ab 3f fb ed 8e 40
       4.502406 4.770277 1.3418505 4.4665504
0000e0 5f 68 fa 3f 6e 25 6c 40 c5 3a 2e 40 f3 dd 86 40
       1.9563102 3.6897845 2.722337 4.2145934
0000f0 a0 66 77 40 94 81 c1 3f c8 bf c0 40 6a 7f c7 3f
       3.8656387 1.5117669 6.023411 1.5585759
000100 77 7c 57 40 a7 f5 81 3f 2f e1 14 40 b7 90 11 40
       3.3669717 1.0153092 2.326244 2.2744577
000110 13 33 74 40 5a b3 85 40 50 68 6e 3f c4 bb 87 40
       3.8156173 4.1781435 0.9312792 4.2416706
000120 e3 be a5 40 86 64 4a 40 ba 5f cb 3f 12 51 29 40
       5.1795516 3.1623855 1.5888588 2.6455731
000130 c9 59 0b 40 0f 1f c4 40 a4 59 30 40 a1 c7 42 3f
       2.177355 6.1287913 2.7554712 0.7608586
000140 ce 42 cc 3f 74 75 1b 3f d7 fd ab 40 60 1e 72 40
       1.5957887 0.60726094 5.3747363 3.783104
000150 a4 84 b3 3e c3 fb 19 40 1f 10 45 40 27 07 75 40
       0.35062134 2.4059913 3.079109 3.8285615
000160 01 eb f1 3d c1 db c9 3f bb 5e 95 3f 7c 2f 44 40
       0.118124016 1.5770189 1.1669534 3.0653982
000170 dc dd 18 40 56 84 9d 40 78 7b 92 40 3e af c2 40
       2.3885412 4.9224043 4.577572 6.083892
000180 3b 76 a9 3f 1d b9 46 3f 20 52 33 40 0b 06 7e 40
       1.3239206 0.7762621 2.8018875 3.9691188
000190 9a e4 5e 40 47 2e 4d 3f ee dc fa 3f 5f e8 df 3e
       3.4827027 0.8014874 1.9598672 0.43731973
0001a0 18 42 dc 3c 8a 7f b4 40 b9 f8 1f 3f 45 0a 55 3f
       0.026886985 5.6405687 0.62488896 0.83218795
0001b0 d0 44 a6 40 4d d5 b7 40 1e ec 5c 40 42 8f ec 3e
       5.1959 5.7447877 3.4519114 0.46203047
0001c0 d5 03 8a 40 f4 4a 44 3d 8f 22 52 40 b9 a6 e1 3f
       4.312968 0.047923043 3.2833593 1.7629005
0001d0 fa 6e 6a 40 a5 2d aa 3e 66 a9 b2 40 09 83 75 40
       3.6630235 0.3323795 5.5831785 3.8361228
0001e0 fd c4 39 40 39 07 b4 40 77 1d 45 40 5c e9 c8 3f
       2.9026482 5.6258817 3.0799234 1.5696216
0001f0 d7 e0 b5 40 99 99 32 40 d6 a5 dc 3e ef 6c 93 3e
       5.6836963 2.7906249 0.43095273 0.28794047
000200 d9 ff 04 3f 02 42 15 40 85 0d c6 40 52 c5 45 3e
       0.5195289 2.3321538 6.1891503 0.19313553
000210 fc 09 c9 40 81 d8 50 40 76 0b c5 40 bf c8 b1 40
       6.282469 3.2632143 6.157649 5.555755
000220 73 e9 a2 40 48 56 b4 40 29 6d 16 40 20 e9 c8 40
       5.090997 5.6355324 2.3504126 6.2784576
000230 5f 10 9f 40 88 51 b6 40 ce 58 a2 40 3e ea 1f 3f
       4.9707484 5.6974525 5.0733404 0.624668
000240 01 dc 33 40 3d 46 b3 40 e2 50 dd 3f 40 32 e5 3f
       2.810303 5.602324 1.7290308 1.790596
000250 2c a9 98 40 c8 36 94 3f 20 a6 c5 3f a1 19 92 40
       4.770651 1.1579218 1.5441322 4.5656285
000260 22 f7 1c 3f 3c 7c aa 40 14 04 c9 40 d5 18 e0 3f
       0.61314595 5.3276653 6.281748 1.7507578
000270 9a 09 57 40 37 41 be 40 8c 93 bd 40 38 1a bf 40
       3.359961 5.945461 5.924261 5.9719505
000280 b9 a6 b8 3f f8 33 48 40 89 d1 43 3f 19 17 a3 40
       1.442588 3.128172 0.764916 5.0965695
000290 11 f2 46 40 1f 68 97 40 c8 6a c6 40 1a b4 a8 3f
       3.1085246 4.73146 6.200535 1.3179963
0002a0 ed 36 bb 40 97 6c 75 3f ad 3b ad 40 7e 7c 8a 40
       5.850455 0.9586882 5.4135346 4.327697
0002b0 0a 0f af 40 fe 63 a8 3f 61 a4 23 3f ce cd 59 40
       5.470586 1.3155515 0.639227 3.4031863
0002c0 2f be 5c 3e 90 5c 7b 40 d5 0a 2b 3f 45 7c 8f 40
       0.21556924 3.9275246 0.66813403 4.4839196
0002d0 de 5e 85 40 58 7b 8c 40 97 e5 a7 3f 8c 4e b3 3f
       4.1678305 4.3900566 1.311694 1.4008346
0002e0 51 e9 ba 40 ae 7c aa 40 50 ea dc 3e 22 62 7f 40
       5.840981 5.3277197 0.43147516 3.9903646
0002f0 27 9b 57 40 17 f7 44 40 eb a1 8b 40 c5 01 9c 40
       3.3688447 3.0775812 4.3635154 4.875216
000300 74 41 9b 40 b5 a0 66 40 4e 14 c1 40 17 ed b1 40
       4.85174 3.6035588 6.0337286 5.5601916
000310 3a cf 05 40 be 5a 48 40 7f 1a 6a 40 23 e8 c5 3f
       2.090773 3.1305385 3.6578672 1.5461468
000320 29 c7 66 40 f5 6e dc 3e 9e a6 a9 3f 59 c3 a5 40
       3.6059058 0.43053403 1.3253973 5.180096
000330 9c 49 4a 40 23 ea 62 40 ae f2 5a 40 7b 38 82 40
       3.1607428 3.5455406 3.421062 4.0693946
000340 68 7b f2 3f 5a 47 00 40 38 5c 50 3e 5f df be 40
       1.8943911 2.004355 0.20347679 5.964767
000350 41 c9 a0 40 c9 75 91 40 3a 7d be 3f a0 c3 03 40
       5.024567 4.545628 1.4881966 2.058815
000360 46 80 89 40 28 75 9b 3e 1c ea 98 40 c4 7f be 40
       4.2969084 0.3036282 4.778578 5.9530964
000370 08 c6 33 40 07 b5 f0 3f 61 47 b8 40 7b 4b 8d 40
       2.8089619 1.8805245 5.7587132 4.415464
000380 0b a4 5d 40 de 5a a4 40 61 e2 45 40 1e af ac 40
       3.4631374 5.136092 3.091942 5.3963766
000390 ea 2b 57 40 bc b5 66 40 fd 86 26 40 7a 4e b8 40
       3.3620553 3.6048422 2.601989 5.7595797
0003a0 47 47 c1 3f a5 45 5a 3e 3c 30 89 3f eb 90 e2 3f
       1.5099877 0.2131563 1.0717845 1.7700475
0003b0 f5 1d b3 40 fe f9 8a 40 e2 d1 a7 40 f9 33 81 40
       5.597407 4.3430166 5.2443705 4.0375943
0003c0 96 43 4d 40 ce 76 a4 40 17 5b 7f 40 e1 83 41 40
       3.20725 5.1395025 3.9899347 3.0236742
0003d0 27 ba 2c 40 68 de 25 3f 7c 32 b6 40 9d 6f 45 40
       2.6988618 0.6479249 5.6936626 3.0849373
0003e0 b3 1e 52 40 df f9 78 40
       3.2831237 3.890251

linear.weight f4 [1, 250]
000000 c4 9a b7 3c be 83 8a 3d c9 ae 2b 3d 13 2e 0d bd
       0.022412665 0.06763409 0.041914735 -0.034467768
000010 58 14 ab b9 36 91 b5 3d 36 9c 9f bb 85 3c 5a bd
       -0.0003263082 0.088655874 -0.0048709167 -0.053280372
000020 f1 2a 7e 3e c0 3f 6f bd 11 20 0e 3d 73 07 e1 bc
       0.24821068 -0.058410406 0.03469855 -0.027469372
000030 f1 d5 c5 bd 56 bb 80 bc 63 69 3d bd ca a4 a3 bd
       -0.09659947 -0.015714329 -0.046243083 -0.079904154
000040 fa 3a 1e be d1 e6 da bb ed 0f 1d bb 99 85 6a bc
       -0.15452185 -0.0066803475 -0.0023965791 -0.014314079
000050 bb 86 8d bd 72 33 87 3c 24 32 73 be 26 cb af be
       -0.069104634 0.016504023 -0.23749596 -0.34334677
000060 c4 02 84 3d a4 3d d0 bc 78 b1 86 bb 10 29 3a bd
       0.0644584 -0.025420018 -0.0041105114 -0.045449317
000070 29 93 15 bc da 59 8e bd ff 6b fc 3b 47 96 fe 3d
       -0.009129324 -0.069507316 0.007703304 0.12431007
000080 ac 80 a6 bc 24 ad 28 bd 67 80 88 3d 2a 0f 92 bc
       -0.020325027 -0.041180745 0.06665116 -0.017829496
000090 19 fb 39 bc 33 14 b6 bd 3c 08 90 3c e7 21 7e 3d
       -0.01135137 -0.088905714 0.017582051 0.06204405
0000a0 90 a1 26 bc 58 76 bb 3c 88 2f b0 3c 8a 3f 40 3d
       -0.010170355 0.02288358 0.02150704 0.046935596
0000b0 44 01 16 be 25 4e d2 bc 48 4a 2b bc 0c a9 b9 3c
       -0.1464892 -0.025672028 -0.010454722 0.022663616
0000c0 f7 08 1d 3d f4 10 b0 3d c8 f9 71 3d d2 11 6f bd
       0.038338628 0.085969836 0.0590761 -0.058366604
0000d0 73 f0 d2 3b 9a 69 bd 3c 73 27 20 3d 2a 2f 2f bd
       0.006437355 0.023121644 0.03910012 -0.04276959
0000e0 f1 7d c4 3c cf 1b 9c 3d f9 92 82 3d 30 3b df bc
       0.023985835 0.076224916 0.06375689 -0.027249902
0000f0 52 ac 23 3c 1b 02 1b 3b 8d e6 95 3b 02 15 f1 3c
       0.009989815 0.0023652378 0.004574603 0.029428963
000100 ed 79 c7 3c 83 7b 82 bc e2 b0 d4 3e 0a c6 7c bc
       0.02435013 -0.015928036 0.415412 -0.015428076
000110 32 1a 6c bd 1d f7 07 bd 27 58 4b 3b 21 e1 ab 3c
       -0.05764217 -0.03319465 0.0031027885 0.020981373
000120 d5 51 00 bd fc ce e3 bc 5f 5b 4e 3d 78 a2 bb bc
       -0.03132804 -0.027808659 0.050380107 -0.02290462
000130 e3 6b fd 3c 8d 1b 08 bd f0 08 c8 3b a7 bb 51 3e
       0.030935233 -0.0332294 0.006104581 0.2048174
000140 9b be a0 3a 09 7e 7d 3d fb 2f 73 bd 85 61 74 bc
       0.0012263836 0.061887775 -0.05937193 -0.014915829
000150 0d 0f 8d be 9d 7f 58 3d ea 2e bd 3d 7a 9d d3 3d
       -0.27550545 0.052856077 0.09237464 0.10332771
000160 a3 bb 2c be 65 5f a0 bf be de c0 be 88 bc 34 3e
       -0.16868453 -1.2529112 -0.3766994 0.17650044
000170 77 32 21 3d ac 36 78 bd 5b a6 85 3c 35 ad 10 bd
       0.039354768 -0.060599014 0.016314676 -0.035321433
000180 c8 dd 72 3c 45 c2 88 bd 80 8c de 3b fa 0b e6 bc
       0.014823385 -0.06677679 0.0067916512 -0.028081883
000190 ae ca cb 3d 48 97 57 bc cb 7b f0 3c 12 04 26 3c
       0.099507675 -0.013158627 0.029355904 0.010132806
0001a0 67 cd 17 3d 8b f5 9c bd 1a 9e d9 3b df 67 1b 3c
       0.03706112 -0.07664021 0.0066411616 0.009485214
0001b0 c7 7e be 3c f8 f6 6b bd 9d a9 81 bf 7c 63 a9 bd
       0.023253812 -0.057608575 -1.0129887 -0.08270928
0001c0 cd 29 08 3d e2 ee f6 3c 9b cc f2 bc 90 89 8d 3c
       0.03324299 0.030143205 -0.02963858 0.017277509
0001d0 03 87 b4 3d 53 4f bf bd 8a ca ff bd f8 06 17 3d
       0.08814814 -0.09341302 -0.12489803 0.03687188
0001e0 e2 b3 83 bc 58 6f 29 bd e7 4f 9f 3d 15 e0 eb 3d
       -0.016076986 -0.04136595 0.07778912 0.1151735
0001f0 fe 68 1a bd 0a b6 76 bc a4 40 4f bc 45 56 b9 3b
       -0.037697785 -0.01505805 -0.012649689 0.005656036
000200 e0 1c 18 3d 60 fc 80 bd dc ea b1 ba 10 4e 33 bd
       0.037136912 -0.06298137 -0.0013574022 -0.043775618
000210 54 9f a5 3b b1 80 80 3c 0f 23 ab bd 93 53 c7 3c
       0.005054394 0.015686365 -0.08356296 0.024331843
000220 76 f3 43 3d 83 e1 3c 3d 48 43 b9 bb c8 7d 04 be
       0.047839604 0.046113502 -0.0056537725 -0.12938607
000230 d5 9c 50 3d 20 68 79 bd b8 22 d3 bd 3f 64 88 bd
       0.050930817 -0.060890317 -0.103093565 -0.066597454
000240 a1 3c 85 3e e6 8a 9a bd 7a ae 25 bd 9b 63 22 bb
       0.2602282 -0.07546024 -0.040449597 -0.0024778608
000250 d8 ee 88 3f 7e fe 4c 3d fd f9 cf 3d 44 f1 7f be
       1.0697889 0.05004739 0.10155103 -0.2499438
000260 e2 2f f5 bc e4 c2 b0 bd ef 9e 4b bd 8e e0 94 bc
       -0.029930059 -0.086309224 -0.049712118 -0.018173482
000270 a3 91 b2 3d 21 51 38 bd 49 4b 83 bb 60 48 22 3a
       0.08719184 -0.044999246 -0.0040067774 0.0006190594
000280 6b e0 33 bd 99 c9 d9 3d 03 70 dd 3b ed 95 c8 bd
       -0.043915194 0.10634155 0.0067577376 -0.09794221
000290 01 86 b0 3d e8 04 85 b9 44 47 47 bd 6c 63 85 3d
       0.08619309 -0.00025371392 -0.04865195 0.06513104
0002a0 b3 23 ca bd 66 0e 1c bc c8 d3 02 bd 1c 80 47 bc
       -0.0987009 -0.009524917 -0.03194025 -0.01217654
0002b0 e3 94 c0 bd 63 f5 10 bd e7 b5 56 be 09 c3 b7 3d
       -0.09403398 -0.03539027 -0.20967828 0.08972747
0002c0 01 49 f1 3c 51 c4 89 bc 3b 99 5e 3c d2 9e 0d bd
       0.029453756 -0.016817244 0.013586338 -0.03457529
0002d0 d4 c9 6d 3d 2b 2c b9 bc 47 3a ad bd 4c 54 89 3d
       0.058053806 -0.022604069 -0.08458381 0.067055315
0002e0 06 3a 5e bd e1 eb 90 bd f3 c8 f0 bd 76 b9 50 bd
       -0.054254554 -0.0707624 -0.11757078 -0.05095812
0002f0 96 50 72 3d a3 14 a6 3d ff c7 00 3e 38 f3 9c ba
       0.059158884 0.08109405 0.12576292 -0.001197434
000300 ee ce 99 bd 9b 73 be 3d d1 d9 8b bc 20 3d c6 be
       -0.07510172 0.09299394 -0.017071636 -0.3871851
000310 f1 cb b7 bc 28 8f 8c bc e2 00 0c 3d 0b 13 9e 3d
       -0.022436114 -0.017158106 0.03418053 0.07718476
000320 9d 37 9f 3d 85 d2 2b 3d 5f 1b a7 bc e2 18 17 bd
       0.07774279 0.041948814 -0.020398794 -0.036888964
000330 d8 df 61 3b 8c 77 8d 3d a6 d6 29 3c e6 10 61 3d
       0.0034465697 0.069075674 0.010366118 0.054947756
000340 ca d8 65 3d 0a 8a de bc 1d 30 0e bd dd 37 e6 b9
       0.05611495 -0.027165432 -0.034713853 -0.0004391064
000350 40 82 9c bd 59 da 0d bc 1c a0 40 3d bb 84 79 bd
       -0.07642031 -0.008658015 0.047027692 -0.060917597
000360 28 72 b3 3d e1 6d 70 bc a7 ee ae 3d 14 73 27 bd
       0.08762008 -0.014674635 0.08541613 -0.04088123
000370 06 28 39 3d b7 9c 34 bd a3 50 9b bd ae 76 82 3f
       0.045204185 -0.044094767 -0.075837396 1.0192468
000380 f9 8e de 3c bb 68 82 3d 5f fc 39 3d bf 31 68 3d
       0.027167784 0.06367632 0.045406695 0.056688067
000390 3a 38 3b 3c 79 73 f1 3a 24 06 3e 3c 24 2d 4c be
       0.01142698 0.0018421254 0.011598144 -0.19939095
0003a0 3a d9 cf 3b 34 4a 89 bd ef 8e 92 bb be 09 28 bd
       0.006343034 -0.06703606 -0.0044726054 -0.041024916
0003b0 3d dc 06 bc 97 15 2d 3d 49 f5 67 3c ab 0e 7c 3f
       -0.00823122 0.042256918 0.014157602 0.9845988
0003c0 2b 2f e0 bc 5e 2f 17 bd a2 62 ab 3e 10 ec 29 3e
       -0.027366241 -0.036910407 0.33473688 0.16593957
0003d0 f2 f6 b6 3e 90 32 7a 3d d4 0f 82 3d c5 07 bc 3d
       0.3573528 0.061083376 0.06350675 0.091811694
0003e0 04 e5 18 3e b5 bc 8e 3d
       0.14931113 0.06969587
