results/SNGP_FINAL_RESULTS/SNGP/SNGP_R2500_LS1.25_OS1.75_10000Sin/model.pt (torch, 31878 bytes, 3 tensors)

feature_weight f4 [2500, 1]
-0.6866505 1.1593035 -0.4372188 -0.63231665 -1.4772501 -1.0136571 1.4152491 0.20811738
0.054903608 -0.023829341 1.2882386 -0.31061134 0.77013445 0.7164092 1.0788673 -1.5321376
-0.13124818 -0.17087658 0.016867451 0.14362888 -0.8963413 -0.004059576 0.7970797 -1.4845376
0.21686281 0.18365707 1.6793103 -0.17557238 0.15050796 -0.30050611 0.8608211 0.48732457
0.3505526 0.9694085 1.1761588 0.8753649 -0.025205607 1.9111844 -1.2754775 0.021143692
0.31627163 0.861624 -0.57051986 -0.90865475 0.89339894 0.031016972 0.8852151 -1.6144391
0.25201395 0.03618037 -1.1997337 -0.97512543 1.225747 1.6757164 -1.5265794 0.66148394
-0.39695206 0.6914238 0.68690145 0.41963428 -0.38675353 -0.4045888 0.53270626 -0.27468506
0.48543462 0.37378561 -0.72064006 -1.4538696 0.9057769 0.2771309 -1.5124024 -0.05156036
-0.39224538 -2.0731785 -0.62007564 0.010833286 1.4065857 -0.81041485 -0.8576694 -1.9237655
2.0574574 -0.8472724 0.13949303 0.4486635 -0.5235106 0.015085742 1.1538755 1.0436393
-0.8145822 0.35742292 -1.838378 0.5543006 -0.67672455 -0.79759216 -1.0620532 0.8368647
0.3143979 0.6788008 0.66369337 -0.37159532 1.8805997 1.092031 0.4584981 -0.4401305
0.50830597 -0.5277446 -0.22899273 -1.1522666 0.546213 -0.7800254 -1.4872941 -2.7529294
1.0456209 -0.336515 0.1228919 1.9856769 0.39029947 -0.61938065 -0.85032445 -0.31319547
0.0063603213 -0.03635324 1.2456812 0.03240147 0.8693286 -0.3061003 0.03576609 1.4401555
0.8376282 0.652007 -1.0841544 0.41988817 -0.82458746 -1.1890477 -0.3933965 -0.34927896
0.96061945 0.26980728 -1.1529597 -1.4921788 1.7617184 0.505532 0.039989613 0.0011271782
-0.9872938 0.01968761 -0.2137658 -1.394459 1.2794749 -0.1512979 0.14625336 1.3703991
0.79534835 -0.007985944 -2.2355635 -0.479859 0.8857489 0.77383196 -0.40577328 -1.0107673
0.92924625 -0.856505 -0.12596788 -0.30545792 -0.73163193 -0.21408144 -0.9975103 -0.033926353
-0.33244148 -0.29640484 0.9587505 0.073540956 -0.9022475 -0.4746094 -1.0174806 0.1769567
-0.5645884 1.3610364 -0.05108233 0.17646831 1.1479557 -0.326538 0.8707567 -1.631848
-0.7392934 0.063549295 0.516119 -0.82936144 1.125949 0.76753056 -0.83828276 -0.70219237
1.5345591 -0.85799664 0.5542832 1.5464165 1.7575166 -0.7890697 -2.0757077 -1.0828085
1.1393793 -0.47031355 -0.58545476 -1.8195652 1.3238885 -0.08479808 -1.219939 0.18865792
-0.097839616 0.2766495 -0.06621653 -0.44627154 -1.1700171 -0.19952735 -1.6133622 -0.36328167
1.2332165 -1.0690408 0.44075546 1.3175312 -0.64655465 1.8625517 -1.2031121 0.84843624
-1.5499839 -1.0455234 1.3346542 -0.3196536 -0.09369567 1.3957489 -1.1248212 0.13759235
-0.9104848 1.154611 -0.9409089 -0.3402534 -0.6591623 0.22622071 0.11333134 -0.26551923
1.8988541 0.31769952 -0.36847937 -1.0948801 -0.52618295 -0.7668527 -0.83886015 -1.0035086
-0.96463645 0.87843084 -0.14408714 -0.72250116 0.09140203 0.66413486 1.3840271 -1.8405381
00000000: 54c8 2fbf 0f64 943f 24db dfbe 81df 21bf
00000010: 8816 bdbf 84bf 81bf e226 b53f b91c 553e
00000020: 9be2 603d c035 c3bc 01e5 a43f 7308 9fbe
00000030: 8827 453f 9866 373f 5318 8a3f 161d c4bf
00000040: ec65 06be 45fa 2ebe 9c2d 8a3c 7313 133e
00000050: a076 65bf 3106 85bb 6a0d 4c3f 5405 bebf
00000060: 4911 5e3e 9910 3c3e a4f3 d63f 3fc9 33be
00000070: c21e 1a3e f0db 99be c65e 5c3f 9b82 f93e
00000080: a17b b33e 282b 783f 5f8c 963f ea17 603f
00000090: fd7b cebc b1a1 f43f d942 a3bf 8935 ad3c
000000a0: 5bee a13e 6493 5c3f 970d 12bf 999d 68bf
000000b0: cbb5 643f 4e17 fe3c 759d 623f f1a5 cebf
000000c0: f907 813e de31 143d e090 99bf d2a1 79bf
000000d0: 47e5 9c3f e07d d63f f466 c3bf 0357 293f
000000e0: 4d3d cbbe 2601 313f c6d8 2f3f 4eda d63e
000000f0: 8f04 c6be 4326 cfbe 705f 083f 85a3 8cbe
00000100: e38a f83e d460 bf3e de7b 38bf 6618 babf
00000110: ffe0 673f 1ae4 8d3e 6796 c1bf f530 53bd
00000120: 63d4 c8be f5ae 04c0 47bd 1ebf 187e 313c
00000130: 000b b43f 5977 4fbf 3990 5bbf f33d f6bf
00000140: 62ad 0340 d8e6 58bf 43d7 0e3e 39b7 e53e
00000150: ca04 06bf 302a 773c 31b2 933f f995 853f
00000160: 7688 50bf 2300 b73e f84f ebbf a5e6 0d3f
00000170: d23d 2dbf 002f 4cbf 5cf1 87bf c43c 563f
00000180: c3f8 a03e e4c5 2d3f cfe7 293f be41 bebe
00000190: 7eb7 f03f acc7 8b3f 43c0 ea3e c958 e1be
000001a0: 5720 023f 451a 07bf 127d 6abe 797d 93bf
000001b0: 9dd4 0b3f bfaf 47bf a75f bebf ff2f 30c0
000001c0: e8d6 853f b24b acbe c0ae fb3d a92a fe3f
000001d0: 55d5 c73e bb8f 1ebf ddae 59bf 285b a0be
000001e0: 3e6a d03b 23e7 14bd 7b72 9f3f 67b7 043d
000001f0: 528c 5e3f 2eb9 9cbe 777f 123d 0457 b83f
00000200: cd6e 563f eee9 263f 92c5 8abf 95fb d63e
00000210: 2a18 53bf b732 98bf 446b c9be b1d4 b2be
00000220: 28eb 753f 2e24 8a3e 2f94 93bf b7ff bebf
00000230: fd7f e13f 8c6a 013f 26cc 233d d3bd 933a
00000240: 49bf 7cbf e947 a13c 6ce5 5abe a27d b2bf
00000250: d5c5 a33f d6ed 1abe 71c3 153e 3d69 af3f
00000260: f39b 4b3f 7ad7 02bc 7913 0fc0 14b0 f5be
00000270: 71c0 623f da19 463f 84c1 cfbe d360 81bf
00000280: 15e3 6d3f e943 5bbf b9fd 00be fb64 9cbe
00000290: 3b4c 3bbf 2a38 5bbe d65c 7fbf 5cf6 0abd
000002a0: c535 aabe 60c2 97be ac70 753f a49c 963d
000002b0: b1f9 66bf 0100 f3be ce3c 82bf 2334 353e
000002c0: de88 10bf 7136 ae3f b53b 51bd 1cb4 343e
000002d0: 36f0 923f fd2f a7be e9e9 5e3f 65e0 d0bf
000002e0: 5542 3dbf 2226 823d 6020 043f 0851 54bf
000002f0: 191f 903f e27c 443f b399 56bf e1c2 33bf
00000300: 6f6c c43f aba5 5bbf 81e5 0d3f faf0 c53f
00000310: 4ef6 e03f 7900 4abf 65d8 04c0 7899 8abf
00000320: 2ed7 913f f0cc f0be 5de0 15bf 83e7 e8bf
00000330: 2e75 a93f 9eaa adbd f626 9cbf 8b2f 413e
00000340: 2360 c8bd 01a5 8d3e 889c 87bd b47d e4be
00000350: 1fc3 95bf e650 4cbe a782 cebf 0e00 babe
00000360: 0ada 9d3f 54d6 88bf b3aa e13e dda4 a83f
00000370: 9b84 25bf 1868 ee3f 94ff 99bf 1e33 593f
00000380: df65 c6bf b6d3 85bf f3d5 aa3f a3a9 a3be
00000390: 84e3 bfbd e6a7 b23f 24fa 8fbf 02e5 0c3e
000003a0: 8815 69bf 4bca 933f 68df 70bf b235 aebe
000003b0: dcbe 28bf 67a6 673e 431a e83d 23f2 87be
000003c0: a70d f33f 83a9 a23e 54a9 bcbe 0825 8cbf
000003d0: edb3 06bf 7550 44bf 8abf 56bf f872 80bf
000003e0: 6af2 76bf d8e0 603f 948b 13be d6f5 38bf
000003f0: fd30 bb3d be04 2a3f cd27 b13f c196 ebbf

feature_bias f4 [2500]
0.18401067 3.601144 0.8559261 6.1014123 3.2878306 2.0757964 2.625008 3.4072793
0.58193564 2.3336885 0.22948256 4.3903246 3.0359035 0.42144552 1.6327233 6.188457
2.4696684 2.1229975 5.8450913 4.985916 1.0249546 5.5165534 2.5129366 3.1900454
2.2479792 2.197108 3.371166 1.4237204 3.8122435 4.093984 1.0142927 2.9692795
4.941843 5.530343 2.447251 0.6156551 3.6852834 1.1274171 6.1051803 5.9504976
5.767581 6.0108213 2.4996042 0.43614864 1.1981165 3.335939 2.7162232 2.7815073
1.5186732 0.7788413 0.90881246 0.60289603 0.509106 5.208418 2.2598875 3.7252738
6.0241437 4.7081175 0.49710155 1.9503031 3.6683807 4.832327 0.80279326 0.57511324
5.129318 5.332614 1.0412093 5.2706265 3.9619482 4.1701846 2.3173997 2.332714
3.5331237 3.9943695 1.753081 0.5656142 1.2052606 3.8564668 4.412817 4.622354
3.2352083 0.07786338 1.8739808 5.382034 4.118107 3.988782 5.0750136 5.9158535
1.5843513 2.8563259 1.0673114 1.7224605 3.0571353 4.2738175 3.3026652 1.2000269
4.9668384 0.81346226 6.1430144 6.172794 1.5864398 6.1781573 6.0678606 0.1440972
5.3953886 0.61013865 2.42774 5.638032 5.1078987 3.5070195 4.4455233 5.10774
4.3799696 3.7196069 4.2565584 1.2564528 4.3708363 0.8237795 3.8236341 3.7062895
4.543301 4.6467757 0.9700665 5.545042 3.0842946 4.605019 6.217987 5.7064276
4.6354985 4.8120475 2.4141626 1.9689547 1.2236179 0.8653382 0.8881596 1.8101625
1.2980886 2.3550797 0.19892652 2.5993462 2.8508723 3.3935928 3.6186082 3.9926128
3.9319925 4.5500007 3.6963365 3.0194886 2.0507085 3.4584796 4.378354 4.6714873
0.7327223 3.1453135 4.5757437 4.1856494 1.1093014 4.274122 3.3570805 2.2633564
1.6904038 2.6792462 4.5565934 5.573983 0.00859606 1.4060942 4.1213036 1.2052
1.3370879 4.1793976 5.3105574 2.972895 5.835776 2.4008179 5.900703 2.6390224
5.389362 2.391458 1.7854915 4.708026 4.191804 4.1145706 4.063423 0.15227793
3.1994886 4.18572 6.015655 5.8560495 2.2311807 3.2605183 0.7323751 3.5548084
4.457278 2.828277 5.362267 3.7908561 4.3347125 6.0141435 5.858557 3.6838298
1.0425564 5.200051 1.7970308 2.2135081 3.2568474 2.624828 6.245115 4.860643
1.2839745 2.679061 2.9837668 1.8157179 6.1710067 3.4554753 2.4318202 6.210191
0.4613245 3.2036176 4.548718 4.5979047 5.3904786 2.105283 1.0580367 5.934831
0.9446206 5.845982 0.4838657 4.3337107 1.6061049 3.6784723 4.903736 2.9768114
2.6080468 6.0488772 5.821174 0.7701037 4.721613 1.6950128 0.2702278 6.2556286
4.211913 5.298341 1.3796364 4.588208 5.341185 4.6898413 1.9118034 1.4789934
5.0937996 0.6335764 4.62378 2.6181982 3.5204666 4.938885 0.010132662 1.3450974
00000000: 4b6d 3c3e 2579 6640 f91d 5b3f c53e c340
00000010: d16b 5240 d9d9 0440 2200 2840 dd10 5a40
00000020: bcf9 143f 275b 1540 7afd 6a3e 8a7d 8c40
00000030: 3e4c 4240 b5c7 d73e 14fd d03f d707 c640
00000040: 0c0f 1e40 31df 0740 fd0a bb40 a08c 9f40
00000050: b631 833f 9b87 b040 f4d3 2040 b429 4c40
00000060: e4de 0f40 6b9d 0c40 2fc1 5740 783c b63f
00000070: ccfb 7340 eb01 8340 58d4 813f ad08 3e40
00000080: 9423 9e40 92f8 b040 c39f 1c40 939b 1d3f
00000090: afdb 6b40 344f 903f a35d c340 7a6a be40
000000a0: 0690 b840 a658 c040 84f9 1f40 e04e df3e
000000b0: e25b 993f 0680 5540 9ad6 2d40 3704 3240
000000c0: e263 c23f 2562 473f efa7 683f 6557 1a3f
000000d0: c554 023f 5cab a640 ffa1 1040 e36a 6e40
000000e0: c9c5 c040 e6a8 9640 1884 fe3e 88a3 f93f
000000f0: c0c6 6a40 6ca2 9a40 dc83 4d3f 9f3a 133f
00000100: 6023 a440 c6a4 aa40 5946 853f f9a8 a840
00000110: 8f90 7d40 2772 8540 4750 1440 304b 1540
00000120: b31e 6240 c0a3 7f40 f564 e03f 18cc 103f
00000130: fb45 9a3f 5ad0 7640 cc35 8d40 53ea 9340
00000140: a70d 4f40 d676 9f3d 9ade ef3f 9f39 ac40
00000150: 88c7 8340 3448 7f40 8366 a240 ac4e bd40
00000160: 06cc ca3f 0bce 3640 a99d 883f 9679 dc3f
00000170: 1ba8 4340 1dc3 8840 de5e 5340 7b9a 993f
00000180: 57f0 9e40 103f 503f 9393 c440 8787 c540
00000190: 7610 cb3f 77b3 c540 ea2b c240 378e 133e
000001a0: 06a7 ac40 0c32 1c3f 1860 1b40 c26a b440
000001b0: e873 a340 0273 6040 ba41 8e40 9b72 a340
000001c0: b628 8c40 0a0e 6e40 ba35 8840 72d3 a03f
000001d0: e4dd 8b40 37e3 523f 6cb6 7440 d933 6d40
000001e0: b962 9140 63b2 9440 4756 783f fc70 b140
000001f0: 1565 4540 515c 9340 c0f9 c640 0e9b b640
00000200: 0156 9440 4bfc 9940 a481 1a40 b506 fc3f
00000210: 839f 9c3f ce86 5d3f 6d5e 633f 68b3 e73f
00000220: c427 a63f a0b9 1640 65b3 4b3e b05b 2640
00000230: b174 3640 a030 5940 4797 6740 f886 7f40
00000240: c4a5 7b40 9b99 9140 c790 6c40 4d3f 4140
00000250: cf3e 0340 bb57 5d40 7a1b 8c40 d37c 9540
00000260: b093 3b3f d14c 4940 7e6c 9240 d7f0 8540
00000270: 97fd 8d3f 9cc5 8840 68da 5640 d5da 1040
00000280: 275f d83f c578 2b40 9dcf 9140 125e b240
00000290: 7dd6 0c3c e5fa b33f b8e1 8340 fe43 9a3f
000002a0: b225 ab3f a0bd 8540 16f0 a940 e943 3e40
000002b0: adbe ba40 00a7 1940 8fd2 bc40 bee5 2840
000002c0: a775 ac40 a60d 1940 fc8a e43f 26a8 9640
000002d0: 4223 8640 90aa 8340 9007 8240 bfee 1b3e
000002e0: 6cc4 4c40 6bf1 8540 3f80 c040 c264 bb40
000002f0: aacb 0e40 55ac 5040 ef7c 3b3f fb81 6340
00000300: 05a2 8e40 7e02 3540 b197 ab40 639d 7240
00000310: f7b5 8a40 dd73 c040 4d79 bb40 dec3 6b40
00000320: 7d72 853f d166 a640 1b05 e63f 1eaa 0d40
00000330: 3070 5040 2ffd 2740 fbd7 c740 638a 9b40
00000340: 4759 a43f bc75 2b40 09f6 3e40 7269 e83f
00000350: e378 c540 8226 5d40 f1a2 1b40 e2b9 c640
00000360: ba32 ec3e 1208 4d40 198f 9140 0922 9340
00000370: cd7e ac40 f5bc 0640 bf6d 873f 23ea bd40
00000380: a8d2 713f 4912 bb40 3fbd f73e c2ad 8a40
00000390: d894 cd3f 176c 6b40 68eb 9c40 1484 3e40
000003a0: 3dea 2640 6790 c140 0f47 ba40 8425 453f
000003b0: 7417 9740 2ef6 d83f 4c5b 8a3e 1c2e c840
000003c0: fec7 8640 028c a940 ed97 b03f 9ad2 9240
000003d0: fdea aa40 2e13 9640 f9b5 f43f a84f bd3f
000003e0: 6800 a340 1032 223f 01f6 9340 8f90 2740
000003f0: 534f 6140 590b 9e40 7703 263c 272c ac3f

linear.weight f4 [1, 2500]
-0.018066766 0.0037588554 -0.0031507704 0.015895713 0.06442679 0.005614117 0.017308375 0.011403347
-0.017593244 0.0036874218 -0.025367824 0.00981025 0.009001166 -4.4984146e-05 0.015073396 -0.06858031
0.0037698215 -0.020042397 0.013480792 -0.0022343493 -0.025042677 0.005022172 0.025732689 0.054195743
-0.004130224 0.0032517717 0.10055823 -0.005863957 -0.009430235 0.017885668 0.005996737 0.015312324
-0.027449079 -0.028810693 0.04608556 -0.0021097497 -0.0063993013 -0.17374489 -0.0470757 -0.009901257
-0.02650541 -0.033004977 0.0049229963 -0.0073211654 0.0093521625 -0.008673332 0.0056436737 0.07329159
0.012827871 0.006119612 -0.037826143 -0.028341938 -0.013929632 0.049845655 0.051742 -0.021559726
-0.008926866 -0.026269415 0.0073882006 0.009310099 0.023879964 0.003454661 0.0030980862 -0.0075996798
-0.029975355 -0.011516251 -0.0065630744 -0.038029432 -0.0049809352 0.011741682 0.053982165 -0.014602197
0.012762984 -0.13472874 -0.009821259 -0.016714433 -0.04357259 0.016159164 0.020536477 -0.14807813
0.0954229 -0.004432652 0.013465666 -0.010378998 0.018442202 -0.010695171 -0.0010662226 -0.04023803
-0.0046967454 0.01121631 0.07917973 0.011690409 0.02335263 0.006247824 0.028489705 0.016989699
-0.021956172 0.019443054 0.0058711865 0.0036346228 -0.16414306 -0.026996661 0.005026299 -0.0134604415
-0.004701839 0.0004223766 0.008850414 -0.021324003 -0.024792751 0.020678792 -0.03307626 -0.36639467
0.0038696646 0.0038208032 0.008845808 -0.19089855 -0.012804687 -0.02796416 0.007644927 0.01323303
0.010062606 -0.0069886795 -0.02092089 0.009957597 0.013439184 -0.00040433806 -0.01170534 -0.021815028
-0.016123202 -0.015443296 0.012598639 -0.008542898 -0.027052362 -0.043401685 -0.02113919 0.004165379
0.022691382 0.025219552 -0.011376725 0.053849824 0.017594209 0.004587908 0.014518506 -0.00085882994
0.02166997 0.006458913 0.024947904 0.03814654 0.02026592 0.015692428 0.016844446 0.018888537
-0.0027430423 0.0019543772 -0.27408612 0.014382922 0.018185165 -0.009301644 0.017264891 -0.0062062466
0.01725846 -0.011467764 -0.014897845 0.0012403189 -0.019044243 -0.012016466 0.0402761 -0.011572908
0.0035323112 0.0060493643 -0.02618091 -0.0023730656 0.004752564 -0.023777964 -0.006196312 -0.0052267243
-0.011118403 0.0049510635 0.012250994 0.008771659 0.014461758 0.016999463 0.009343435 -0.056101605
-0.008251089 -0.014018931 -0.00029601066 -0.008029186 0.034343492 0.009509024 -0.003117424 0.030482376
0.04452856 0.0026535168 -0.010218043 0.090736784 0.11318283 -0.00695251 -0.13190481 0.044594154
0.009873826 0.0173375 0.0022704971 0.122088216 0.027460044 -0.011543537 -0.041366603 -0.014493039
-0.008973497 0.0002275251 0.000919951 0.00420029 -0.018646637 0.010343563 0.087280475 -0.005012204
-0.04208728 0.016130187 0.0023566391 -0.0086902045 0.015834225 -0.08684493 -0.0029164292 -0.0074202614
0.013822632 -0.010378228 -0.022483904 0.007747319 0.011633246 0.046979465 -0.0036507752 0.020790976
0.00796121 -0.029374203 -0.0020389415 0.008321688 0.020761408 -0.010543073 -0.0017633031 -0.00015606314
0.17511632 -0.008657046 -0.019169051 0.029722242 -0.007895703 0.029739283 -0.022661319 -0.025414858
0.018748786 -0.010127431 0.0045461184 -0.013325808 -0.008464132 -0.024641205 -0.03073813 0.12625399
00000000: c100 94bc 2157 763b 287d 4ebb ba37 823c
00000010: 31f2 833d a0f6 b73b 4bca 8d3c 1bd5 3a3c
00000020: b51f 90bc aca8 713b 2fd0 cfbc 2cbb 203c
00000030: a079 133c 5cad 3cb8 68f6 763c d573 8cbd
00000040: 1c0f 773b f42f a4bc 8ade 5c3c 296e 12bb
00000050: 4d26 cdbc 0891 a43b 5ccd d23c 5bfc 5d3d
00000060: d556 87bb ad1b 553b 79f1 cd3d 7026 c0bb
00000070: 4681 1abc f784 923c 4780 c43b 8be0 7a3c
00000080: e4dc e0bc 6704 ecbc 36c4 3c3d ba43 0abb
00000090: 3bb1 d1bb 2eea 31be 73d2 40bd e238 22bc
000000a0: e021 d9bc 3a30 07bd 1651 a13b 63e6 efbb
000000b0: d039 193c 971a 0ebc 91ee b83b e719 963d
000000c0: fe2b 523c 0787 c83b 96ef 1abd 5a2d e8bc
000000d0: 1c39 64bc f52a 4c3d 6bef 533d 069e b0bc
000000e0: fd41 12bc f532 d7bc b818 f23b 6389 183c
000000f0: ea9f c33c 9867 623b 4309 4b3b bc06 f9bb
00000100: e08e f5bc a8ae 3cbc 0f0f d7bb c0c4 1bbd
00000110: 1d37 a3bb 2f60 403c 671c 5d3d 0e3e 6fbc
00000120: d61b 513c 55f6 09be 59e9 20bc b5ec 88bc
00000130: 2c79 32bd 3960 843c 1d3c a83c cba1 17be
00000140: 156d c33d c83f 91bb 199f 5c3c ac0c 2abc
00000150: 1a14 973c cc3a 2fbc 7ec0 8bba a2d0 24bd
00000160: 28e7 99bb 9dc4 373c fb28 a23d 2189 3f3c
00000170: 044e bf3c 8cba cc3b 3e63 e93c fb2d 8b3c
00000180: 6edd b3bc 0a47 9f3c 1563 c03b da32 6e3b
00000190: 1e15 28be 1a28 ddbc a7b3 a43b 2f89 5cbc
000001a0: e211 9abb 6d72 dd39 5401 113c adaf aebc
000001b0: 2b1a cbbc 9266 a93c f97a 07bd 1598 bbbe
000001c0: 339a 7d3b 7166 7a3b 02ee 103c e97a 43be
000001d0: c0ca 51bc 1815 e5bc 4c82 fa3b 5acf 583c
000001e0: a1dd 243c 4b01 e5bb 4962 abbc 3025 233c
000001f0: 0630 5c3c 56fd d3b9 c1c7 3fbc 6eb5 b2bc
00000200: ce14 84bc e105 7dbc 866a 4e3c 83f7 0bbc
00000210: ea9c ddbc f7c5 31bd 182c adbc bb7d 883b
00000220: 47e3 b93c 3c99 ce3c 7165 3abc a291 5c3d
00000230: bb21 903c 2956 963b 07df 6d3c 1a23 61ba
00000240: 3985 b13c 4aa5 d33b 8c5f cc3c 8c3f 1c3d
00000250: b704 a63c 688d 803c 5dfd 893c 22bc 9a3c
00000260: 9dc4 33bb 0215 003b 0455 8cbe 59a6 6b3c
00000270: 0ef9 943c ec65 18bc 1a6f 8d3c c55d cbbb
00000280: 9d61 8d3c 4ae3 3bbc 1716 74bc 3292 a23a
00000290: ac02 9cbc b6e0 44bc 8df8 243d 4b9c 3dbc
000002a0: 597e 673b bf39 c63b 5979 d6bc 6f85 1bbb
000002b0: 65bb 9b3b 01ca c2bc 6f0a cbbb f144 abbb
000002c0: f629 36bc 883c a23b 65b8 483c 01b7 0f3c
000002d0: 02f1 6c3c 7542 8b3c 3515 193c ccca 65bd
000002e0: 932f 07bc a9af 65bc e131 9bb9 d98c 03bc
000002f0: c3ab 0c3d bdcb 1b3c b24d 4cbb 2db6 f93c
00000300: 9463 363d a0e6 2d3b 9469 27bc 35d4 b93d
00000310: 66cc e73d e2d1 e3bb 0e12 07be 5ca8 363d
00000320: d4c5 213c 5f07 8e3c 9fcc 143b 6309 fa3d
00000330: e3f3 e03c 1a21 3dbc 0770 29bd 3674 6dbc
00000340: 9305 13bc ce93 6e39 de28 713a 96a2 893b
00000350: d5c0 98bc 0c78 293c 1bc0 b23d 6a3d a4bb
00000360: b663 2cbd 7423 843c d871 1a3b 5c61 0ebc
00000370: c7b6 813c c1db b1bd 9021 3fbb aa25 f3bb
00000380: 5278 623c 7109 2abc 2a30 b8bc 39dd fd3b
00000390: 5f99 3e3c 8a6d 403d d841 6fbb d651 aa3c
000003a0: bc6f 023c 2ba2 f0bc c39f 05bb b057 083c
000003b0: d413 aa3c dabc 2cbc a21e e7ba e1a4 23b9
000003c0: b151 333e 48d6 0dbc 6a08 9dbc 0f7c f33c
000003d0: fb5c 01bc cc9f f33c 3ba4 b9bc d232 d0bc
000003e0: 0e97 993c 86ed 25bc 9bf7 943b 7d54 5abc
000003f0: 25ad 0abc 5adc c9bc 88ce fbbc ba48 013e
