results/SNGP_FINAL_RESULTS/SNGP/SNGP_R150_LS0.25_OS2.75_1000CrazySin/model.pt (torch, 3654 bytes, 3 tensors)

feature_weight f4 [150, 1]
-1.8075047 -0.16708805 -1.1011305 -1.1409665 -0.1026984 -0.36827046 -0.6222471 -0.07674055
0.21652612 -0.8660281 1.5316855 -0.45410007 -1.66981 0.2147471 0.77515554 0.8358755
0.5522117 -1.2315526 -0.09514811 0.054799516 -0.9534855 -0.03532312 2.3479786 -0.09435386
0.0179075 -1.0025153 -1.3941804 1.2371191 -0.3752446 0.2385704 1.1223438 0.45051008
1.8075081 -0.15181135 -1.6011623 -0.099324346 -0.7647198 -0.13030212 0.17229918 -0.170931
0.6023178 -0.21625647 0.086630836 0.9165464 -1.7300022 0.65822095 -0.46724156 0.09453266
-0.4360725 0.4646261 -0.3130206 1.1107389 0.92720324 -0.58357215 -1.1964931 -0.094865665
1.394607 -0.080129154 -1.214335 -0.92732024 -2.439201 0.97355855 -0.11059367 0.6958293
0.5393804 0.17072207 0.3917603 -1.2228414 1.7933446 -1.0130023 -1.1463381 -1.4829309
0.5585609 -0.95109576 -1.6577405 -1.0298802 -0.022548176 -0.24972638 -0.2095968 -1.2744793
-0.8479162 -0.50989884 -0.15764041 1.478402 0.0077806087 -0.56305176 -0.8048796 0.5842581
-0.12185379 0.30324832 -2.926351 -0.85308725 1.2147183 2.0233366 -0.6070196 0.6705638
-0.13890828 1.7116584 -0.1456966 -1.0298033 -1.9853054 -1.885912 0.98226786 0.24561371
-1.1636363 -0.4182963 0.20428917 -0.0069969012 -2.17155 -1.5519981 -0.55694646 -0.36076924
-1.1910734 1.7540089 -0.54553294 0.63598907 1.1082139 -1.3882587 0.68199116 0.33178586
-1.5727011 -0.4052884 0.7292481 -0.07851793 -0.71699417 0.5545308 1.8843791 1.9207108
1.0359915 0.162945 -0.03958108 1.6580042 0.5921438 -1.6080902 -0.50618124 -0.39380544
0.03272725 0.8765263 -0.13741405 -0.9166114 -0.92646044 -1.7155012 0.77140325 -1.0519351
0.733566 1.7432083 1.0549141 -0.6496769 -0.5832389 0.44249457
00000000: 505c e7bf 2119 2bbe d8f1 8cbf 310b 92bf
00000010: 8a53 d2bd f28d bcbe 964b 1fbf 262a 9dbd
00000020: 06b9 5d3e 04b4 5dbf 450e c43f ce7f e8be
00000030: 56bc d5bf aae6 5b3e 9870 463f f0fb 553f
00000040: bf5d 0d3f 84a3 9dbf 03dd c2bd 7575 603d
00000050: a017 74bf faae 10bd 4845 1640 993c c1bd
00000060: c0b2 923c 6c52 80bf 8174 b2bf eb59 9e3f
00000070: 0f20 c0be cd4b 743e f6a8 8f3f 42a9 e63e
00000080: 6d5c e73f 6f74 1bbe e3f2 ccbf 906a cbbd
00000090: adc4 43bf eb6d 05be 326f 303e 8908 2fbe
000000a0: 8031 1a3f 5672 5dbe 826b b13d c9a2 6a3f
000000b0: b670 ddbf 2b81 283f 493a efbe 579a c13d
000000c0: e544 dfbe 79e3 ed3e 3c44 a0be b12c 8e3f
000000d0: 315d 6d3f fc64 15bf b026 99bf ee48 c2bd
000000e0: 7b82 b23f c11a a4bd 546f 9bbf dc64 6dbf
000000f0: df1b 1cc0 223b 793f ef7e e2bd de21 323f
00000100: d514 0a3f c4d1 2e3e ce94 c83e 1186 9cbf
00000110: 518c e53f 0faa 81bf 35bb 92bf aed0 bdbf
00000120: d9fd 0e3f 037b 73bf d730 d4bf 1dd3 83bf
00000130: f4b6 b8bc 46b8 7fbe 8ba0 56be 2322 a3bf
00000140: 0911 59bf bb88 02bf 7d6c 21be 473c bd3f
00000150: 7af4 fe3b 2924 10bf 970c 4ebf f091 153f
00000160: 7b8e f9bd 5d43 9b3e 5649 3bc0 ed63 5abf
00000170: e47b 9b3f 597e 0140 a365 1bbf 12aa 2b3f
00000180: f93d 0ebe 9f17 db3f 7d31 15be 98d0 83bf
00000190: 7d1e febf 9065 f1bf e875 7b3f 2982 7b3e
000001a0: 09f2 94bf ef2a d6be 2e31 513e 4346 e5bb
000001b0: adfa 0ac0 e0a7 c6bf 0b94 0ebf bfb6 b8be
000001c0: 1875 98bf 5d83 e03f 0ca8 0bbf 2ed0 223f
000001d0: f4d9 8d3f 76b2 b1bf f996 2e3f d6df a93e
000001e0: 454e c9bf f681 cfbe 01b0 3a3f 02ce a0bd
000001f0: ee8c 37bf bbf5 0d3f 5633 f13f dad9 f53f
00000200: 5f9b 843f 0edb 263e c51f 22bd 7b39 d43f
00000210: bc96 173f e6d5 cdbf 1895 01bf dea0 c9be
00000220: 020d 063d 0764 603f 45b6 0cbe 0ba7 6abf
00000230: 832c 6dbf 8b95 dbbf af7a 453f cfa5 86bf
00000240: fbca 3b3f 7321 df3f 6d07 873f 3a51 26bf
00000250: 254f 15bf a68e e23e

feature_bias f4 [150]
4.506869 2.1793792 3.1848392 5.1274877 4.910747 3.4718757 0.6708039 4.887
6.059361 1.3343948 4.8946586 2.5037498 4.157874 3.474706 3.9510634 1.5412785
1.5066279 3.5159836 5.192317 4.889866 1.5165333 4.748278 3.6045504 2.9857857
1.3547268 4.6153283 0.28921455 3.870498 5.885104 3.6026204 3.0213838 5.7676163
1.9826448 1.9568925 2.3999934 0.26458848 4.6758084 5.5734215 3.3262086 0.45673868
3.783118 5.045375 0.83305496 4.1559415 2.3481865 0.42373413 4.8266006 3.554061
6.1945434 1.596889 1.0957259 5.148379 5.184722 3.6263418 5.7313113 5.354973
5.332445 0.9693407 2.2751212 2.3544693 5.69715 4.07512 4.451811 5.746904
0.6065834 3.8365943 5.134708 3.2074232 5.071984 0.88373286 4.7225423 2.851739
3.486662 3.0968604 5.1747684 2.0785587 3.3327243 5.615867 2.8502376 3.3867114
2.9241195 4.7015347 0.762336 0.5134125 4.5354795 4.731106 0.54579043 1.0560706
4.5269794 0.60826087 3.0598884 1.3040904 5.077866 3.7809258 3.6606333 5.763608
2.3299992 1.2013732 5.0014644 1.6423688 3.1951776 3.8327858 0.9234864 4.4951997
4.50259 5.773088 1.7343956 5.335153 1.835156 3.5112417 0.44498625 2.9897733
0.5990105 2.5230165 0.95081043 3.0148835 2.2976718 1.6715766 5.9994717 5.7004857
4.77998 5.67466 2.8626313 5.5183372 1.4452912 1.7323751 0.93565154 3.690176
3.3132923 0.05775423 5.292287 4.1414757 0.6571528 3.198061 3.6240504 4.5801687
1.9202994 5.6644444 3.217116 2.6170106 4.905574 5.764553 0.763906 0.86159164
1.0829287 3.941663 5.9482846 2.2515767 0.6062269 5.7861705
00000000: 4538 9040 f37a 0b40 68d4 4b40 6114 a440
00000010: d724 9d40 3633 5e40 ceb9 2b3f 4e62 9c40
00000020: 49e6 c140 73cd aa3f 0ba1 9c40 703d 2040
00000030: 4e0d 8540 9561 5e40 39de 7c40 9d48 c53f
00000040: 2fd9 c03f e005 6140 7627 a640 c879 9c40
00000050: c31d c23f e5f1 9740 f4b0 6640 1d17 3f40
00000060: b067 ad3f c5b0 9340 ee13 943e 3db6 7740
00000070: c652 bc40 5591 6640 5a5e 4140 5090 b840
00000080: 4ec7 fd3f 747b fa3f 7e99 1940 2478 873e
00000090: 39a0 9540 7859 b240 9ae0 5440 a7d9 e93e
000000a0: 9b1e 7240 b673 a140 1743 553f 79fd 8440
000000b0: b048 1640 aef3 d83e 8373 9a40 bc75 6340
000000c0: b339 c640 dc66 cc3f bf40 8c3f 85bf a440
000000d0: 3ee9 a540 fc15 6840 e766 b740 f05b ab40
000000e0: 64a3 aa40 b626 783f 969b 1140 a0af 1640
000000f0: 0e4f b640 6267 8240 3c75 8e40 a3e6 b740
00000100: 0d49 1b3f c38a 7540 874f a440 6c46 4d40
00000110: b14d a240 513c 623f 111f 9740 e482 3640
00000120: 7825 5f40 f632 4640 b497 a540 1b07 0540
00000130: 5b4b 5540 2fb5 b340 4b6a 3640 e1bf 5840
00000140: c624 3b40 f972 9640 7428 433f 006f 033f
00000150: a622 9140 3865 9740 ecb8 0b3f 522d 873f
00000160: 04dd 9040 fcb6 1b3f 36d5 4340 6fec a63f
00000170: e17d a240 b0fa 7140 d147 6a40 7a6f b840
00000180: b51e 1540 99c6 993f ff0b a040 2439 d23f
00000190: ca7d 4c40 5d4c 7540 9b69 6c3f add8 8f40
000001a0: 3815 9040 23bd b840 ad00 de3f 93b9 aa40
000001b0: 64e6 ea3f 2fb8 6040 3dd5 e33e 7258 3f40
000001c0: c158 193f 1a79 2140 5068 733f daf3 4040
000001d0: 0e0d 1340 39f6 d53f acfb bf40 616a b640
000001e0: 99f5 9840 d196 b540 5a35 3740 3896 b040
000001f0: 4dff b83f 78be dd3f dc86 6f3f d82b 6c40
00000200: fb0c 5440 b38f 6c3d 6a5a a940 f886 8440
00000210: 2a3b 283f 08ad 4c40 71f0 6740 be90 9240
00000220: 5fcc f53f 2143 b540 3be5 4d40 1a7d 2740
00000230: 76fa 9c40 3877 b840 588f 433f 4591 5c3f
00000240: 689d 8a3f 3544 7c40 5958 be40 d519 1040
00000250: b031 1b3f 4f28 b940

linear.weight f4 [1, 150]
-0.30035672 -0.02410768 0.09082038 0.10157084 0.06747939 -0.15505074 -0.10780205 0.06794987
-0.11636087 0.17397305 -0.48228654 -0.013343134 0.78075606 0.009420205 0.13020042 -0.18215026
0.114082016 -0.06417846 0.12896538 -0.17881559 0.029475134 0.113228835 -1.7906414 -0.047195237
0.068535596 0.051963437 0.5606484 0.17176394 -0.058084015 0.036231242 0.16657148 0.17615111
-0.18809544 -0.024345579 -0.011386974 -0.035974503 -0.15658596 0.08265888 0.07495057 -0.1121917
-0.11649667 -0.031397007 0.031356882 -0.024281053 0.45842525 0.032589603 -0.08898925 -0.08708435
0.07567126 -0.10438098 0.26095194 -0.21444981 0.15482356 0.10711599 -0.027251609 0.104882725
0.5317131 -0.14373147 0.06870334 -0.06793642 -3.1909137 -0.04359226 0.13163412 -0.05148073
0.15992609 0.045778163 0.24166596 0.013268664 0.24107127 -0.04797114 0.067449935 -0.04289925
-0.011578306 -0.1421912 0.031234587 -0.10553033 -0.06713085 -0.17723113 -0.009799718 -0.29126853
-0.01607268 -0.063269444 -0.1747988 0.19201143 -0.039399285 0.1931777 0.21283688 0.20954563
0.20760535 -0.16884954 0.4606007 0.30560747 0.10842777 -0.9189435 0.19008434 -0.1807451
-0.05997645 -0.12326394 0.053763893 -0.16117182 1.3483545 0.35071915 0.10302114 0.029654315
0.061403483 0.013674563 0.05617244 0.0756292 0.29097515 0.5322506 -0.09546241 0.046714757
-0.08131653 0.2878631 -0.13476308 0.034878522 0.2515339 0.48520726 -0.15562195 0.1433879
0.565192 -0.13647658 -0.028216446 0.1468846 0.012789448 0.18575858 0.10241228 -0.12290718
-0.031849004 -0.055101734 -0.018474363 0.10054545 0.17023405 0.6766074 -0.070379816 -0.27844194
0.09205216 0.2139658 0.0026074927 -0.05026236 -0.0934514 -0.55115545 -0.12414492 -0.1801938
-0.02956084 0.5904281 -0.13010058 -0.09258297 -0.16619787 0.106424615
00000000: 5bc8 99be 787d c5bc 0900 ba3d 5f04 d03d
00000010: a232 8a3d 9fc5 1ebe 52c7 dcbd 4d29 8b3d
00000020: 9c4e eebd fe25 323e 43ee f6be 299d 5abc
00000030: a1df 473f 3457 1a3c 4253 053e 9985 3abe
00000040: d5a3 e93d ff6f 83bd 800f 043e 6f1b 37be
00000050: d675 f13c 85e4 e73d bd33 e5bf cb4f 41bd
00000060: 645c 8c3d 9dd7 543d a786 0f3f e3e2 2f3e
00000070: 81e9 6dbd 3667 143d b791 2a3e f560 343e
00000080: 179c 40be 6170 c7bc 6e90 3abc 005a 13bd
00000090: 1258 20be 0f49 a93d af7f 993d c3c4 e5bd
000000a0: ce95 eebd 269a 00bd 1370 003d 0fe9 c6bc
000000b0: b7b6 ea3e ad7c 053d ff3f b6bd 4859 b2bd
000000c0: 89f9 9a3d b2c5 d5bd 7e9b 853e bb98 5bbe
000000d0: 118a 1e3e a15f db3d c43e dfbc c1cc d63d
000000e0: 5a1e 083f 582e 13be 56b4 8c3d 4022 8bbd
000000f0: ee37 4cc0 cc8d 32bd 18cb 063e 75dd 52bd
00000100: aac3 233e e281 3b3d 4877 773e cf64 593c
00000110: 63db 763e 637d 44bd 3123 8a3d 20b7 2fbd
00000120: efb2 3dbc 929a 11be addf ff3c 4920 d8bd
00000130: e67b 89bd 147c 35be ff8e 20bc 2621 95be
00000140: daaa 83bc 6993 81bd 75fe 32be a59e 443e
00000150: 2561 21bd 60d0 453e e9f1 593e 2193 563e
00000160: 7f96 543e e5e6 2cbe dbd3 eb3e 9578 9c3e
00000170: 610f de3d e23f 6bbf 78a5 423e 3e15 39be
00000180: dea9 75bd ce71 fcbd 8737 5c3d 3a0a 25be
00000190: e196 ac3f 7691 b33e bffc d23d 9bed f23c
000001a0: 3882 7b3d 460b 603c 1315 663d 7be3 9a3d
000001b0: b2fa 943e 9341 083f cc81 c3bd f957 3f3d
000001c0: 4889 a6bd cb62 933e 55ff 09be c8dc 0e3d
000001d0: 0dc9 803e 166d f83e 5c5b 1fbe 47d4 123e
000001e0: 6cb0 103f 84c0 0bbe 2d26 e7bc eb68 163e
000001f0: d58a 513c 7f37 3e3e 88bd d13d c2b6 fbbd
00000200: 1a74 02bd 5bb2 61bd 8c57 97bc c6ea cd3d
00000210: d651 2e3e 2436 2d3f 4b23 90bd f18f 8ebe
00000220: d885 bc3d da19 5b3e 78e2 2a3b e8df 4dbd
00000230: 7363 bfbd 8618 0dbf b13f febd b984 38be
00000240: 9329 f2bc 4c26 173f 1639 05be 249c bdbd
00000250: c62f 2abe 26f5 d93d
