results/SNGP_FINAL_RESULTS/SNGP/SNGP_R250_LS1.00_OS13.00_1000Friedman/model.pt (torch, 8838 bytes, 3 tensors)

feature_weight f4 [250, 5]
0	0x3da1413a	0.07873769
1	0x3f148f55	0.5803121
2	0x3fe14412	1.7598898
3	0x3f30d9d6	0.6908239
4	0x3e666f6e	0.22503445
5	0x3f3e2079	0.742683
6	0xbf8207ea	-1.0158665
7	0x3facf469	1.3512088
8	0xbfd7bb7a	-1.6854088
9	0xbef8f905	-0.48627487
10	0x3f11199f	0.5667972
11	0x3dd515a1	0.10404516
12	0xbff58e43	-1.918404
13	0x3e3fcf2b	0.18731372
14	0xbecbdc55	-0.39816537
15	0xbf18a031	-0.5961943
16	0xbf874b3b	-1.0569834
17	0x3f860399	1.0469848
18	0xbf75d1c2	-0.9602319
19	0x3e3811f3	0.17975597
20	0xbea3bc2f	-0.3197951
21	0xbf831a87	-1.024247
22	0xbf708f74	-0.9396889
23	0x3e0c9393	0.1372817
24	0x3ffa4444	1.9552083
25	0x3f1392d3	0.5764591
26	0xbec21f26	-0.3791439
27	0xbe6e8e19	-0.23296393
28	0x3f9666a3	1.1750072
29	0x3fd62955	1.6731364
30	0xbeb8c282	-0.36085898
31	0x3f5dbdb1	0.8661757
32	0x3f164c35	0.5871003
33	0x3f23cd58	0.63985205
34	0xbe702e96	-0.23455271
35	0xbf9b4a88	-1.213212
36	0xbfca706b	-1.5815557
37	0xbfb51f2d	-1.4150139
38	0x3f126ce9	0.57197434
39	0x3eb21602	0.34782416
40	0x3eada5c5	0.33915535
41	0xbf8e26ee	-1.110563
42	0x3fdfd76c	1.7487617
43	0x4010016a	2.2500863
44	0xbecffde6	-0.40623397
45	0xbf9efe0e	-1.2421281
46	0xbf57795b	-0.8416955
47	0xbefa28cb	-0.48859248
48	0xbffa1c1e	-1.9539831
49	0xbf0a502b	-0.54028577
50	0xbf7a254a	-0.9771315
51	0x3f2b02fd	0.66801435
52	0xbf910684	-1.1330113
53	0xbd95d091	-0.073151715
54	0x3f5ed1fb	0.87039155
55	0xbf5c19b6	-0.8597673
56	0xbd602b8a	-0.054729022
57	0x3e932c96	0.28744954
58	0xbf79fe2e	-0.9765347
59	0xbf3daa87	-0.7408833
60	0x3f5a0c8b	0.8517539
61	0x3f8fa0ed	1.1220986
62	0x3ed547b7	0.41656277
63	0x3f99bf17	1.2011441
64	0xbf810f67	-1.0082825
65	0xbef2fb88	-0.47457528
66	0x3f77ce9c	0.96799636
67	0x3e95da77	0.29268238
68	0x3ffa769f	1.956745
69	0x3e8ca576	0.27469987
70	0x3e563adc	0.2092089
71	0xbf3f8406	-0.74810827
72	0xbed49d8c	-0.4152645
73	0xbc8fb235	-0.01754103
74	0xbf0cf4bf	-0.5506095
75	0xbeb8768b	-0.3602794
76	0x3ecd9704	0.40154278
77	0xbe91f1cb	-0.28504786
78	0x3f383a0b	0.71963567
79	0xbd16588a	-0.03670553
80	0x3cdcd3eb	0.02695652
81	0xbea31000	-0.31848145
82	0xbeda6763	-0.42657003
83	0xbf558f24	-0.8342154
84	0xbebd9eba	-0.3703516
85	0x3f9f899c	1.246387
86	0x3f1158bf	0.5677604
87	0x3ed0672f	0.40703723
88	0x3f196cf6	0.59931886
89	0x3e8e0ef0	0.2774577
90	0xbf8d1ce2	-1.1024439
91	0x3f276a35	0.65396434
92	0xbf0db8ff	-0.55360407
93	0xbccacbe4	-0.024755426
94	0x3f364e28	0.71213007
95	0x3fbd4996	1.4788082
96	0x3f052542	0.52009976
97	0xbf4fac15	-0.8112195
98	0xbf939193	-1.1528801
99	0xbfd08c25	-1.6292769
100	0x3ece7ded	0.4033045
101	0xbf9e190f	-1.2351397
102	0x3f92e7d1	1.1476995
103	0xbf925c8c	-1.1434493
104	0xbfc00a0c	-1.5003066
105	0xbe86aa2a	-0.263017
106	0xbfc2965a	-1.5202134
107	0x3f9155d8	1.1354322
108	0xbf725f81	-0.9467698
109	0xbf585962	-0.8451139
110	0x3f247c51	0.6425219
111	0xbeb1d8cf	-0.34735724
112	0xbed43a68	-0.4145081
113	0xbf9b247f	-1.2120513
114	0xbea874b5	-0.3290154
115	0x3f81125f	1.0083731
116	0x3e24328c	0.16034907
117	0xbf41fba9	-0.7577463
118	0xbfdb5d12	-1.7137778
119	0x3ec8b805	0.39202896
120	0xbede84a9	-0.43460587
121	0x3e37c1da	0.17945042
122	0xbedd7984	-0.43256772
123	0xbe97f522	-0.2967921
124	0x3fbdc2f3	1.4825119
125	0x3f651521	0.89485365
126	0x3edbb37e	0.4291038
127	0xbf635379	-0.88799244
128	0x3e854acc	0.26033628
129	0xbe4a34f0	-0.19746757
130	0x3f6764a8	0.90387964
131	0x3e5f214b	0.21790044
132	0xbfdd218c	-1.7275863
133	0x3fa505de	1.2892416
134	0xc00f5de9	-2.2401068
135	0x3f17df92	0.59325516
136	0xbfad4c76	-1.3538959
137	0x3ebcbad7	0.36861297
138	0xbefb6a51	-0.4910455
139	0xbf012153	-0.50441474
140	0x3ee6ba3a	0.45063955
141	0x4009efaf	2.1552541
142	0xbf829121	-1.020054
143	0xbf440621	-0.7657185
144	0xbe707c23	-0.23484854
145	0x3f119093	0.5686123
146	0x3ff91382	1.9459078
147	0xbf88f096	-1.0698421
148	0xbf6bc6bc	-0.9210012
149	0x3f94d2c7	1.1626824
150	0x3f245be2	0.642027
151	0xbf94f35e	-1.163677
152	0x3f9b2de7	1.2123383
153	0xbe13a974	-0.1442011
154	0xbfcc276f	-1.5949534
155	0xbfc6834d	-1.550882
156	0x3f8f1db2	1.1180937
157	0x3fbdb8b5	1.4821993
158	0xbf7bc12e	-0.98341644
159	0xbf686484	-0.90778375
160	0x3f0ca9af	0.54946417
161	0xbe714bd5	-0.23564084
162	0x3fb82d4c	1.4388824
163	0xbee22ca7	-0.44174692
164	0x3e36b396	0.17841944
165	0x3f7577fa	0.95886195
166	0xbf63d5b0	-0.88997936
167	0x3fa6cef8	1.3031912
168	0xbf361c09	-0.7113653
169	0xbf7940c8	-0.97364473
170	0x3d24eaf3	0.040263128
171	0x3f98a5a0	1.1925545
172	0xbf7f80ba	-0.99805796
173	0x400377ae	2.0541797
174	0x3dd3e4fd	0.103464104
175	0xbf1098eb	-0.56483334
176	0x3d930ec1	0.071805485
177	0xbf00d1f9	-0.5032039
178	0x3f19a97f	0.60024256
179	0x3d92e36e	0.07172285
180	0x3ec2b1db	0.38026318
181	0xbf9d1dec	-1.2274756
182	0x3f007f2d	0.50194055
183	0xbf66d5f1	-0.901702
184	0xbf8e8d46	-1.1136863
185	0xbff4bff6	-1.9121082
186	0x3ea47eca	0.32127982
187	0x3f8d96a9	1.1061603
188	0x3ee9924a	0.45619422
189	0x3fa132c2	1.2593615
190	0xbf536ee5	-0.82591087
191	0x3f515321	0.8176747
192	0xbe5d8599	-0.21632995
193	0xbdd2ff87	-0.10302644
194	0x3fb22842	1.3918536
195	0x3f707c52	0.939397
196	0x3febf471	1.8433973
197	0x3fb546e0	1.4162254
198	0xbfb15463	-1.3853878
199	0x3ea65785	0.32488647
200	0x3f2f7099	0.68531185
201	0x3f175524	0.5911429
202	0xbe9d575e	-0.30730718
203	0xbfea9757	-1.8327435
204	0x3e3f7de8	0.18700373
205	0x3fb103cf	1.3829287
206	0x3f95b5d1	1.1696111
207	0x3fb642f1	1.4239179
208	0x3f5d8c7f	0.86542505
209	0x3f9e67b7	1.2375401
210	0x3f7e1357	0.9924826
211	0xc00bb235	-2.182752
212	0xbfbfc987	-1.4983376
213	0xbf5cdfda	-0.8627907
214	0xbdfa6acd	-0.12227402
215	0xbdcb6b6e	-0.099326
216	0xbdbc37e1	-0.091903456
217	0xbf40f0fb	-0.75367707
218	0xbf3ddd39	-0.74165684
219	0xbcf6b5f9	-0.030116068
220	0xbeeffd25	-0.4687282
221	0x3f3fa095	0.74854404
222	0xbf7c98ff	-0.98670954
223	0x3f3e6ec6	0.74387777
224	0x3de65044	0.11245778
225	0xbd181c85	-0.037136573
226	0x40063c52	2.0974317
227	0x3e23f4b7	0.1601132
228	0xbf19986c	-0.599982
229	0xbf3d9c67	-0.74066776
230	0xbee50ea4	-0.44737732
231	0x3fc56f1f	1.5424536
232	0x3f0c1878	0.54724836
233	0xbf38e7b3	-0.72228545
234	0xbe729404	-0.23689276
235	0x3e4741d3	0.19458704
236	0xbdd5b0f5	-0.104341425
237	0xbfa628b1	-1.2981168
238	0xbf591b30	-0.8480711
239	0xbe9af917	-0.30268165
240	0xbf12c299	-0.5732818
241	0x3f77eb99	0.9684387
242	0xbeec0b03	-0.4610215
243	0xbe93b47a	-0.2884863
244	0x3e800077	0.25000355
245	0x3f84d8b1	1.0378629
246	0xbf685427	-0.90753406
247	0x3e834733	0.25640258
248	0xbf4b1886	-0.79334295
249	0xbf9cd5d9	-1.2252761
250	0xbec2ec60	-0.38070965
251	0xbf6d16d9	-0.9261299
252	0xbff98029	-1.9492236
253	0xbf0315da	-0.5120522
254	0xbf491365	-0.7854522
255	0x3e91c30b	0.28469118

feature_bias f4 [250]
0	0x3fca3a9a	1.5799134
1	0x40c5df18	6.183483
2	0x40a6b3ff	5.209472
3	0x40aa6041	5.3242497
4	0x409df13a	4.9356966
5	0x40be1a31	5.940697
6	0x3f9d2314	1.227633
7	0x40ad9ae7	5.425159
8	0x406ae68d	3.6703217
9	0x3ff8d229	1.9439136
10	0x40533b15	3.300481
11	0x40c876a5	6.264483
12	0x3ffb4ed0	1.9633427
13	0x40ac11f2	5.3771906
14	0x408fea4c	4.4973507
15	0x3f91560b	1.1354383
16	0x409b49ce	4.8527594
17	0x3ff81533	1.938147
18	0x401ebe31	2.4803584
19	0x3efc5555	0.49283853
20	0x404695fc	3.1029043
21	0x3f7a3418	0.9773574
22	0x408c4988	4.383976
23	0x400cdf01	2.201111
24	0x40b84157	5.757976
25	0x3e02cbe1	0.12773086
26	0x4059892e	3.3989978
27	0x409b177a	4.846616
28	0x40906adc	4.5130444
29	0x40165b14	2.349309
30	0x40b8bced	5.773062
31	0x406c0808	3.6879902
32	0x400dea67	2.2174318
33	0x4025e397	2.592016
34	0x401987fa	2.3989244
35	0x3fb9a804	1.4504399
36	0x3fdd2a4d	1.7278534
37	0x40558605	3.336305
38	0x4087f916	4.249156
39	0x40acd717	5.401256
40	0x409be8a4	4.8721485
41	0x404034da	3.0032258
42	0x40acac16	5.3960066
43	0x40305663	2.7552726
44	0x3f13f051	0.5778857
45	0x409f74f8	4.9830284
46	0x403a2f61	2.9091418
47	0x3fbfa3ec	1.49719
48	0x403038cb	2.7534664
49	0x40b3b033	5.6152587
50	0x3faa9f6b	1.33299
51	0x4093a20f	4.6135325
52	0x3fee02fc	1.8594661
53	0x3e87f0fe	0.2655105
54	0x409f8a84	4.9856586
55	0x407e7a39	3.9762099
56	0x3fbf6496	1.4952571
57	0x3f9fa1e9	1.2471286
58	0x40997d64	4.7965565
59	0x402684e3	2.6018608
60	0x4093bf24	4.6170826
61	0x40bdbeb0	5.9295273
62	0x3fac9569	1.3483096
63	0x3fafd4b1	1.3736783
64	0x3f2d1387	0.6760792
65	0x3fa99e33	1.3251404
66	0x40754552	3.832356
67	0x3fd8cd02	1.6937563
68	0x3f5fd94d	0.8744095
69	0x403af4cc	2.9211912
70	0x408abbde	4.335433
71	0x402ed85f	2.7319562
72	0x40b7f8ab	5.749105
73	0x409a6b3d	4.8255906
74	0x3f879e35	1.0595156
75	0x4044514e	3.0674624
76	0x40c2ef0f	6.091682
77	0x40566868	3.3501225
78	0x4004ab32	2.072949
79	0x4081f488	4.0611
80	0x40b072a4	5.513994
81	0x3ef0b930	0.47016287
82	0x3ef15015	0.4713141
83	0x403cb202	2.9483647
84	0x40255bb3	2.5837219
85	0x40c74c91	6.2280965
86	0x40bf233b	5.9730506
87	0x3faa1ebf	1.3290633
88	0x405f50b0	3.4892998
89	0x3fb3e0c7	1.4052972
90	0x407bd351	3.9347727
91	0x4065a4a3	3.5881736
92	0x40c3863c	6.110136
93	0x40735ca3	3.802529
94	0x408ee017	4.4648547
95	0x4058221b	3.3770816
96	0x3ede6d5e	0.43442816
97	0x409fb011	4.9902425
98	0x40014bd7	2.020254
99	0x3f708c91	0.9396449
100	0x40a9836f	5.297294
101	0x4020a262	2.509911
102	0x3dd8460e	0.10560237
103	0x400a5b32	2.1618161
104	0x40c7a55c	6.2389355
105	0x409fe84d	4.997107
106	0x3ffa6439	1.9561836
107	0x3fc1ba30	1.5134945
108	0x3e3da75a	0.18520871
109	0x4084a157	4.144695
110	0x4077fc63	3.8747795
111	0x407a1864	3.9077387
112	0x3fb8d984	1.444138
113	0x4069f4df	3.6555707
114	0x408a61ee	4.3244543
115	0x408d98b2	4.4248896
116	0x4016a9d8	2.3541164
117	0x3f5fe66f	0.8746099
118	0x40bd8325	5.922259
119	0x4064d8b6	3.575727
120	0x405ecc80	3.4812317
121	0x402f4868	2.7387943
122	0x402a0c5d	2.6570046
123	0x4025131b	2.579291
124	0x4001a0cf	2.02544
125	0x40b09f0f	5.5194163
126	0x3e9af27c	0.30263126
127	0x40bc7d51	5.8902974
128	0x3fb3addd	1.4037434
129	0x3fdbd515	1.7174402
130	0x402f7d6a	2.7420297
131	0x3f226582	0.6343614
132	0x40961cb0	4.691002
133	0x40615c1b	3.5212467
134	0x40452181	3.08017
135	0x40142812	2.3149457
136	0x3d4171b6	0.047227584
137	0x3fff9039	1.9965888
138	0x407522de	3.8302531
139	0x40c1b5b9	6.053433
140	0x4000d527	2.0130098
141	0x40ab77f4	5.3583927
142	0x40a86dbe	5.2633963
143	0x400ea6dd	2.2289345
144	0x401b2751	2.4242747
145	0x40123707	2.2846086
146	0x40bb0c0d	5.845221
147	0x40a561d4	5.168192
148	0x400cb266	2.1983886
149	0x40abbb27	5.3665957
150	0x40990a3f	4.7825007
151	0x40ae8421	5.453629
152	0x4047d6e0	3.12249
153	0x409b6648	4.8562355
154	0x3e2435c0	0.16036129
155	0x4067dd4f	3.6228826
156	0x3f676cac	0.90400195
157	0x40073d6d	2.1131241
158	0x401d3bab	2.4567668
159	0x3e5faaf7	0.21842562
160	0x4080f74a	4.0301867
161	0x40bb8e9e	5.8611593
162	0x401a5273	2.4112823
163	0x40b08cd0	5.517189
164	0x40815290	4.0413284
165	0x40a4e316	5.1527205
166	0x40c76cd8	6.2320366
167	0x4096c495	4.711497
168	0x4028df12	2.6386151
169	0x409c4eda	4.8846254
170	0x4013451a	2.3010926
171	0x40052bcf	2.0807989
172	0x4099ad83	4.8024306
173	0x408e1159	4.4396176
174	0x40196b38	2.397169
175	0x40b6dd1c	5.714491
176	0x3f8c27f9	1.0949699
177	0x40956df1	4.6696706
178	0x3fea4e78	1.8305197
179	0x40a50095	5.156321
180	0x407617f9	3.8452132
181	0x401c0d3f	2.4383085
182	0x40ae2e87	5.4431796
183	0x4094e5c1	4.653046
184	0x3fc6169f	1.5475653
185	0x404013ab	3.0012004
186	0x409c4a69	4.8840833
187	0x3d63451f	0.05548584
188	0x40c5108c	6.15827
189	0x408ca096	4.394603
190	0x40047d43	2.0701454
191	0x40521ee7	3.2831361
192	0x4089991e	4.299941
193	0x3dcf9f09	0.101377554
194	0x4067877c	3.6176443
195	0x40095ece	2.1464114
196	0x3f0a4a96	0.5402006
197	0x409ff52a	4.9986773
198	0x4020ab7d	2.5104668
199	0x3ff6849f	1.9259223
200	0x3f0262c3	0.5093195
201	0x40be014c	5.9376583
202	0x40c142aa	6.0393877
203	0x3fbd018c	1.4766097
204	0x4087b5ff	4.2409663
205	0x3f42ba0f	0.7606515
206	0x40af2c4b	5.474157
207	0x3fd941ff	1.6973265
208	0x40a4a745	5.1454186
209	0x406cb267	3.6983888
210	0x40b068b1	5.5127797
211	0x3ea67947	0.32514402
212	0x40c7117f	6.2208858
213	0x3f006300	0.5015106
214	0x40b98d99	5.798535
215	0x4014e6da	2.32659
216	0x3e2d5bb6	0.16929516
217	0x4049ff1d	3.1561959
218	0x3f9592d0	1.1685429
219	0x40c66df4	6.200922
220	0x4043eef4	3.0614595
221	0x3f8c14f9	1.09439
222	0x3e6c912c	0.23102254
223	0x3de51a33	0.11186638
224	0x40bfddc2	5.99582
225	0x4045e9a0	3.0923843
226	0x3f4abca2	0.7919408
227	0x3f49d8ac	0.7884624
228	0x40a6425f	5.195602
229	0x40b027c9	5.5048566
230	0x407614ee	3.8450274
231	0x4096251e	4.692031
232	0x3fc5ce80	1.5453644
233	0x3f24106b	0.6408755
234	0x401b73d6	2.428945
235	0x40297a5a	2.6480927
236	0x3ec3de5f	0.38255593
237	0x40a23935	5.0694833
238	0x40803ca8	4.0074043
239	0x3f102279	0.563026
240	0x4049b77f	3.1518247
241	0x3fcc2fe8	1.595212
242	0x40ba5576	5.8229322
243	0x40b8ca0a	5.774663
244	0x3fbbf47d	1.4683987
245	0x400cd728	2.200632
246	0x40856f3a	4.1698275
247	0x40902dc4	4.5055866
248	0x3f81a5e5	1.0128752
249	0x4098f6dc	4.780134

linear.weight f4 [1, 250]
0	0x3ed8cc9e	0.4234361
1	0xbdc58d53	-0.09646096
2	0x3d590925	0.052987237
3	0xbe41ef3d	-0.18938918
4	0xbcb9dae8	-0.02268739
5	0xbde80d62	-0.113306776
6	0xbe1f3101	-0.15546037
7	0xbe06f586	-0.13179597
8	0xbd2edf27	-0.042693283
9	0xbd22d5c7	-0.039754655
10	0x3dc573d6	0.096412346
11	0xbe11b5b2	-0.14229468
12	0xbe2a3f0d	-0.16625614
13	0x3c95b436	0.018274408
14	0xbe91353f	-0.28360936
15	0xbc98709f	-0.01860839
16	0xbeb26ecb	-0.34850153
17	0xbe4bc91a	-0.19900933
18	0xbdbd3eed	-0.09240518
19	0x3e3492ad	0.17634077
20	0x3d320e1b	0.043470483
21	0x3e12016f	0.1425836
22	0xbe815ea4	-0.25267518
23	0x3de0a387	0.1096869
24	0x3e1423ab	0.14466731
25	0x3e42b444	0.19014078
26	0x3ed69279	0.41908625
27	0xbe9011a1	-0.2813845
28	0x3e80d2ca	0.2516082
29	0xbe0f8127	-0.14014111
30	0xbd52f543	-0.05150343
31	0x3bf6d47b	0.007532654
32	0x3e68eba7	0.22746144
33	0x3dcae96f	0.09907805
34	0x3d3bb397	0.045825567
35	0x3dde04d3	0.10840764
36	0x3ec6b61b	0.3881081
37	0xbe490819	-0.19631995
38	0x3cca415d	0.02468937
39	0xbdc82a6d	-0.09773717
40	0xbdfa23b8	-0.12213844
41	0x3dda3557	0.10654705
42	0xbe547d51	-0.2075093
43	0x3d63e84e	0.055641465
44	0x3da8eb51	0.08248008
45	0x3e652b24	0.22379738
46	0xbea5049c	-0.3223008
47	0xbdbf643a	-0.093452886
48	0xbe7a176a	-0.24422994
49	0xbda36a0e	-0.07979213
50	0xbf01f88a	-0.50769866
51	0x3db90835	0.090347685
52	0x3e499fb7	0.19689833
53	0x3e4e1c97	0.20128094
54	0x3f08006c	0.53125644
55	0xbd54c1eb	-0.051942747
56	0x3d31fb79	0.043452714
57	0xbcaf634c	-0.021409653
58	0xbe9131ac	-0.2835821
59	0xbeb53d9e	-0.35398573
60	0x3e47d661	0.19515373
61	0xbe12680d	-0.14297505
62	0x3e4ddfa7	0.20104848
63	0xbec3aab8	-0.38216186
64	0xbf1ca3db	-0.61187524
65	0xbd6c8f04	-0.057753578
66	0xbe1a5bc0	-0.15074062
67	0x3d3a10ab	0.045426052
68	0x3e49957e	0.19685933
69	0xbda86736	-0.08222811
70	0xbe82c985	-0.25544372
71	0xbe6e971f	-0.23299836
72	0xbe40b708	-0.18819821
73	0x3f2a31aa	0.6648203
74	0x3e2d08e5	0.16897924
75	0xbe501779	-0.20321454
76	0xbec11ad7	-0.3771579
77	0x3d94f75c	0.072737426
78	0xbde81276	-0.11331646
79	0xbeaa425c	-0.33253753
80	0xbe75c43c	-0.24000639
81	0x3e10b7fd	0.14132686
82	0xbd8b6d90	-0.06808007
83	0x3e92f2dc	0.28700912
84	0xbd904f5f	-0.07046389
85	0x3db8e859	0.09028692
86	0xbf335956	-0.7005819
87	0xbe13b893	-0.14425878
88	0xbe5d4f30	-0.21612239
89	0x3f04e652	0.5191394
90	0x3e1c80a9	0.15283455
91	0xbdf1aa80	-0.118000984
92	0x3f031d6b	0.51216763
93	0x3d1fb2ac	0.038988754
94	0xbb8b26f4	-0.004246587
95	0x3ea34603	0.31889352
96	0xbd25f4f6	-0.040516816
97	0x3e4b072c	0.19826955
98	0x3e30702b	0.17230289
99	0xbd9f47e7	-0.07777386
100	0xbecca82f	-0.39972064
101	0x3e427872	0.18991259
102	0x3e817ac8	0.25288987
103	0x3d377781	0.044791702
104	0x3db32f47	0.08749252
105	0x3d843ec8	0.06457287
106	0xbe8868ae	-0.26642364
107	0xbda1d119	-0.0790121
108	0x3d37f845	0.044914503
109	0x3e276bc0	0.16349697
110	0xbd3a2ced	-0.045453
111	0xbe0f0499	-0.13966598
112	0x3e32f553	0.17476396
113	0x3e40e3cc	0.18836898
114	0x3e8c23cb	0.27371058
115	0x3e0e037f	0.13868521
116	0xbd54fdc8	-0.051999837
117	0x3e79fd0e	0.24412939
118	0x3e0e3978	0.1388911
119	0x3be49abb	0.006976453
120	0xbe6e9147	-0.23297606
121	0x3e3752da	0.17902699
122	0xbe52e3f2	-0.20594767
123	0x3dafbab3	0.08580532
124	0x3c91e9e9	0.017811732
125	0x3dce9981	0.10087872
126	0x3e5183c5	0.20460422
127	0x3e8425b3	0.25810012
128	0xbe38e559	-0.18056239
129	0x3e93db58	0.28878284
130	0xbe827cb4	-0.25485766
131	0x3dec10f0	0.11526668
132	0xbe39da16	-0.181496
133	0xbd304d37	-0.043042388
134	0xbe291b3b	-0.16514294
135	0xbc01fa12	-0.007933157
136	0x3e212a34	0.15738755
137	0xbdd485d3	-0.103770874
138	0x3e6f399a	0.23361817
139	0xbe305cf7	-0.17222963
140	0x3e236133	0.15955047
141	0xbe050c4d	-0.12992974
142	0x3e2c58d7	0.16830765
143	0xbdb6d1f1	-0.08926762
144	0xbebcd211	-0.36879018
145	0xbe0e9dd0	-0.13927388
146	0x3f0772cd	0.5290955
147	0xbead5e55	-0.33861032
148	0xbd289767	-0.041160014
149	0x3dadc131	0.08484114
150	0x3e4f4d55	0.20244344
151	0xbe7a4a0c	-0.24442309
152	0xbcbf2c44	-0.023336537
153	0x3dbd7bea	0.0925215
154	0xbdde9d3d	-0.108698346
155	0xbed45a2a	-0.4147504
156	0x3d9d74ee	0.07688318
157	0x3ea0231c	0.31276786
158	0xbe07394f	-0.13205455
159	0x3d964a99	0.07338447
160	0xbe4706bb	-0.19436161
161	0x3e250bf6	0.16117844
162	0x3e9edf54	0.3102976
163	0x3eae4e8f	0.3404431
164	0x3e29718d	0.16547222
165	0x3ed1d8de	0.4098577
166	0xbe678a26	-0.22611293
167	0x3d8eddb3	0.069758795
168	0xbd917167	-0.07101708
169	0xbd1a55c5	-0.037679452
170	0xbe62f91c	-0.2216534
171	0xbec3bb58	-0.3822887
172	0x3e26385c	0.16232437
173	0xbf092d42	-0.5358468
174	0x3abfac2b	0.0014623454
175	0x3e8b82fa	0.27248365
176	0xbead1e4a	-0.3381217
177	0xbe651e49	-0.22374834
178	0x3e9e0bdf	0.30868432
179	0x3d5046da	0.05084882
180	0xbdf6b201	-0.1204567
181	0x3e960d15	0.29306856
182	0x3e7c8f47	0.24664031
183	0xbe37684b	-0.17910878
184	0xbe87f23f	-0.26552007
185	0x3d359501	0.044331554
186	0xbe3a94cb	-0.18220823
187	0xbd269b49	-0.040675435
188	0x3e52a5ea	0.20571104
189	0xbe243abe	-0.16038033
190	0xbcdb0c6f	-0.026739327
191	0xbec4e004	-0.3845216
192	0xbe915757	-0.28386948
193	0xbe70e55b	-0.23524992
194	0x3ea61cf7	0.32443973
195	0x3c8cb30f	0.017175226
196	0x3dae6e41	0.08517123
197	0xbe5dc4ad	-0.21657057
198	0x3d5256c1	0.051352266
199	0xbe7f07fb	-0.24905388
200	0x3ec8cb16	0.39217442
201	0xbe816b90	-0.25277376
202	0xbc2f3807	-0.01069451
203	0xbe2b76fc	-0.16744608
204	0xbe3fe9ed	-0.1874158
205	0x3ea87b25	0.32906452
206	0xbe7165cd	-0.2357399
207	0x3e806ffa	0.2508543
208	0x3d030340	0.03198552
209	0x3e0e76b5	0.1391247
210	0x3e8a9522	0.27066904
211	0xbeddd05a	-0.43323022
212	0xbc426550	-0.011864975
213	0xbcff8242	-0.031190041
214	0xbd02d664	-0.03194274
215	0x3ea7b906	0.3275835
216	0xbe8fd7fc	-0.2809447
217	0x3e93c1bb	0.28858742
218	0xbecffc16	-0.40622014
219	0xbe74aa83	-0.2389317
220	0x3e36e35a	0.17860165
221	0xbd867e98	-0.065671146
222	0xbdbd9240	-0.092564106
223	0x3e5b3cbe	0.2140989
224	0xbe8d461d	-0.27592555
225	0x3eaeef1e	0.34166807
226	0x3e9d45cb	0.3071731
227	0xbdd54692	-0.10413851
228	0xbd58e677	-0.052954163
229	0x3e938669	0.28813484
230	0xbeb0292c	-0.34406412
231	0xbdeb85c9	-0.11500127
232	0x3eb7dcaa	0.3591054
233	0x3ecc025c	0.3984555
234	0x3eae5607	0.3405001
235	0xbe8f3871	-0.2797275
236	0xbe7cafa4	-0.24676377
237	0xbe035654	-0.128259
238	0x3e215a0f	0.15757011
239	0x3d97afb3	0.07406559
240	0xbd2e406c	-0.042541906
241	0x3e336e2d	0.17522497
242	0xbeb37be9	-0.35055473
243	0xbe971942	-0.29511458
244	0x3e4662ff	0.19373702
245	0xbdcf7821	-0.10130335
246	0xbb217aa6	-0.0024639755
247	0xbdb30653	-0.087414406
248	0x3cc6ba0a	0.024258632
249	0x3ec1599d	0.37763682
