results/testing_better_stopping/SNGP/SNGP_R750_LS1.23_OS1.81_75000Sin/model.pt (torch, 10339 bytes, 3 tensors)

feature_weight f4 [750, 1]
00000000: d70c 58be 0294 9f3f 1928 6abf d785 863f
00000010: 025b 12c0 5ee4 ae3e 7db1 96bf bb08 18bf
00000020: 97ca 40bf 77aa 68bf 9d06 c1bf 7070 b7bf
00000030: eaea ccbf 5695 03c0 ea6a 8d3c 33a7 7d3f
00000040: 11fe 9dbf f3bc 803f 3646 803e 9dba 8b3f
00000050: 7ea5 003f 1a12 8d3f 3436 8e3f e750 e63f
00000060: b448 a73e 3b82 71bf 3ac4 c93e 151e 493d
00000070: 4cdb d93f 5b08 f63d 464e afbf 0318 2d3d
00000080: 2d91 303e d512 163f 3586 fd3e 2b4d 173f
00000090: 9496 113f 6988 c3bc 3d1f 3cbe 0df0 eb3d
000000a0: 62a4 c3bf 5d36 24bd b5ee 633f cdea f93e
000000b0: c16d cd3f 67f8 76bf 3b01 a8bf 933e 3cbf
000000c0: bd2d f33e e04f 74bf 2167 febe 8509 8abf
000000d0: d866 13bf 9fd1 71be 4618 97be d586 8e3f
000000e0: 0ecf 4f3e 024e c4be 9be4 cf3f 1af8 ea3e
000000f0: f631 033f 57f8 b6bd 47a9 45bf 5a43 64bf
00000100: 0f27 1740 d9e3 4dbf eb04 1dbf 7d5b a53e
00000110: bb40 293f 659c 05bf f590 03c0 06d8 19bf
00000120: 6240 62bf 747e b7bf b7e1 e3bf e8c0 f33f
00000130: 88bf c0be 4b21 0fbf 3624 d33e 2b6a 183f
00000140: 1d07 58bf 881e b3bc 98ae 453f 74c8 77bf
00000150: 28ca b83f d213 b03e 0bee 913f cd15 bebe
00000160: 003c 05bf 0293 ffbd ab0b 37bf 2cad abbf
00000170: 090a 813f 8124 bc3f 705d 2f3f 0752 0bbe
00000180: 5b67 973f 16fc a6bf 1e91 aa3f a99c 75bf
00000190: bd44 55bf 9bd3 eb3f b35c 3dbf aff8 6cbf
000001a0: 7e4b f8be 6be2 533f 3f25 25bf b70d 3f3f
000001b0: 9884 88bf d07e e0be 6549 463e ea1b 5c3f
000001c0: b93e 383d bf02 c23c 1a8f fd3c 031f ca3f
000001d0: 2345 c0be a7e8 e93e 5a2e d8bf 8d0e cbbf
000001e0: c2a2 593f 9762 0dbe 9a6a cfbe 5336 88be
000001f0: 3db0 3d3e 71f4 4d3e 8bbb e1be 5126 5c3f
00000200: 6412 afbf 8fcb c3bf 8dd6 c3bc d2f8 6cbf
00000210: e627 2a3f a723 e7bf f96e f7be 0d0b 20bf
00000220: 5bee 573e 70b8 673e f6b8 433f 14ac 87be
00000230: f314 0ec0 f3af aabf 9b05 723d 1cab 613e
00000240: 8c4b 893f 06da 453f 1d3c 873e fad5 24bf
00000250: de84 aabf 2fab de3f f292 22be 3277 40be
00000260: 484b 973f d796 b6be 5e38 26bf a145 6ebf
00000270: 7ddd a83f 9df7 df3e 1d17 a33e aa44 bd3f
00000280: aff8 9cbe e825 ffbc a19f 7abf cc89 433f
00000290: e2b2 91bf 78a2 6f3f 2ad0 203f 6b45 92bf
000002a0: f633 523f b77c 593e 46fc cbbf 7c4e 4a40
000002b0: 68bb c93f f70c 543f cfb1 7d3f c348 973f
000002c0: 33f5 bcbe 957c 33bf 5270 a0bf 61e0 66be
000002d0: 0d36 dd3e d208 debe e653 b93f 045e 893e
000002e0: ab92 a23d 43fd c53e 146a 8cbf d38a 8a3f
000002f0: 0e47 e4bf 519f b0bf bba9 61be 1b01 1f3f
00000300: 0e86 c5be 3333 2b3f 2a78 e6bf 79a8 4840
00000310: d723 35bf 4e87 ba3f fecf 4ebe ddbb c3bf
00000320: eb1f 243f 05ad 69bf 6aa6 afbf d939 3bbe
00000330: 80d7 513f de1b b83e 83d9 1c3e 4cfa 8a3e
00000340: 53d8 1c3e c47f 9d3f 5b17 e53e b787 0f3f
00000350: e43a b2bf 4175 36bf 399b 5cbe 4e14 0c3f
00000360: 070c 03bf 0681 e7be c566 15c0 fc5d a7be
00000370: d533 8d3f 344d 8b3e 2b5b 0540 d2d8 38bf
00000380: bdcc 053e d21f eb3f b290 05c0 062d 5e3f
00000390: fd7c a23f 8679 80be 1fbf ef3d eae2 c4bf
000003a0: cbe2 36bf ec1c b23e 6c7a 4d3f 56fd 7f3f
000003b0: 9352 0840 6c39 bf3d f22b cbbf 3ebf 8cbf
000003c0: 71e2 e93e f6f1 18bf f2e0 ce3e 91aa 4c3f
000003d0: 7f0b 413f cf58 c63e e88f 7d3e b468 2e40
000003e0: b6a9 3c3f 8263 b1be 9562 3fbe 16f1 4e3f
000003f0: 4d99 e23e 649c 89bf 705c da3f 6559 70bf
-0.21098648 1.2467043 -0.91467434 1.0509595 -2.2868047 0.34158605 -1.1772915 -0.5938832
-0.7530913 -0.9088511 -1.5080143 -1.4331188 -1.600919 -2.0559897 0.017262895 0.9908325
-1.234316 1.0057663 0.25053567 1.0916325 0.5025252 1.1021149 1.1110291 1.799344
0.32672656 -0.9433934 0.3940752 0.049100954 1.7020049 0.120133124 -1.3695762 0.042259227
0.1724288 0.58622485 0.49516454 0.59102124 0.5687039 -0.023868756 -0.18371291 0.115203954
-1.5284541 -0.040090907 0.89036113 0.4881195 1.6049119 -0.9647278 -1.3125376 -0.7353298
0.47495833 -0.9543438 -0.49688056 -1.0784155 -0.575788 -0.2361512 -0.29510707 1.1134897
0.20293829 -0.38340765 1.624164 0.4589241 0.5124811 -0.08934086 -0.7721142 -0.8916527
2.361759 -0.8042579 -0.6133563 0.32296363 0.66114396 -0.52191764 -2.0557225 -0.6009525
-0.8837949 -1.4335465 -1.7803258 1.9043245 -0.37646127 -0.55910176 0.41238564 0.59537
-0.84385854 -0.021865144 0.77219534 -0.9679024 1.4436693 0.34390122 1.140077 -0.37126008
-0.5204468 -0.124792114 -0.7150218 -1.3412223 1.0081187 1.469864 0.6850195 -0.1360551
1.1828417 -1.304568 1.3325536 -0.9594217 -0.8330801 1.8423952 -0.7396957 -0.9256696
-0.48495096 0.8276736 -0.6450996 0.746303 -1.0665464 -0.4384675 0.19363935 0.85980093
0.044981692 0.02368295 0.030952025 1.5790714 -0.37552747 0.45685312 -1.6889145 -1.5863816
0.85013974 -0.1380714 -0.40511018 -0.26603946 0.18524261 0.20112778 -0.44088396 0.85995966
-1.3677487 -1.5296496 -0.023906017 -0.9256717 0.6646713 -1.8057755 -0.48326853 -0.6251686
0.21087019 0.22628951 0.76454103 -0.26498473 -2.2200286 -1.3334945 0.059087377 0.2203793
1.072618 0.772858 0.2641305 -0.64389 -1.3321798 1.7395991 -0.15876368 -0.1879547
1.1819849 -0.35661957 -0.6492976 -0.93074995 1.3192593 0.437436 0.31853572 1.478658
-0.3065848 -0.031146005 -0.97899824 0.76382136 -1.1382716 0.9360728 0.62817633 -1.1427435
0.82110536 0.21238981 -1.5936363 3.1610403 1.5760317 0.8283228 0.9909944 1.181908
-0.36905822 -0.7011197 -1.2534277 -0.22546531 0.432053 -0.43366104 1.4478729 0.2682954
0.07938131 0.38669786 -1.0969872 1.0823616 -1.7834184 -1.379862 -0.22037403 0.6211106
-0.38578838 0.66875 -1.8005421 3.1352828 -0.7075781 1.4572542 -0.2019653 -1.5291706
0.641112 -0.9127963 -1.372266 -0.18283786 0.8196945 0.3595876 0.15317349 0.27144086
0.15316896 1.2304616 0.4474438 0.5606646 -1.3924222 -0.71272665 -0.21543588 0.5471848
-0.5119023 -0.45215625 -2.3343976 -0.32688892 1.1031443 0.2720734 2.0836895 -0.7220584
0.13066383 1.8369086 -2.0869565 0.8678745 1.2694393 -0.25092715 0.11706375 -1.5381749
-0.7143981 0.3478769 0.80264926 0.99995935 2.13004 0.09337124 -1.5872786 -1.0995862
0.45680574 -0.59744203 0.40405995 0.79947764 0.75408167 0.3873963 0.24761927 2.7251406
0.7369646 -0.3464623 -0.1868995 0.8083662 0.44257584 -1.0750852 1.705946 -0.93886405

feature_bias f4 [750]
00000000: dd34 1f40 51f9 a740 7111 8f40 0cd2 de3f
00000010: dc8d 0c40 ffeb b540 3ff9 db3f ddf5 a640
00000020: 3074 6d40 1e73 8340 aad1 8540 4764 9c40
00000030: 240b a640 a7f6 b53e aced 9040 9c94 273f
00000040: 532d 3840 ea6d d33f 0e45 aa40 b2b1 9540
00000050: ce2c 883f 04c0 1540 6495 2e40 1a03 3e40
00000060: 5e1f 5f40 4b15 9e40 2540 8f3f 3434 3c40
00000070: 0cc8 a740 2f12 1d40 a5db a340 c0e6 a140
00000080: 5aad bc40 6f27 8440 442b 8e3f 7e68 8540
00000090: 8e4a 4c40 6102 cc3e 55ef 9040 911a ad40
000000a0: 944d cc3f b6d4 5440 0930 4a40 4a04 6c3d
000000b0: 2052 8a40 12ce c840 8e42 b040 d569 d93e
000000c0: f90a 763f b1a2 5f3f 7963 693f 6360 9740
000000d0: 5254 5940 f9b9 b63e 4291 af40 fc7c a540
000000e0: 6c60 7540 7c75 a140 0520 1c40 4897 1240
000000f0: 56a4 bd40 a1ef 8440 ad70 9d40 e96a 2f40
00000100: 777f 8d40 325a 0040 da4b 4940 76ed be40
00000110: b2d2 3940 1bdc 1d40 9751 5640 92e5 283f
00000120: 94b7 de3f aff7 8940 6a0f 5940 f381 2f40
00000130: 5e77 9e40 2d58 0040 e02f 0e40 1a89 9b40
00000140: 543f 3a40 a5d6 bc40 b81a 8440 0300 c13f
00000150: 5e5c af3f 8911 e93f 4f8f 8f3f e7b3 9d40
00000160: 89f5 4940 669c 433e e29e 9140 3441 9940
00000170: bd11 7040 018e 0f40 eaae 8b40 f964 0b40
00000180: 4853 a540 e882 b940 4d26 4540 b02a 783f
00000190: ff29 4e3f 401e 3a40 b311 4a40 247a b43f
000001a0: 97b7 ad40 fb02 ac3f 3630 8840 63db 9240
000001b0: e8b5 2240 5ecc ae40 f5f7 4e40 267c 1440
000001c0: d1aa eb3f b77d 4e3f 66e9 2840 aa9a 8740
000001d0: 428b b840 c2ac 2d40 a250 f83f 7a9c 8f40
000001e0: 88ad 0640 93a8 c83f b1a0 ac40 7f65 2940
000001f0: 15e1 1d3f a4ef 2f3f 5027 673f 76b7 d83f
00000200: abfd 603f b67d b240 da7c f93f 1052 b140
00000210: 44d1 ad40 330b 9640 a231 1b40 62aa dd3f
00000220: d67d f23f 971c 3c3e 3b89 8740 8bf1 6740
00000230: 2c8a a540 fae0 9340 1d1a 6140 369a a740
00000240: 3ad7 c040 0b2f db3f 6749 3a3f cbdf 313f
00000250: 27af 973f 6ce5 933f fd77 8a3f ec17 5f40
00000260: b6d9 8340 4543 813f 87c7 5d3f 97f1 5340
00000270: 5e82 2f40 30c0 7a40 44bb 6740 b7cf 8c3e
00000280: d03b b940 6bf3 8340 a70c 0b3f 96ba 4b3f
00000290: 41f4 a73f 228e b540 f7d8 ad40 55d7 9e40
000002a0: 10cd 3d40 0efa b440 da7a a740 7ea7 3040
000002b0: 4941 e13f a00a 1d40 e735 9540 998f 4240
000002c0: 439d 8a40 50ae 5f40 05c0 7340 77cf 273f
000002d0: 8344 2d40 484a 8b40 835e b240 3235 a640
000002e0: de55 be40 fd4e 8640 3b81 063f 718f 4640
000002f0: 75ae 883f 90f8 bb3c 1f05 773e 4a32 c040
00000300: 3114 8340 32a5 9740 697d 5040 b646 5a40
00000310: 757d 253f d046 8d3f 13d8 803f 66f6 fb3d
00000320: 8340 933f 32d9 7d3f 01cc a740 b6bf de3f
00000330: 9251 9d40 f544 2640 9a15 7f40 22f1 913f
00000340: 6c0b 653f a7ed 543f 4069 1640 3b79 7340
00000350: 037e 4c40 58c0 823f e9e9 133f 07db a340
00000360: 8a67 5a40 adf1 5c3f a93f 3740 6fc5 6f40
00000370: 0318 a440 524a f33f faad a140 83fc 8540
00000380: b775 2b40 734c 3940 89e9 1440 0f68 853e
00000390: f260 a640 89c6 fb3e d1d0 fe3c eb61 803f
000003a0: 314b 2540 023f a53f f87c c840 96d8 8940
000003b0: 732b 9840 3685 8940 1b0a bb3f 9f5f 493f
000003c0: 85dc 023f 2dbe 9540 110e 5c40 2bce 7f40
000003d0: c76e 7840 ad37 c03f 2773 3a40 5b90 a640
000003e0: 44f3 3340 65b4 bf40 1016 8640 f0af 6b40
000003f0: 3291 ab40 0b88 8540 20e3 9e40 090b 1340
2.4876015 5.249184 4.470879 1.7407851 2.1961584 5.685058 1.7185439 5.2175126
3.7102165 4.1078024 4.1818438 4.887241 5.18886 0.35539743 4.5290127 0.65461135
2.8777664 1.6517918 5.3209295 4.6779413 1.0638673 2.3398447 2.727868 2.9689393
3.4862895 4.9400992 1.119145 2.9406862 5.24317 2.4542348 5.120562 5.0594177
5.896161 4.1298137 1.1106954 4.1690054 3.1920505 0.39845565 4.5292153 5.409493
1.5961175 3.3254828 3.1591818 0.057621278 4.322525 6.275155 5.5081244 0.42463556
0.9611049 0.8735762 0.9116741 4.730516 3.3957715 0.3568876 5.4864817 5.171507
3.8340101 5.0455914 2.4394543 2.2904835 5.9263105 4.1542516 4.9200044 2.7409003
4.4218097 2.005505 3.1452546 5.966487 2.9034848 2.4665592 3.3487298 0.65975296
1.7399774 4.311485 3.3915658 2.7423065 4.952071 2.0053818 2.221672 4.860486
2.9101152 5.9012017 4.1282616 1.5078129 1.3700063 1.8208476 1.1215609 4.9282107
3.1556113 0.1910263 4.550645 4.7892094 3.7510827 2.2430422 4.365102 2.178038
5.166416 5.79723 3.0804627 0.96940136 0.8053283 2.9080963 3.1573303 1.4099774
5.428661 1.343841 4.255885 4.5892806 2.5423527 5.462447 3.233884 2.3200774
1.8411504 0.80660576 2.6392455 4.23763 5.7669992 2.7136693 1.9399607 4.487851
2.1043415 1.5676445 5.3946157 2.6468198 0.6167157 0.6872504 0.9029436 1.6930988
0.87887067 5.5778456 1.9491227 5.5412674 5.431795 4.688867 2.4249043 1.7317622
1.8944652 0.18370281 4.235502 3.6241176 5.1731167 4.621213 3.5172188 5.2375746
6.026273 1.7123731 0.72768253 0.69482106 1.1850327 1.1554389 1.0817868 3.485835
4.120326 1.0098654 0.8663258 3.3116205 2.742332 3.9179802 3.6208048 0.27502224
5.7885513 4.123464 0.5431618 0.7958158 1.3121415 5.6736 5.432735 4.9637856
2.965641 5.6555243 5.2337465 2.760223 1.7598048 2.4537735 4.66283 3.0400145
4.331697 3.4950142 3.808595 0.6555094 2.7073066 4.3528175 5.574037 5.1939936
5.947982 4.197142 0.5254094 3.102505 1.067824 0.022945672 0.24123047 6.006139
4.096215 4.7389154 3.2576544 3.4105659 0.6464456 1.1037235 1.0065941 0.12302856
1.1504062 0.9915954 5.243653 1.7402256 4.9162073 2.5979588 3.9856935 1.1401713
0.89470553 0.8317513 2.350174 3.8042743 3.1951911 1.0214949 0.57778794 5.1204867
3.4125695 0.8630627 2.8632605 3.7464254 5.127931 1.9007056 5.0524874 4.187074
2.6790597 2.895291 2.3267539 0.26055953 5.199334 0.49174908 0.03110543 1.0029882
2.5827143 1.2909853 6.265255 4.3076887 4.755304 4.297511 1.4612459 0.7866153
0.51117736 4.679465 3.4383585 3.9969585 3.8817613 1.5016991 2.9132783 5.2051215
2.8117228 5.990771 4.190193 3.6826134 5.361474 4.172857 4.965225 2.2975485

linear.weight f4 [1, 750]
00000000: 36d5 c03f d183 8dbe e84f 003e 5b18 6f3d
00000010: 0d14 da3d 2e53 b7bf 7a63 8b3e 4dee 5abf
00000020: f4c7 853f a7fb 0d3f 2c30 753d bbaf 50be
00000030: 568f 6bbe bdc5 083d 6023 b93e 3c43 6fbf
00000040: 363a 323f d0e9 3cbd 8ae6 83bf c695 183e
00000050: f22a 70bf 09fb 043f 4316 403f 7c13 b43d
00000060: c841 dd3f e734 b9be d190 62bf 6296 f23f
00000070: 07a1 013c fd9d be3f 2a8b 9cbe 980e 2cbf
00000080: caf2 dfbf 9a98 703f 4c4a 53bf f5e3 713f
00000090: 3eb3 cd3f c90b e0bf 4091 a83e 312f 9bbf
000000a0: 4f94 bf3d ccfc f33f d925 963f 325d d2bf
000000b0: 26a7 5d3e 8f2c 8cbf c1e5 09bf 5cb5 9abf
000000c0: 0742 87bf c67b 15bf 71c5 6dbf 008d fdbd
000000d0: 5b91 bf3f ba80 dbbf 3805 a9bf 2b5a 8fbe
000000e0: b12c b93f b5e2 2bbf bab4 243e 66a1 863f
000000f0: 70fc bcbf add3 7b3f 5ca4 d6be 2cdd 903f
00000100: f2d1 7d3e 7f35 323f 5874 c63f 2a99 d5bf
00000110: 9dc1 b13f af17 af3f a011 47bd 1374 94bf
00000120: d3fd bd3e 5cf8 853d a881 9c3d 8c56 e1bc
00000130: a990 08bf 4f87 493f a421 713f 5970 05be
00000140: 0458 a33f e15a e4bf 07a7 533f 6917 353d
00000150: 2bac 64be 1e70 c73e 3f7c 03bf c934 febe
00000160: 6296 ce3f 91f0 f2bf 5bdd c53d a69f 31be
00000170: 8197 703f 6a1a 473e 8c31 1d3f fe21 8e3f
00000180: 0644 6fbe 1816 20bf 393e 0d3f a811 06bf
00000190: f5b5 4dbf 711b bf3d e3a8 b33f c032 99bb
000001a0: 2353 94bf d020 c9be 746f 043f 1fc7 9e3e
000001b0: f7af 5c3f 990a a2bf 0f09 f13f 748f 353f
000001c0: 19fc f53e 9722 acbf 083d db3f 90d9 8a3e
000001d0: ca1a ccbf 1816 bd3f 18c9 423e e0f0 37bd
000001e0: 1ec7 063f 68cd 673d 76b0 93bf 95d7 cf3f
000001f0: 566c c4bf 7f9b bdbf 92e7 79bf 1cad b3bc
00000200: f073 83be fb57 c4be 34c3 3c3f fee4 6ebf
00000210: 88e7 5abf 068a b7bd 378d ab3f 67b9 b63e
00000220: a99d 123f 4f22 e8bf 341f 373f fb15 ca3f
00000230: 814f 0ebe 45c8 b0bd 43b5 e53f 6cab 63bf
00000240: f689 5fbf d52d 803d 6608 b8bf dcb7 87bf
00000250: 2081 bebd adef 2cbe 49e9 5fbf 592e dd3f
00000260: 6799 0e3f 70b9 65bf 3ce6 58bf f19c 8a3f
00000270: 0093 023f 321b a53f a3f8 d53f 537a cdbe
00000280: ff80 d2bf f0e5 8b3f 630c 5abf 644a 84bf
00000290: 042a bebd c1da 51bf c229 6abf e0af bcbe
000002a0: 011e 9e3f 757f bebf 628f 89be 2e5e 72be
000002b0: dc1a 2abd 2cf0 593f d3ca 363e 91e6 3e3f
000002c0: 0f25 1c3f ca4c aa3f 3e03 fc3e ed28 b8bf
000002d0: 636c c03f 0334 ff3e 2416 8cbe 8da8 51bf
000002e0: e921 e9bf 2b38 783f 0aae 31bf 0282 713f
000002f0: a683 043d 6888 00bf 44ef e9bf 5cd8 b7bf
00000300: ea5d 763f defc 803d a5ff 993d 790b b63d
00000310: 9a20 88bf 3337 a4be 16c6 71bf 2334 a1be
00000320: 3ea5 44bf 61e3 08bf dc10 b8be f6bb ad3e
00000330: 5d4e f5bd 8865 be3f 691f a33f b17a 55bf
00000340: 9d94 9bbf 859f 18bf e1f2 8f3f 6f72 ac3f
00000350: 3300 013f 0992 1cbf 8588 c3bf 53d1 0dbf
00000360: f9e1 c53f d021 85bf 762c 80bc ae64 b73f
00000370: 078a 6fbe af72 033f bf2a 4c3e 4781 1c3f
00000380: acb8 d73f 73fa a63d a798 b43d e555 97bf
00000390: 0de1 54be 8b5a cabf 1c18 f4bf 32d5 a6bd
000003a0: 5e33 a73f a0be 12bf 990d a6bf 7715 0b3f
000003b0: 8afa 533e 92cc 4f3f e329 a33d 0949 09bf
000003c0: 344d c6bf 40fc 82bd 1f74 d53f aced 703f
000003d0: 0449 8a3f 3346 6ebe 3c60 e23f 1949 c83e
000003e0: 2170 a53f b38b dcbf 5d7b 633f 6743 963f
000003f0: dd11 73bf 6f62 b03e 6ca9 0f3d 8804 513f
1.5065067 -0.2763963 0.12530482 0.058372837 0.10648356 -1.432226 0.27224332 -0.8551987
1.0451646 0.55462116 0.059860393 -0.20379536 -0.23003897 0.033391703 0.361598 -0.93461967
0.6962007 -0.04612142 -1.030473 0.14900884 -0.9381553 0.5194555 0.7503397 0.08792779
1.72857 -0.36173174 -0.8850222 1.8952143 0.007911927 1.4891964 -0.30574924 -0.6720977
-1.7495968 0.9398285 -0.82535243 0.9448846 1.6070325 -1.7503597 0.32923317 -1.2123777
0.093544595 1.9061522 1.17303 -1.6434691 0.21645793 -1.0951098 -0.538662 -1.2086596
-1.0567025 -0.5839199 -0.92879397 -0.12380409 1.4966234 -1.7148659 -1.3204718 -0.2799848
1.4466764 -0.671428 0.16084567 1.0518005 -1.4764538 0.98369867 -0.4192227 1.1317496
0.24787119 0.6961288 1.5504255 -1.6687367 1.3887211 1.3679103 -0.048600793 -1.1597923
0.37107715 0.065415114 0.076419175 -0.02750709 -0.53345734 0.7872209 0.94191957 -0.13031138
1.2761235 -1.7840234 0.8267674 0.04421178 -0.22331302 0.38952726 -0.5136146 -0.49649647
1.6139643 -1.8979665 0.09661361 -0.17346057 0.93981177 0.1944367 0.6140373 1.1104124
-0.23365793 -0.6253371 0.5517307 -0.5237069 -0.8035577 0.09331406 1.4035915 -0.0046752393
-1.1587871 -0.39282846 0.51732564 0.31011292 0.86206 -1.2659484 1.883089 0.7092202
0.48043898 -1.3448056 1.7128 0.27119112 -1.5945675 1.4772367 0.19022024 -0.04490745
0.5264758 0.056592375 -1.1538227 1.6237665 -1.5345562 -1.4813079 -0.97618973 -0.02193313
-0.2567439 -0.38348374 0.73735356 -0.93318164 -0.8550954 -0.08961873 1.340247 0.35688326
0.5727182 -1.813547 0.7153199 1.5787958 -0.13897516 -0.086319484 1.7945942 -0.88933444
-0.87319887 0.06258742 -1.4377563 -1.0602984 -0.093019724 -0.16888304 -0.8746534 1.7279769
0.55702823 -0.8973608 -0.8472631 1.0829145 0.51005554 1.2898924 1.6716503 -0.40132388
-1.6445616 1.0929546 -0.8517515 -1.0335202 -0.092853576 -0.81974417 -0.9146997 -0.36852932
1.2352906 -1.4882647 -0.26867205 -0.23668739 -0.04152952 0.851321 0.17850809 0.74570566
0.60994047 1.3304684 0.49221224 -1.438749 1.5033077 0.4984437 -0.27360642 -0.81897813
-1.8213474 0.96960706 -0.6940619 0.94339 0.032352112 -0.5020814 -1.8276143 -1.4362903
0.9623705 0.062982306 0.075194634 0.08888907 -1.0634949 -0.32073364 -0.9444288 -0.3148509
-0.7681464 -0.5347195 -0.35950363 0.33932465 -0.11977837 1.4874735 1.2743961 -0.8339034
-1.2154728 -0.5961841 1.1245996 1.3472422 0.5039093 -0.6116033 -1.5276037 -0.5539753
1.5459586 -1.0400944 -0.0156462 1.43276 -0.23392497 0.5134687 0.19938181 0.6113476
1.6853232 0.08153238 0.088181786 -1.1823088 -0.20788975 -1.5808882 -1.9069858 -0.081461325
1.3062551 -0.5732212 -1.29729 0.5432963 0.20701042 0.81171525 0.07966974 -0.5362707
-1.549231 -0.06395769 1.6676062 0.9411266 1.0803533 -0.23268966 1.7685618 0.3911827
1.2924844 -1.7230133 0.8886011 1.173932 -0.9494913 0.344501 0.035073683 0.8164754
