results/SNGP_FINAL_RESULTS/SNGP/SNGP_R1000_LS1.00_OS13.00_1000Friedman/model.pt (torch, 29830 bytes, 3 tensors)

feature_weight f4 [1000, 5]
0	0x3f2cbb8d	0.6747368
1	0xbf4a42ec	-0.79008365
2	0xbf347ac8	-0.7049985
3	0xbfaf750f	-1.3707598
4	0xbf1a8d83	-0.6037218
5	0x3e4d7ac0	0.20066357
6	0xbfebd403	-1.8424076
7	0xbf02dfdd	-0.5112284
8	0xbf4bffba	-0.7968708
9	0xbfae095c	-1.3596606
10	0x3f8a62b0	1.0811367
11	0x3f759a30	0.95938396
12	0xbefcd49c	-0.49380958
13	0x3f8bc16c	1.0918403
14	0xbef6a509	-0.48172787
15	0x3fa6860f	1.3009661
16	0x3fdcde66	1.7255371
17	0x3f60ff5f	0.87889665
18	0xbf3e11e4	-0.7424605
19	0xbf0aa905	-0.54164153
20	0xbf5cdda3	-0.8627569
21	0xbe424acb	-0.18973844
22	0x3f66e7a4	0.90197206
23	0xbe417ef4	-0.18896085
24	0xbec1a811	-0.37823537
25	0xbe463a29	-0.19358124
26	0xbe2cfaa4	-0.16892487
27	0x3f9c9e80	1.223587
28	0xbf1c4903	-0.6104891
29	0x3fab21be	1.3369672
30	0xbfd2c47c	-1.6466212
31	0xbffec49f	-1.9903754
32	0x3ecb1f3a	0.3967226
33	0x3f6e9727	0.9319939
34	0x3e54f773	0.2079752
35	0x3f389bdc	0.7211282
36	0x3e0ce874	0.13760549
37	0xbf45a686	-0.7720722
38	0x3f9d1976	1.2273395
39	0xbdda4036	-0.106567785
40	0xbff3f2df	-1.9058493
41	0x40009bd5	2.0095112
42	0xbf53576f	-0.8255529
43	0x3fa38796	1.2775753
44	0x3ea9a4cf	0.3313355
45	0x3d6fee9e	0.058577172
46	0x3fab819e	1.3398931
47	0x3fb34bcb	1.4007505
48	0x3f14b86f	0.58093923
49	0xbeb1fa51	-0.3476129
50	0x3ee29cb2	0.44260174
51	0xbfd83d51	-1.6893712
52	0xc010d459	-2.2629607
53	0xbeb593ea	-0.35464412
54	0x3e5738c0	0.21017742
55	0xbf68a0ad	-0.9087017
56	0xbf2c0795	-0.6719907
57	0x3e702dc3	0.23454957
58	0x3efd10d5	0.49426904
59	0xbfb2c101	-1.396515
60	0x3f197f4c	0.59959865
61	0xbef07c86	-0.46970004
62	0x3f69c381	0.9131394
63	0x3dce0b18	0.1006071
64	0xbf49b42f	-0.78790563
65	0xbf1eda22	-0.62051594
66	0x3f9b3744	1.2126241
67	0xbdc7b3db	-0.097511016
68	0x3fe87958	1.8162031
69	0xbed1522a	-0.40883
70	0x402d46ef	2.7074544
71	0x3d74f331	0.059802238
72	0xbfc1db63	-1.5145077
73	0xbe9974de	-0.29971975
74	0xbf274674	-0.6534188
75	0xbfa5e830	-1.2961483
76	0xbfda047a	-1.7032616
77	0xbf800a56	-1.0003154
78	0xbfc9a2f2	-1.5752852
79	0xbbdc08a6	-0.006714898
80	0x3e2a53bb	0.16633503
81	0x3fafd950	1.3738194
82	0xbf9d9ddb	-1.2313799
83	0x3f980e3f	1.1879348
84	0x3effb464	0.49942315
85	0xbe65f72e	-0.22457573
86	0x3d017c8e	0.031612925
87	0x3fdfd94d	1.748819
88	0x3fb28efe	1.3949888
89	0x3e71f762	0.23629525
90	0xbe5fbe19	-0.2184986
91	0x3ff86dd5	1.9408518
92	0x3cc6381c	0.024196677
93	0x3e3a680e	0.18203756
94	0x3ee92566	0.45536345
95	0x3fb67778	1.4255209
96	0x3d93fc6c	0.0722588
97	0x3d82812f	0.06372296
98	0x3ea9716a	0.3309434
99	0x3dcfe868	0.1015175
100	0x3fe3670b	1.7765821
101	0xbfa24c24	-1.2679486
102	0x3ee484d9	0.44632605
103	0xbe482103	-0.19543843
104	0x3f749ca0	0.9555149
105	0x3fec855a	1.8478196
106	0x3f88367c	1.0641627
107	0xbf02d030	-0.5109892
108	0xbf55202b	-0.8325221
109	0x3eb51457	0.3536708
110	0xbf7c66e7	-0.98594517
111	0xbfc9af1a	-1.5756562
112	0xbed97593	-0.42472515
113	0xbeb9009b	-0.36133274
114	0x3fbec78d	1.4904648
115	0x3e0ce1bc	0.13757986
116	0xbd5e873b	-0.054328185
117	0x3f9f0206	1.2422493
118	0x3ea6c894	0.32574904
119	0xbf2bea6e	-0.67154586
120	0x3f55dc5e	0.8353938
121	0xbf61bf4d	-0.88182527
122	0xbfba4636	-1.4552677
123	0x400ba56c	2.1819715
124	0xbfcb823f	-1.5899123
125	0xbf65ec6d	-0.8981388
126	0x3e6ef869	0.23336948
127	0xbe96ccd1	-0.29453138
128	0x3f9430ee	1.1577432
129	0xbeec762a	-0.46183902
130	0x3f9468e7	1.1594514
131	0xbeb3a3e2	-0.3508597
132	0x3f8c2051	1.0947362
133	0x3fbefee5	1.4921538
134	0x3ff33f2f	1.9003657
135	0xbd5aa50f	-0.05338007
136	0xbf93435f	-1.1504935
137	0x3da6e247	0.08148628
138	0xbe2681fb	-0.16260521
139	0x3f2c41e3	0.67288035
140	0xbfcaeb19	-1.5852996
141	0xbf4a0b8d	-0.78923875
142	0x3ff6b446	1.9273765
143	0xbf8e22db	-1.1104387
144	0xbd83c915	-0.06434838
145	0x3eb0b1bb	0.34510598
146	0x40144e93	2.3172958
147	0x3f597901	0.8495026
148	0x3fc0fd8b	1.5077375
149	0xbfaff881	-1.3747712
150	0xbf17e5a2	-0.59334767
151	0xbf35043d	-0.7070959
152	0x3e9383d1	0.28811505
153	0xbdac1c84	-0.084038764
154	0x3f8d0b61	1.1019098
155	0x3e7845b7	0.24245344
156	0x3ebeb400	0.37246704
157	0xbd5c1cb6	-0.05373832
158	0xbe05c46b	-0.13063209
159	0xbea70408	-0.32620263
160	0x3e9a71d5	0.30164972
161	0xbe4159f9	-0.18881978
162	0xbfac1d05	-1.3446356
163	0x3f60d190	0.87819767
164	0xbfa92f0b	-1.3217481
165	0x3f92e81c	1.1477084
166	0x3ec73c92	0.389134
167	0xbec3a832	-0.3821426
168	0x3ee2cfcb	0.44299158
169	0xbee1504b	-0.4400657
170	0xc01665e8	-2.3499699
171	0xbeb52bad	-0.35384884
172	0x3fdbd682	1.7174838
173	0x3e833492	0.25626045
174	0xbfe9e789	-1.8273784
175	0x3e086a2d	0.13321753
176	0x3f93952d	1.15299
177	0xbf9b47bb	-1.2131265
178	0x3e2d4884	0.16922194
179	0xbf5399cd	-0.82656556
180	0x3e8b60e3	0.27222356
181	0xbea80a5d	-0.32820407
182	0xbe185946	-0.14877805
183	0xbf0cc78b	-0.5499198
184	0x3f987a73	1.1912369
185	0xbe38ac97	-0.18034588
186	0x3f872626	1.0558517
187	0x3f51a6f3	0.8189537
188	0xbf033ebc	-0.512676
189	0x3f77e039	0.9682651
190	0xbf4abcd6	-0.7919439
191	0x3fa30a16	1.2737453
192	0xbecd86ae	-0.40141815
193	0x3f946ce6	1.1595733
194	0xbfc62bec	-1.5482154
195	0x3f8e8517	1.1134366
196	0x3e8535e7	0.26017687
197	0xbf2c480e	-0.67297447
198	0xbedfcbdd	-0.43710223
199	0xbeea5bba	-0.45773107
200	0x3e6efd99	0.23338927
201	0xbf227b9a	-0.6346985
202	0xbf2e0567	-0.67976993
203	0xbe213645	-0.15743358
204	0x4001e39e	2.0295177
205	0xbeb8a713	-0.36064968
206	0x3ebd6977	0.36994526
207	0x3f36cc03	0.7140505
208	0xbf04d852	-0.5189258
209	0x3ec4ca27	0.3843548
210	0xc02a64ae	-2.662395
211	0x3f311b9c	0.69182754
212	0x3f04d77b	0.518913
213	0x3f8e39c2	1.1111376
214	0xbf8ad17a	-1.0845177
215	0xbee222a3	-0.4416705
216	0x3f7fa523	0.99861354
217	0xbd09c118	-0.033631414
218	0xbfab90ba	-1.3403542
219	0xbfa05903	-1.2527164
220	0xbf25c54d	-0.6475418
221	0x3f09000b	0.5351569
222	0xbd0a830c	-0.033816382
223	0x3eca07b0	0.3945899
224	0x3e908b65	0.2823135
225	0x3fb24cad	1.392965
226	0x3facf3bd	1.3511883
227	0x3f444351	0.76665217
228	0xbd500330	-0.05078429
229	0xbe176b10	-0.14786935
230	0x3fd73a72	1.6814711
231	0x3f29b27c	0.6628797
232	0x3f29b256	0.66287744
233	0xbe8abb21	-0.27095893
234	0xbfe7c32c	-1.8106437
235	0xbeba3156	-0.36365765
236	0x3fdbbbc5	1.7166678
237	0x3e2ec4df	0.17067288
238	0xbfbcf509	-1.4762279
239	0x3e35b9b6	0.17746624
240	0xbf0d3551	-0.5515948
241	0xbf9050a7	-1.1274613
242	0xbf79cd0c	-0.975785
243	0xbfca1081	-1.5786287
244	0x3e42f56d	0.19038935
245	0xbf30fb52	-0.69133484
246	0x3fba94fc	1.4576716
247	0xbe7b6543	-0.24550347
248	0x3f5c245b	0.85992974
249	0xbf350373	-0.7070839
250	0x3e83aaea	0.25716335
251	0xbf59102e	-0.84790313
252	0xbfd0bc00	-1.6307373
253	0x3dded11b	0.108797275
254	0xbf4460ec	-0.7671039
255	0x3eca6ebe	0.39537615

feature_bias f4 [1000]
0	0x4087f95c	4.2491894
1	0x404b5863	3.1772697
2	0x40b99ab1	5.800133
3	0x40bc1315	5.8773293
4	0x409dc590	4.9303665
5	0x400bbc27	2.183359
6	0x40be6fcf	5.9511485
7	0x3e0bb417	0.13642918
8	0x3fbe0b48	1.4847193
9	0x405b53a8	3.426981
10	0x3d7aed53	0.061261486
11	0x4095ce4a	4.681432
12	0x40622807	3.533693
13	0x40ba6f70	5.826103
14	0x3eb911eb	0.36146483
15	0x408d4a0a	4.415288
16	0x3f515105	0.8176425
17	0x3f1b18d3	0.60584754
18	0x40b16c18	5.544445
19	0x40308484	2.758088
20	0x40883788	4.2567787
21	0x409dca77	4.930965
22	0x3f852035	1.0400454
23	0x407874ab	3.8821208
24	0x3f7968f8	0.97425795
25	0x400bf713	2.1869552
26	0x3fa1b3f8	1.2633047
27	0x400c0331	2.1876948
28	0x3fce551f	1.6119727
29	0x40ba19fa	5.815671
30	0x3f9204a9	1.1407672
31	0x3e991205	0.2989656
32	0x3eb3b2c9	0.3509734
33	0x3ff49def	1.9110698
34	0x4087687a	4.2315035
35	0x4082fc00	4.0932617
36	0x3df6f4d3	0.12058415
37	0x3fde702b	1.7377981
38	0x40873095	4.2246804
39	0x403e358f	2.972019
40	0x401977f1	2.3979456
41	0x408cc4e2	4.3990335
42	0x40c20af6	6.063838
43	0x40b797df	5.737289
44	0x3fac8d78	1.3480673
45	0x3fcf8801	1.621338
46	0x409bb32f	4.865623
47	0x3fbe8af5	1.4886156
48	0x4016aa4e	2.3541446
49	0x3ea6c9ed	0.32575932
50	0x402e5c4d	2.7243836
51	0x408d900f	4.4238353
52	0x3fc3d525	1.5299422
53	0x3fb5c6f4	1.4201341
54	0x40b6b89e	5.7100363
55	0x3f48eb49	0.78484017
56	0x4082fefc	4.093626
57	0x3ed92898	0.42413783
58	0x40753250	3.8311958
59	0x40c19251	6.049111
60	0x4016f9de	2.3590007
61	0x404b4603	3.1761482
62	0x40317c4c	2.7732115
63	0x4048519b	3.1299808
64	0x3fe9fa6e	1.827955
65	0x40b247ea	5.5712786
66	0x3f6b0eda	0.91819537
67	0x407fff2a	3.999949
68	0x3fe4398d	1.7830063
69	0x3ec5c869	0.38629463
70	0x40b08b30	5.5169907
71	0x3fccb0cf	1.5991458
72	0x404e5091	3.2236674
73	0x409c606f	4.8867717
74	0x40912d5d	4.5367875
75	0x40c11709	6.034062
76	0x3f966988	1.1750956
77	0x3f461bd6	0.77386224
78	0x40365c55	2.8493855
79	0x4084193f	4.128082
80	0x40822b09	4.0677533
81	0x3f9e66fe	1.2375181
82	0x403b5268	2.9269047
83	0x3f6b8f18	0.9201522
84	0x40aa2750	5.317299
85	0x40843964	4.1320057
86	0x40a0fdf2	5.030999
87	0x4055ff31	3.3437006
88	0x4095abd0	4.677223
89	0x3e81f329	0.2538083
90	0x406bcbfe	3.6843257
91	0x407076b6	3.7572455
92	0x406a30db	3.659232
93	0x3f999a46	1.2000206
94	0x3fde1459	1.734996
95	0x40939519	4.6119504
96	0x40b52986	5.661319
97	0x40167aa5	2.3512356
98	0x4090fc77	4.5308185
99	0x40b12684	5.5359516
100	0x3f891670	1.0709972
101	0x3ca59195	0.02021102
102	0x40174013	2.3632858
103	0x3f5387e1	0.8262921
104	0x40b3124c	5.5959835
105	0x3e974086	0.29541415
106	0x408c6474	4.3872623
107	0x4088d182	4.2755747
108	0x407db24e	3.9640079
109	0x409213d2	4.5649195
110	0x4076d57e	3.8567805
111	0x40a9d527	5.3072696
112	0x40a11d1e	5.0348043
113	0x3feb8531	1.8400022
114	0x3f93420f	1.1504534
115	0x40106393	2.2560775
116	0x3f439466	0.76398313
117	0x3eafbdd1	0.34324506
118	0x40b61d9c	5.6911144
119	0x40c5e3e0	6.184067
120	0x404ab223	3.1671226
121	0x404bbbb3	3.1833313
122	0x404c7995	3.1949208
123	0x3f7ab69e	0.979349
124	0x40696aa5	3.647134
125	0x4026e95b	2.607993
126	0x40b583a5	5.67232
127	0x3f4e8413	0.8067028
128	0x409e3157	4.943523
129	0x407abd67	3.9178102
130	0x3f041440	0.515934
131	0x40217d0b	2.523257
132	0x4054a9d0	3.3228645
133	0x408c386e	4.3818884
134	0x405d832f	3.4611318
135	0x406f0b0f	3.73505
136	0x3ebe2067	0.37134096
137	0x409efd36	4.9684095
138	0x40543449	3.3156912
139	0x3f5ad8cf	0.85487074
140	0x3effab0f	0.49935195
141	0x3f21e449	0.6323896
142	0x40c3f9b8	6.1242332
143	0x40756c6d	3.8347428
144	0x3f9aedf2	1.2103865
145	0x402361dd	2.552848
146	0x403d89a4	2.961526
147	0x3e9bc875	0.30426374
148	0x3fd6b8f0	1.6775188
149	0x40a5e48b	5.1841483
150	0x4012454b	2.2854793
151	0x3ff28ba4	1.8948865
152	0x3ea75d63	0.32688436
153	0x3ddbda9e	0.10735057
154	0x408fd854	4.4951572
155	0x405f9f8f	3.4941137
156	0x3f2bd997	0.6712889
157	0x3fa0be14	1.2558007
158	0x401f4f36	2.4892097
159	0x3ffe5aa0	1.9871407
160	0x40c5ba40	6.1789856
161	0x3f917527	1.1363877
162	0x40b17b73	5.5463195
163	0x40a210f3	5.064569
164	0x4031e1a7	2.7793977
165	0x3f14f278	0.5818248
166	0x3f27d8d1	0.6556521
167	0x40141940	2.3140411
168	0x409c33b0	4.8813095
169	0x3f4641e7	0.7744431
170	0x407ccc62	3.9499745
171	0x4051a574	3.2757235
172	0x3f77545f	0.96613115
173	0x40b80836	5.7510023
174	0x3f6922c7	0.9106869
175	0x40a83a69	5.25713
176	0x40aaa1f7	5.332271
177	0x402e0e5f	2.7196271
178	0x3f848d92	1.0355704
179	0x3f1aa9d6	0.604154
180	0x3f79061c	0.9727495
181	0x407efff4	3.9843721
182	0x400573a5	2.0851834
183	0x40346e61	2.819237
184	0x40823380	4.0687866
185	0x3f7ab551	0.97932917
186	0x3ed6287a	0.41827756
187	0x40c62682	6.1922007
188	0x400774d5	2.1165059
189	0x3e0d5522	0.13802007
190	0x40852f70	4.1620407
191	0x40b92ba9	5.7865796
192	0x3f81bf8f	1.0136584
193	0x408690b5	4.2051644
194	0x3f98cbe3	1.1937221
195	0x3faeab75	1.3646075
196	0x401826ff	2.3773801
197	0x40741e8a	3.814364
198	0x409c7c7d	4.8901963
199	0x3fa9ae60	1.325634
200	0x3f609a83	0.87735766
201	0x3f2c3ff0	0.6728506
202	0x408f5a89	4.4798017
203	0x40c57626	6.1706724
204	0x40a73f13	5.2264495
205	0x403160bb	2.771529
206	0x40b62480	5.6919556
207	0x4027c741	2.6215365
208	0x40aee3c1	5.465302
209	0x3fce315f	1.6108817
210	0x40bf8fd0	5.986305
211	0x408c6931	4.3878407
212	0x3fc9469a	1.5724671
213	0x4092d61b	4.588636
214	0x3f306193	0.68898886
215	0x40a1bd35	5.0543466
216	0x40a830d0	5.2559586
217	0x3f718125	0.94337684
218	0x408e6794	4.450144
219	0x3ff45cf4	1.9090867
220	0x3fbc57c4	1.4714284
221	0x3fe7af52	1.8100379
222	0x401b9bf4	2.4313936
223	0x4071e8f6	3.7798438
224	0x3ea71c8a	0.3263896
225	0x40878165	4.234545
226	0x3f9e78d3	1.2380623
227	0x40ac4f09	5.384648
228	0x3f9aac4b	1.208383
229	0x402ffc1c	2.7497625
230	0x4006e523	2.1077354
231	0x40c01afd	6.0032945
232	0x408474e4	4.139269
233	0x3f3c9273	0.73660964
234	0x408ca695	4.3953347
235	0x40219997	2.5249994
236	0x40981f8c	4.753851
237	0x3e3966e3	0.18105654
238	0x3f8640d1	1.048853
239	0x40b1b9eb	5.553945
240	0x3f862dd5	1.0482737
241	0x3ea2ff07	0.31835195
242	0x40a3fa01	5.124268
243	0x3ffa12aa	1.9536946
244	0x409f3f8e	4.976508
245	0x4072b220	3.792122
246	0x406cc4f0	3.69952
247	0x40b38413	5.6098723
248	0x404ddeac	3.2167158
249	0x40355667	2.8333986
250	0x40936070	4.605522
251	0x40737c7a	3.8044724
252	0x402fa898	2.7446651
253	0x40c654b3	6.1978393
254	0x40acd55f	5.4010463
255	0x40b52c1b	5.661634

linear.weight f4 [1, 1000]
0	0xbd0dc7b1	-0.03461427
1	0x3e2d9fc3	0.16955476
2	0x3d9c72d4	0.07639089
3	0xbcca788f	-0.02471569
4	0xbd5c99ef	-0.05385774
5	0x3d632bc8	0.055461675
6	0xbe506f40	-0.20354939
7	0xbbaabf10	-0.0052107647
8	0xbda17de5	-0.078853406
9	0x3c0877d4	0.0083293505
10	0x3dac2414	0.08405319
11	0xbe0667db	-0.13125555
12	0xbd9d7900	-0.076890945
13	0x3d55fc1a	0.052242376
14	0x3d913554	0.0709025
15	0x3e46b3b2	0.19404486
16	0xbd9ddb9e	-0.07707904
17	0x3d4bfb68	0.049800307
18	0x3e59afa8	0.21258414
19	0xbe107657	-0.14107643
20	0x3d904401	0.07044221
21	0x3e53b9e0	0.20676374
22	0x3dc50650	0.09620345
23	0xbb9f799b	-0.0048667914
24	0xbe16dd67	-0.14732896
25	0xbd964f48	-0.073393404
26	0x3de40b98	0.11135024
27	0xbd17c0d7	-0.03704914
28	0xbae9e071	-0.0017843378
29	0xbcdc7b56	-0.02691428
30	0x3d6c9f9f	0.057769414
31	0x3e286577	0.16444956
32	0xbd9889ad	-0.074481346
33	0xbe365d3a	-0.17809
34	0x3d3b4a3a	0.045725085
35	0x3cd66a59	0.026173757
36	0x3dcc2934	0.09968796
37	0xbd878a17	-0.066181354
38	0xbcc08b79	-0.023504006
39	0xbe1570aa	-0.14593759
40	0xbd480734	-0.048834994
41	0xbd195367	-0.037433054
42	0x3e1570bc	0.14593786
43	0xbd99124f	-0.07474195
44	0xbcafa1ff	-0.02143955
45	0xbe2e6dca	-0.17034069
46	0x3cfa09ca	0.030522246
47	0x3d5aed2b	0.053448837
48	0x3dca3ddc	0.0987508
49	0x3dd91ffe	0.10601805
50	0xbcc312f7	-0.023812754
51	0x3d9fc60f	0.078014486
52	0x3daffc61	0.08593059
53	0x3df5c03e	0.11999558
54	0x3e05c153	0.13062029
55	0x3e681232	0.22663191
56	0x3e086d53	0.13322954
57	0x3b481b65	0.0030533907
58	0x3d77acb4	0.060467437
59	0x3ce05d72	0.027388308
60	0x3bb42cb3	0.0054984926
61	0xbe3061da	-0.17224827
62	0x3d14a3f3	0.036289167
63	0x3dd64172	0.104617015
64	0xbc3bf53d	-0.011472044
65	0xbda21017	-0.07913225
66	0x3d4f2188	0.050569087
67	0xbcaab5d9	-0.020838665
68	0xbe0f5f9a	-0.14001313
69	0xbde422d6	-0.11139457
70	0x3d353532	0.044240184
71	0xbe2a80c1	-0.16650678
72	0xbe0cc67d	-0.13747592
73	0xbe1e4c26	-0.15458736
74	0x3dc3c7e3	0.0955961
75	0x3dfeda3b	0.12443968
76	0xbcc13673	-0.023585534
77	0xbbd4983e	-0.0064878752
78	0xbd42c681	-0.04755259
79	0x3d0ba96d	0.034097124
80	0x3ce43e68	0.027861789
81	0xbe41be90	-0.1892035
82	0x3ec6d1b6	0.38831872
83	0xbdb148d3	-0.08656468
84	0x3dacba35	0.08433954
85	0x3d2774ae	0.04088276
86	0xbd98af54	-0.07455316
87	0xbde48a28	-0.11159164
88	0xbe336597	-0.17519222
89	0xbd96b2af	-0.073583
90	0xbdaec03d	-0.0853276
91	0x3daddb2f	0.084890716
92	0x3de4cf5c	0.11172363
93	0xbd920708	-0.07130247
94	0x3cb0fc24	0.021604605
95	0x3dfa0e35	0.12209741
96	0xbd901499	-0.07035179
97	0xbdd104d1	-0.10205997
98	0x3c92cd2d	0.017920101
99	0x3b9d4010	0.0047988966
100	0x3d126ed1	0.035750214
101	0xbe10425b	-0.14087813
102	0x3d4fecc7	0.050762918
103	0x3d99bf4c	0.0750719
104	0xbe3bb973	-0.18332462
105	0x3d3d8bcf	0.04627591
106	0x3e766755	0.24062856
107	0xbe17a206	-0.14807901
108	0x3b6ef280	0.003646046
109	0xbe6e9d63	-0.23302226
110	0x3d6a7f4e	0.057250313
111	0x3d9877db	0.074447356
112	0xbb71fedb	-0.0036925587
113	0xbdd9587c	-0.1061258
114	0xbd4b8cf8	-0.049694985
115	0xbe475333	-0.19465332
116	0x3e13f0fe	0.144474
117	0x3a947683	0.0011326823
118	0xbb4d6d76	-0.0031345761
119	0x3db32c3e	0.08748673
120	0xbd0599a9	-0.032617245
121	0xba2680a8	-0.0006351569
122	0x3e170f42	0.14751914
123	0x3d8b448f	0.06800186
124	0xbe2d314a	-0.16913334
125	0x3d18205b	0.03714023
126	0xbdbfed95	-0.09371487
127	0x3d8128a7	0.06306582
128	0xbe3114b4	-0.17293054
129	0x3da9c246	0.08289008
130	0xbde7aaf4	-0.113119036
131	0x3dff8d69	0.12478144
132	0x3e8aa77b	0.27080902
133	0x3d9cb75c	0.076521605
134	0xbdb9c887	-0.09071451
135	0xbc7c3c2a	-0.015395204
136	0x3db3121c	0.087436885
137	0x3b60527f	0.003422886
138	0x3c925b0d	0.017865682
139	0x3e013ff5	0.12622054
140	0x3e00c78e	0.12576124
141	0x3a963680	0.0011460334
142	0xbcfc082b	-0.030765614
143	0x3d75a407	0.05997088
144	0x3e48f3ce	0.19624254
145	0x3d5e5e0d	0.054288913
146	0xbe04a785	-0.12954529
147	0x3cdd0d3e	0.026983853
148	0xbddb0fe5	-0.10696391
149	0xbde45bc7	-0.11150318
150	0xbd6450b1	-0.055741016
151	0x3e1fd6a2	0.1560922
152	0xbea04d60	-0.31309032
153	0x3d6983ed	0.05701058
154	0xbdf7ba2d	-0.12096057
155	0xbd96b5b7	-0.07358878
156	0xbd194271	-0.03741688
157	0x3c0fb65f	0.008771508
158	0x3d7d2104	0.061799064
159	0xbc8371a3	-0.016045397
160	0x3d45dbe7	0.04830542
161	0x3de43bf6	0.11144249
162	0xbbfaaf11	-0.007650264
163	0x3cf657ee	0.030071225
164	0xbd841782	-0.06449796
165	0xbc472b50	-0.012156323
166	0xbd99e1a4	-0.07513741
167	0x3d96eea4	0.07369736
168	0x3dd0e18c	0.1019927
169	0x3d47ff50	0.04882747
170	0xbcc77b18	-0.024350688
171	0xbc3c98c7	-0.011511034
172	0x3d1de45f	0.03854787
173	0xbc090501	-0.008363009
174	0x3e150846	0.14553937
175	0x3e0ff684	0.14058882
176	0xbcaff5bc	-0.02147948
177	0xbc5ebea5	-0.013595258
178	0xbc568aa9	-0.013094583
179	0x3d60da58	0.05489573
180	0x3b1a944b	0.0023586925
181	0xbde98980	-0.11403179
182	0xbcaa535b	-0.0207917
183	0x3c9381c0	0.018006206
184	0x3e3d189c	0.18466419
185	0x3c4c25d8	0.0124601945
186	0x3e0d6d98	0.13811338
187	0xbce773b6	-0.028253417
188	0x3d937c58	0.07201451
189	0x3dc26f2a	0.09493859
190	0xbb765568	-0.0037587527
191	0x3ca1d3c5	0.0197543
192	0x3e18446e	0.14869854
193	0xbe24146b	-0.16023414
194	0x3ddd19ad	0.10795913
195	0x3dc34eb0	0.09536493
196	0x3d6363e8	0.0555152
197	0x3c9cb4ab	0.019129118
198	0x3c324310	0.010880247
199	0x3db0b066	0.08627395
200	0x3e39140c	0.18074054
201	0x3d94af65	0.07260016
202	0x3d006081	0.031342033
203	0xbcef1227	-0.02918346
204	0xbe392a87	-0.18082629
205	0xbd809ddc	-0.06280109
206	0xbba58e0c	-0.0050523337
207	0xbd63e128	-0.055634648
208	0x3cf0f263	0.029412454
209	0x3c8e6081	0.017380001
210	0x3e098156	0.13428244
211	0xbe2461bf	-0.16052912
212	0x3e2c10c2	0.16803268
213	0xbdf56017	-0.11981218
214	0xbde44e32	-0.11147727
215	0xbce3890a	-0.027775306
216	0xbd9e88ab	-0.07740911
217	0xbdd9eb82	-0.10640623
218	0xbd4a3001	-0.049362186
219	0x3e0f53a5	0.13996752
220	0xbe1f926e	-0.15583202
221	0x3e24e804	0.16104132
222	0xbdc9cfd7	-0.098540954
223	0x3d64db1d	0.055873025
224	0xbc24f83e	-0.010068951
225	0x3c66eaaf	0.014094039
226	0x3c9c5d86	0.019087564
227	0xbd1626f5	-0.036658246
228	0xbe0c5241	-0.13703252
229	0x3df4158d	0.11918173
230	0xbdd67fa1	-0.10473562
231	0xbe2002ff	-0.15626143
232	0x3cadf6aa	0.021235783
233	0x3e6d03ce	0.23145983
234	0xbdd2ab8b	-0.102866255
235	0xbe1cadd8	-0.15300691
236	0xbdc4b012	-0.09603895
237	0xbe01140b	-0.12605302
238	0x3d5f5c7e	0.054531567
239	0xbdb9cceb	-0.09072288
240	0x3e0a523e	0.13507935
241	0x3e02128f	0.12702392
242	0xbbe16f2c	-0.006879708
243	0xbca40989	-0.020024078
244	0xbe09ebc3	-0.13468842
245	0xbe11feee	-0.14257404
246	0x3e1f3ce4	0.15550572
247	0x3e488342	0.19581321
248	0x3d3f7890	0.046745837
249	0x3cecbefc	0.028899662
250	0xbdd027af	-0.10163819
251	0xbdb662f1	-0.0890559
252	0x3e72ae27	0.23699246
253	0x3ce23cd7	0.027616901
254	0x3d9a1a9b	0.07524606
255	0xbccce008	-0.02500917
