results/SNGP_FINAL_RESULTS/SNGP/SNGP_R10000_LS0.25_OS2.75_10000CrazySin/model.pt (torch, 121734 bytes, 3 tensors)

feature_weight f4 [10000, 1]
0.27671474 0.15202175 -0.5854506 0.7603408 -0.6746218 -0.21868496 0.36869285 0.28586745
0.09661927 -0.4498848 -0.33012587 0.06793948 -0.103844225 -1.435697 0.6529607 -0.48390588
-1.1372504 0.08251384 -0.8188376 -1.2609899 -1.3081042 1.5310895 0.5378172 -0.3750981
1.4723954 0.44005632 -1.2114879 -0.5475694 -0.85149777 -1.1090065 -0.21038063 -0.4401526
-0.3564755 -0.27397415 -0.22282413 -0.12523605 0.4952785 0.6464865 -0.2390144 -0.3716852
-0.43254533 0.7696799 1.3497473 0.50767255 1.2696549 -0.4707658 2.0891554 0.90236247
1.0212691 -0.32180992 0.26367614 -0.19236392 -1.0625333 -0.14929588 1.2890912 0.77585685
-0.15663919 -1.5437968 -0.83839583 0.89646035 -0.91545147 -0.39104682 -0.95370907 0.054826822
0.4908527 -1.0642006 2.8350892 -0.6953327 1.8522692 -1.3688914 1.7652371 -0.076345176
-1.8502264 -0.17107758 1.9829836 -1.1495838 0.08507674 -0.2607981 -1.1635875 1.1815879
-1.6418731 -0.061530277 -0.6774911 -0.63932735 -2.2252455 -1.0937471 -0.077210665 1.0549889
-0.38108665 0.30513218 0.041419327 0.24093184 0.81605047 -0.24550971 2.5169623 -0.021692213
2.002321 0.29540515 0.38482627 0.36510488 0.17198841 -1.2937279 0.5163502 0.30371568
1.636294 0.06366354 -0.24419221 -0.4528743 0.59747773 -1.3813411 -1.1794575 -0.49173978
0.6370346 -0.78058404 -0.24436896 -1.9734812 -0.5329629 0.02559091 -0.900763 -1.0413866
-0.5553458 0.56611717 -0.08644546 0.6462179 0.058681056 0.505722 0.44292974 0.706491
-0.5263124 1.0611149 -0.45203656 0.34694636 -2.0587795 0.4468501 -0.07598756 0.013279664
0.685905 -1.9634635 -0.6251837 0.95954484 -0.542463 -0.44824976 -0.7801033 -0.3590777
0.3237918 -0.25354415 -0.2008005 -0.53992236 -1.0317165 -1.507177 -1.1411082 1.0216154
0.7749365 0.2631486 0.48541382 -0.32706282 -0.45365065 1.0711486 -0.15141153 -0.37832177
-1.1716145 -1.6954585 -0.45061424 0.20491819 1.357345 -0.8152104 0.9010794 -0.45710227
0.10318041 -0.77834594 1.5075336 1.345253 0.16085248 0.5849948 -0.04284336 0.11562349
-1.9601387 -0.4469214 0.27694294 0.07323732 0.77697915 -1.0853719 -0.66522384 -0.58425933
-0.12558474 0.5794646 -0.9259275 -1.2452865 0.6084237 0.43630674 -0.5911064 -0.7170144
0.881332 -2.015936 0.8776177 -0.70984244 -2.0233462 -0.8039995 -1.2958183 1.2557278
1.3382615 0.37747055 0.75969 1.3386413 0.85333574 0.4303809 -0.21660028 0.8223626
-1.6709563 -0.78355646 -1.6266763 0.32257655 -1.5693549 -0.49403146 0.7286951 1.9419427
-0.22365136 0.97073925 0.6282474 -0.83679456 -0.33992362 1.1656607 -0.5600267 -0.9723331
0.093863845 -0.8575041 0.5612587 -0.300687 -0.8356491 0.11389314 0.26204583 -0.39694467
-1.4758071 0.2640004 -0.8785383 1.4723788 -0.114627786 -0.013821346 0.16727863 -0.86816394
-1.0353668 1.4189693 1.2630659 -0.5343037 -0.7793984 -0.8314741 0.64885366 0.32031816
-0.93708163 -0.89498836 -0.76547813 -0.91109586 -0.5538418 -1.0359392 0.32155082 1.425398
00000000: 8ead 8d3e 97ab 1b3e 17e0 15bf b2a5 423f
00000010: 04b4 2cbf f3ee 5fbe 4fc5 bc3e 385d 923e
00000020: 53e0 c53d 4d57 e6be 4206 a9be db23 8b3d
00000030: 48ac d4bd ebc4 b7bf 6f28 273f 83c2 f7be
00000040: 6c91 91bf 04fd a83d 579f 51bf 1e68 a1bf
00000050: f56f a7bf befa c33f 63ae 093f dc0c c0be
00000060: 7477 bc3f 104f e13e 0912 9bbf 822d 0cbf
00000070: c2fb 59bf edf3 8dbf 056e 57be ae5b e1be
00000080: f583 b6be 5746 8cbe 022c 64be e13d 00be
00000090: 2595 fd3e 2480 253f 31c0 74be 864d bebe
000000a0: 9576 ddbe be09 453f 85c4 ac3f d4f6 013f
000000b0: 0d84 a23f 3708 f1be b9b4 0540 3a01 673f
000000c0: f2b8 823f 45c4 a4be 8f00 873e 0cfb 44be
000000d0: 1701 88bf 05e1 18be f100 a53f 8e9e 463f
000000e0: 0666 20be 229b c5bf 1ca1 56bf 6d7e 653f
000000f0: 075b 6abf 4a37 c8be 4726 74bf 1792 603d
00000100: 0c51 fb3e ba37 88bf 1a72 3540 5301 32bf
00000110: 2817 ed3f d537 afbf 4af3 e13f dc5a 9cbd
00000120: 38d4 ecbf f62e 2fbe 68d2 fd3f 9025 93bf
00000130: b73c ae3d 5487 85be 6ff0 94bf 463e 973f
00000140: e628 d2bf 2c07 7cbd 0f70 2dbf f5aa 23bf
00000150: 6c6a 0ec0 e8ff 8bbf a020 9ebd e009 873f
00000160: ca1d c3be 493a 9c3e 50a7 293d d6b6 763e
00000170: afe8 503f e666 7bbe e915 2140 deb3 b1bc
00000180: 0726 0040 583f 973e f307 c53e 07ef ba3e
00000190: bb1d 303e e098 a5bf 872f 043f 9f80 9b3e
000001a0: 1572 d13f 0862 823d 860d 7abe 24df e7be
000001b0: 4df4 183f c9cf b0bf 77f8 96bf 51c5 fbbe
000001c0: b314 233f 5bd4 47bf db3b 7abe 089b fcbf
000001d0: 4270 08bf 07a4 d13c 6798 66bf 284c 85bf
000001e0: 242b 0ebf 0eed 103f 510a b1bd 896e 253f
000001f0: 8c5b 703d ff76 013f b0c7 e23e 98dc 343f
00000200: 69bc 06bf 9dd2 873f 5671 e7be f4a2 b13e
00000210: 0bc3 03c0 89c9 e43e 5e9f 9bbd f392 593c
00000220: 7897 2f3f c652 fbbf 0a0c 20bf bba4 753f
00000230: dbde 0abf fe80 e5be dab4 47bf 08d9 b7be
00000240: 0ac8 a53e 8ad0 81be a59e 4dbe 5a38 0abf
00000250: 490f 84bf 2deb c0bf d50f 92bf 4bc4 823f
00000260: 3d62 463f 6abb 863e 2988 f83e c774 a7be
00000270: e644 e8be 661b 893f a00b 1bbe 64b3 c1be
00000280: 77f7 95bf c904 d9bf e9b6 e6be 13d6 513e
00000290: 7bbd ad3f a1b1 50bf 24ad 663f 4f09 eabe
000002a0: 4050 d33d ae41 47bf dcf6 c03f 4031 ac3f
000002b0: 83b6 243e 38c2 153f 857c 2fbd 02cc ec3d
000002c0: d3e5 fabf e2d2 e4be 77cb 8d3e 73fd 953d
000002d0: 1be8 463f 77ed 8abf 1c4c 2abf 0592 15bf
000002e0: 4999 00be cb57 143f 9609 6dbf 8c65 9fbf
000002f0: a8c1 1b3f 9963 df3e c052 17bf 418e 37bf
00000300: f99e 613f 1805 01c0 8eab 603f 3cb8 35bf
00000310: 817e 01c0 e9d2 4dbf 60dd a5bf b0bb a03f
00000320: 274c ab3f d243 c13e 0b7b 423f 9958 ab3f
00000330: 3674 5a3f e35a dc3e 77cc 5dbe 5b86 523f
00000340: e5e1 d5bf 2897 48bf ee36 d0bf c128 a53e
00000350: 9fe0 c8bf b1f1 fcbe c38b 3a3f 9491 f83f
00000360: dd04 65be 5e82 783f d2d4 203f 2b38 56bf
00000370: 780a aebe 5f34 953f e95d 0fbf d2ea 78bf
00000380: b03b c03d 6485 5bbf a6ae 0f3f a5f3 99be
00000390: 19ed 55bf ce40 e93d df2a 863e 553c cbbe
000003a0: 3fe7 bcbf 0f2b 873e e3e7 60bf e976 bc3f
000003b0: f9c1 eabd ed72 62bc 174b 2b3e fe3f 5ebf
000003c0: e686 84bf c9a0 b53f 25ac a13f 21c8 08bf
000003d0: a786 47bf 7ddb 54bf 461b 263f be00 a43e
000003e0: 95e4 6fbf f51d 65bf 60f6 43bf 943d 69bf
000003f0: 94c8 0dbf a899 84bf 4fa2 a43e 7173 b63f

feature_bias f4 [10000]
2.5875182 5.086099 0.34851587 5.017809 4.584816 3.3394527 0.9991971 1.9598826
3.313054 3.265167 5.8243847 1.3686285 0.5486801 4.483691 6.247898 0.63096833
4.933239 6.1869826 4.6660557 1.2212176 5.34282 5.7812176 2.4201746 5.5738134
5.0353103 4.7050714 1.1729385 3.514713 5.3973513 4.9464555 0.59909856 6.0492854
1.3930913 0.8271913 0.59543586 6.0385704 2.3690403 0.34796047 2.5804126 4.708054
3.082231 0.33270195 0.67359436 0.17498542 4.3309674 0.76111066 0.44176775 2.5647366
3.2176507 6.191993 4.8330173 4.986445 4.55279 3.0090482 1.8044899 1.923537
6.2739334 5.4536166 4.365741 3.3177848 3.702273 0.5759907 3.8221548 2.3735807
3.8778563 6.1056876 3.7691932 5.0918226 5.8178444 2.1850505 5.431082 0.76105374
1.1163254 0.009960764 3.368456 2.6183798 2.9407637 3.8029904 1.9710336 3.8713167
5.628974 0.9277034 2.7181616 3.9550145 4.5898833 4.5984974 4.643954 0.57916355
6.1816506 3.9481068 4.640587 5.416121 1.4090737 0.096009 3.2026393 6.1475835
4.58612 1.2826567 4.227857 5.629998 1.0512311 4.532515 0.06338607 1.4261831
4.2093916 2.67926 2.7312253 5.5037613 4.6828403 5.665719 1.5665022 5.19764
4.8456435 1.3832477 3.8225563 2.5079935 0.19817227 1.2625269 0.22506262 2.9687772
3.285635 5.5796275 3.20894 0.32102445 1.5471336 5.836078 1.0595717 3.2667437
0.6101686 1.8999221 6.1236525 4.146727 3.924163 2.3029284 5.691569 4.19021
0.29914236 2.7856033 0.9395389 5.341517 4.156471 3.0349119 5.663773 5.782767
6.2402477 1.5476792 4.038081 5.9552445 4.7101707 5.3530765 4.0902147 4.302926
5.270758 3.7765586 0.8291975 2.5299242 4.0863113 3.2049823 0.61324364 2.4173
5.7482276 2.0621185 3.006469 3.1909723 3.7362769 4.781199 1.9800891 4.0723476
4.4455395 0.42791885 0.027350998 5.609886 6.25694 5.51213 5.8733153 3.0639582
4.032531 4.5107255 3.5584905 1.2128317 2.380578 5.99183 2.1240432 3.2007244
4.2027197 5.843992 5.077863 5.386486 3.112368 5.582297 5.0089436 0.1193524
5.21189 2.7150018 2.6464977 3.002511 2.9408739 2.6992989 3.4598544 1.6527584
5.341112 4.8074684 0.16805516 5.852013 1.9999866 4.1503534 3.2290933 2.3738794
1.7286159 2.0736341 4.3296432 2.057634 2.8090832 5.602886 2.4224384 3.6199563
2.155887 3.9628425 2.816348 3.3448908 2.006936 3.6021607 5.175562 0.3699268
6.0384107 2.9061675 0.80887604 1.1830853 5.3446574 1.9503877 1.8769618 4.533713
3.1039298 3.1092753 3.2415128 4.519059 1.1831812 3.3613498 0.30098045 1.086567
5.926437 1.3791559 1.9735967 5.985186 3.3099618 2.416868 4.975713 0.021992177
1.9784143 4.390452 5.875625 2.040903 6.0982327 1.0681851 5.1326175 4.6388345
00000000: e699 2540 53c1 a240 ac70 b23e e491 a040
00000010: d0b6 9240 98b9 5540 62cb 7f3f 6fdd fa3f
00000020: 1409 5440 7ff8 5040 5c61 ba40 382f af3f
00000030: 4d76 0c3f 667a 8f40 c8ee c740 2487 213f
00000040: 18dd 9d40 c3fb c540 5450 9540 dc50 9c3f
00000050: 62f8 aa40 bcff b840 24e4 1a40 ae5c b240
00000060: 4321 a140 f28f 9640 d922 963f 0ff1 6040
00000070: 1ab7 ac40 5d49 9e40 865e 193f bf93 c140
00000080: d150 b23f cfc2 533f 7c6e 183f f83b c140
00000090: 5b9e 1740 e027 b23e 7b25 2540 61a8 9640
000000a0: 4643 4540 e957 aa3e ae70 2c3f 612f 333e
000000b0: 4997 8a40 26d8 423f 622f e23e a524 2440
000000c0: fded 4d40 cf24 c640 14a8 9a40 f590 9f40
000000d0: 75b0 9140 3f94 4040 86f9 e63f 7636 f63f
000000e0: 10c4 c840 0784 ae40 26b4 8b40 9656 5440
000000f0: 0af2 6c40 2074 133f 2f9e 7440 bfe8 1740
00000100: cc2e 7840 cb61 c340 763a 7140 36f0 a240
00000110: c82b ba40 ded7 0b40 6ccb ad40 6bd4 423f
00000120: c0e3 8e3f 7932 233c c894 5740 8993 2740
00000130: 7935 3c40 3264 7340 d44a fc3f a7c3 7740
00000140: 8e20 b440 f87d 6d3f 5cf6 2d40 f51e 7d40
00000150: 53e0 9240 e426 9340 459b 9440 1044 143f
00000160: 15d0 c540 c8ad 7c40 b07f 9440 dd50 ad40
00000170: 875c b43f 5ea0 c43d 0bf8 4c40 01b9 c440
00000180: 7fc1 9240 182e a43f 9b4a 8740 f228 b440
00000190: be8e 863f 5d0a 9140 8ed0 813d 2b8d b63f
000001a0: 56b3 8640 ff78 2b40 65cc 2e40 d01e b040
000001b0: d4d9 9540 924d b540 2583 c83f 1153 a640
000001c0: 830f 9b40 430e b13f c3a4 7440 f782 2040
000001d0: aced 4a3e 7b9a a13f d176 663e 7200 3e40
000001e0: d847 5240 4f8c b240 465f 4d40 515d a43e
000001f0: 7908 c63f 27c1 ba40 0ca0 873f 5412 5140
00000200: 0234 1c3f a630 f33f f6f4 c340 fdb1 8440
00000210: 7d25 7b40 2e63 1340 5521 b640 3316 8640
00000220: 3029 993e 5347 3240 9f85 703f b5ed aa40
00000230: cf01 8540 ff3b 4240 a13d b540 6d0c b940
00000240: 1cb0 c740 5a1a c63f f637 8140 5d91 be40
00000250: b8b9 9640 674c ab40 0ae3 8240 92b1 8940
00000260: 0daa a840 23b3 7140 4a46 543f 47ea 2140
00000270: 10c3 8240 6e1e 4d40 89fd 1c3f 0bb5 1a40
00000280: 7bf1 b740 c0f9 0340 fd69 4040 e438 4c40
00000290: 291f 6f40 95ff 9840 8f73 fd3f ac50 8240
000002a0: dc41 8e40 2e18 db3e 330f e03c 3084 b340
000002b0: da38 c840 5e63 b040 33f2 bb40 e417 4440
000002c0: 7e0a 8140 dd57 9040 4fbe 6340 123e 9b3f
000002d0: 645b 1840 12bd bf40 53f0 0740 abd8 4c40
000002e0: ae7c 8640 fc01 bb40 db7d a240 185e ac40
000002f0: 0a31 4740 2da2 b240 4449 a040 086f f43d
00000300: cec7 a640 97c2 2d40 3860 2940 2429 4040
00000310: 4737 3c40 50c1 2c40 416e 5d40 968d d33f
00000320: 64ea aa40 c8d6 9940 a716 2c3e b143 bb40
00000330: 90ff ff3f b2cf 8440 77a9 4e40 a4ed 1740
00000340: 4943 dd3f 6cb6 0440 708c 8a40 47b0 0340
00000350: 05c8 3340 d84a b340 3b09 1b40 5dad 6740
00000360: 0dfa 0940 369f 7d40 0c3f 3440 b112 5640
00000370: a471 0040 cd89 6640 349e a540 0c67 bd3e
00000380: a93a c140 a6fe 3940 8012 4f3f 576f 973f
00000390: 6f07 ab40 4ea6 f93f 4940 f03f 2d14 9140
000003a0: c9a6 4640 5efe 4640 f274 4f40 229c 9040
000003b0: 7b72 973f 5b20 5740 1c1a 9a3e a114 8b3f
000003c0: 5fa5 bd40 2e88 b03f d19e fc3f a586 bf40
000003d0: 6ad6 5340 f7ad 1a40 0a39 9f40 f028 b43c
000003e0: ae3c fd3f 957e 8c40 1f05 bc40 289e 0240
000003f0: b924 c340 4aba 883f 673e a440 5571 9440

linear.weight f4 [1, 10000]
0.0038373019 -0.002639478 -0.006230575 -0.0022703256 0.0051299543 0.0012923968 0.00021038706 0.00080191146
-0.0018025168 -0.011866344 -0.011957459 0.009593662 0.0054710046 -0.0054212897 -0.0030214405 -0.0019366619
-0.0003703049 -0.002341543 -0.011613807 0.0043433746 -0.012112426 -0.018552462 -0.00033886696 -0.011415683
-0.0041820635 0.003314057 -0.009557682 -0.009203074 -0.010033964 0.0055458853 -0.0007320419 0.005420113
0.011504094 0.0023644043 -0.013491737 0.005953501 -0.00095210184 -0.00060929544 0.010585291 -0.010171673
-0.0065379036 0.0027715801 -0.005446007 0.007887621 0.012721365 -0.0013765062 0.052081913 -0.016984079
-0.004962294 -0.0015488853 -0.007761985 -0.004550194 0.010875815 0.009805418 -0.019853955 -0.010931487
-0.0024353613 0.00030126344 -0.0015101505 -0.009733404 -0.01189602 0.0010431668 -0.0024257817 0.0012838629
-0.010589546 0.0020187816 -0.024222674 0.00077865156 -0.07651088 0.009586954 -0.06886078 -0.004047654
-0.017165972 0.0009730758 -0.0043692314 0.009940378 -0.0027008182 0.004103607 -0.0053851646 -0.000703336
-0.045060914 0.0053403997 0.009057005 0.0068921424 0.026226183 0.0153108975 0.0008370782 0.0076412302
0.0013454808 0.0006286123 -0.013618797 -0.009377026 -0.014395749 -0.0010561893 -0.007313208 0.0058198622
-0.020207768 -0.0076007457 0.007476639 0.013710092 0.002073916 -0.0015451553 -0.005183428 -0.008476278
0.026053097 0.0024887514 0.0001040938 0.0008436696 -0.004068194 0.009074133 -0.0051820036 0.0050618974
-0.01424737 0.014666602 -0.0043262932 0.009662143 0.002010771 0.009988956 0.007372702 -0.008982484
0.0013009821 -0.005721685 -0.0071063354 -0.0071594547 0.0072989296 0.0098511595 0.006649856 0.0045974515
-0.0033119684 0.019338114 0.008596789 0.009977348 0.013641816 0.003916619 -0.0050439164 0.0026345248
-0.00892501 0.02725349 -0.003500986 0.0055339467 -0.0039512175 -0.004237569 -0.003741092 0.0010659322
0.008140155 -0.004781583 0.004830713 0.0016885345 -0.0011366872 -0.0035884632 0.018711487 -0.012425435
-0.001273525 0.004242391 0.005837973 0.0053731035 -0.0016480166 0.004092128 -0.008881243 0.00086267287
0.0047688894 0.041379496 0.0067544472 0.011275032 -0.0023781222 -2.481102e-05 -0.0028922874 -0.0071565937
-0.006106747 -0.004761205 -0.0107096825 0.022644939 0.0024605598 -0.0023348425 -0.0037549539 -0.0063290484
-0.0050083366 -0.0014981627 -0.0040012174 0.010009576 0.002555116 -0.0042859884 0.0039973413 5.2903888e-05
-0.0019868508 -0.0011041422 -0.011899918 -0.004024361 0.007844887 0.0046793027 0.007948007 -0.01182846
0.010843272 -0.015089215 -0.0071618636 -0.0058485074 -0.020214126 0.011931364 -0.0026862666 0.0016288789
0.02306879 0.010180323 -0.0107736485 0.025156131 -0.0029881983 0.011937167 -0.004514985 -0.0018217553
-0.010377199 0.0070117125 0.047472045 0.0022813457 0.02526533 0.008308075 -0.0005563203 0.034894586
-0.0077704964 0.0008220489 -0.0035553088 -0.014272824 -0.0003414696 -0.0040715346 0.00446362 -0.0020992444
-0.005687681 0.0023394942 0.0023179865 -0.005928916 0.003037537 0.0052270857 0.008731534 -0.002768612
-0.00899395 -0.0053282487 -0.005679374 -0.0015062423 0.003233031 -0.0011690608 -0.0010148549 0.008597346
-0.005061817 -0.0034214759 -0.013089592 0.0031014837 0.0017027593 0.0034150607 0.0009808241 0.00297423
-0.00089818233 -0.012727428 -0.0075472654 0.0120141 0.0043402542 -0.012991278 0.0084311245 0.0033841727
00000000: 3e7b 7b3b 18fb 2cbb da29 ccbb bec9 14bb
00000010: 2d19 a83b a465 a93a 599b 5c39 5e37 523a
00000020: 6d42 ecba 0e6b 42bc 38e9 43bc bc2e 1d3c
00000030: 1d46 b33b 13a5 b1bb 5c03 46bb 97d7 fdba
00000040: 7b25 c2b9 9374 19bb d647 3ebc de52 8e3b
00000050: 3273 46bc 55fb 97bc f4a9 b1b9 d808 3bbc
00000060: b109 89bb a630 593b d397 1cbc 7dc8 16bc
00000070: 7f65 24bc 42ba b53b 80e6 3fba 349b b13b
00000080: ab7b 3c3c 1ff4 1a3b 720c 5dbc 9615 c33b
00000090: 7996 79ba 20b9 1fba ee6d 2d3c 17a7 26bc
000000a0: e93b d6bb 66a3 353b 6b74 b2bb 153b 013c
000000b0: 466d 503c e26b b4ba d853 553d 3222 8bbc
000000c0: bd9a a2bb f703 cbba 4058 febb cb19 95bb
000000d0: 7930 323c e7a6 203c c3a4 a2bc fb19 33bc
000000e0: 959a 1fbb e5f2 9d39 3ef0 c5ba db78 1fbc
000000f0: 86e7 42bc dfba 883a ddf9 1ebb 4a47 a83a
00000100: c67f 2dbc 894d 043b a16e c6bc 6c1e 4c3a
00000110: bcb1 9cbd 9912 1d3c e106 8dbd 2fa2 84bb
00000120: a79f 8cbc 0316 7f3a c52b 8fbb f8dc 223c
00000130: 3600 31bb 8d77 863b 0976 b0bb 1460 38ba
00000140: cb91 38bd 85fe ae3b d563 143c 7bd7 e13b
00000150: 4bd8 d63c 8fda 7a3c 5e6f 5b3a 4963 fa3b
00000160: d85a b03a 75c9 243a 6021 5fbc 19a2 19bc
00000170: 26dc 6bbc d56f 8aba a3a3 efbb 8bb4 be3b
00000180: c38a a5bc ad0f f9bb 98fe f43b 4ba0 603c
00000190: 89ea 073b cf86 caba bfd9 a9bb 16e0 0abc
000001a0: 4e6d d53c 521a 233b ef4c da38 b529 5d3a
000001b0: 7c4e 85bb acab 143c cccd a9bb 46de a53b
000001c0: cd6d 69bc 304c 703c 94c3 8dbb f74d 1e3c
000001d0: 24c7 033b b8a8 233c b596 f13b 452b 13bc
000001e0: b785 aa3a f97c bbbb 43dc e8bb dc99 eabb
000001f0: dc2b ef3b c266 213c 09e7 d93b 38a6 963b
00000200: 9c0d 59bb f76a 9e3c 8cd9 0c3c 0878 233c
00000210: ec81 5f3c fb56 803b 7047 a5bb fea7 2c3b
00000220: 353a 12bc b642 df3c cc70 65bb 1c56 b53b
00000230: 3779 81bb 4edb 8abb 1c2d 75bb c0b6 8b3a
00000240: 495e 053c d3ae 9cbb f54a 9e3b d151 dd3a
00000250: e5fc 94ba 6c2c 6bbb d548 993c 0d94 4bbc
00000260: 68ec a6ba c103 8b3b 784c bf3b dc10 b03b
00000270: 4302 d8ba 4217 863b a282 11bc ff24 623a
00000280: 5844 9c3b 8c7d 293d 6954 dd3b e9ba 383c
00000290: 45da 1bbb 4221 d0b7 888c 3dbb dc81 eabb
000002a0: 1b1b c8bb e203 9cbb aa77 2fbc e181 b93c
000002b0: 5841 213b 2804 19bb ac15 76bb e863 cfbb
000002c0: f91c a4bb 005e c4ba a51c 83bb 34ff 233c
000002d0: bc73 273b 7a71 8cbb 21fc 823b 1ee5 5d38
000002e0: d335 02bb ddb8 90ba e0f7 42bc c9de 83bb
000002f0: d787 003c d654 993b 5c38 023c 28cc 41bc
00000300: fba7 313c c138 77bc 11ae eabb d6a4 bfbb
00000310: 1898 a5bc c57b 433c 130c 30bb 1b80 d53a
00000320: c2fa bc3c 5fcb 263c f583 30bc 3b14 ce3c
00000330: a6d5 43bb 1b94 433c 70f2 93bb f7c7 eeba
00000340: 2105 2abc 82c2 e53b 0c72 423d a182 153b
00000350: 3df9 ce3c 981e 083c 06d6 11ba a0ed 0e3d
00000360: a69f febb c57e 573a 2f00 69bb 90d8 69bc
00000370: 4607 b3b9 826a 85bb 8f43 923b 7a93 09bb
00000380: ba5f babb 3352 193b 5ce9 173b 5a47 c2bb
00000390: 6a11 473b f947 ab3b b50e 0f3c 9a71 35bb
000003a0: 5c5b 13bc 9798 aebb 0b1a babb 1b6d c5ba
000003b0: 42e1 533b 2c3b 99ba e104 85ba e2db 0c3c
000003c0: 99dd a5bb d73a 60bb ba75 56bc 4342 4b3b
000003d0: 1f2f df3a 36cf 5f3b ff8e 803a 4deb 423b
000003e0: ff73 6bba b486 50bc 0d4f f7bb cad6 443c
000003f0: b138 8e3b 5fd9 54bc b322 0a3c ffc8 5d3b
