results/SNGP_FINAL_RESULTS/SNGP/SNGP_R150_LS1.00_OS13.00_1000Friedman/model.pt (torch, 6022 bytes, 3 tensors)

feature_weight f4 [150, 5]
0	0x40074cde	2.1140666
1	0x3f421b09	0.758225
2	0xbd8320f9	-0.064027734
3	0x3f85316e	1.040571
4	0x3e98ca24	0.2984172
5	0x3ee9e4aa	0.4568227
6	0x3f43c027	0.76465076
7	0x3fe17e35	1.761664
8	0xbf2e4b5c	-0.6808374
9	0xbe4644b7	-0.1936215
10	0x3f15d2ba	0.5852467
11	0x3f9f420a	1.2442029
12	0x3fce24c1	1.6104966
13	0x3f5d5e57	0.86472076
14	0x3f9e2f4b	1.2358183
15	0xbf255ab5	-0.6459153
16	0x3ea72ea6	0.32652777
17	0x3d56e7cf	0.052467164
18	0xbe1d0140	-0.15332508
19	0xbf6cc8d5	-0.92493945
20	0xbed606d3	-0.4180208
21	0x3e6f932c	0.23395985
22	0x3eb3efc0	0.35143852
23	0xbff6a394	-1.926867
24	0xbecdbab8	-0.40181518
25	0x3c913b4e	0.017728474
26	0x3f8ceb33	1.1009277
27	0xbfe33fb4	-1.7753816
28	0xbf031066	-0.511969
29	0x401e0b02	2.4694219
30	0x3ed83244	0.4222585
31	0xbf8e0225	-1.1094404
32	0x3edfd8d2	0.43720108
33	0x3fff86eb	1.9963049
34	0x3ef88629	0.48539856
35	0x3f436c2d	0.7633694
36	0xbedb22a4	-0.42799866
37	0xbfbdc3de	-1.4825399
38	0xbfbed3c8	-1.490838
39	0x3f357789	0.7088552
40	0x3f8fe1d9	1.1240798
41	0xbda2ecb7	-0.07955306
42	0x3fe0ddba	1.7567666
43	0x3ec97aa3	0.39351377
44	0x3f8a074d	1.0783478
45	0x3fb1a04e	1.3877046
46	0x3e8a9272	0.27064854
47	0x3fcdd7ff	1.6081542
48	0xbfa5a147	-1.2939843
49	0xbf00fa9b	-0.50382394
50	0x3f273ce8	0.6532731
51	0xbf20b71b	-0.62779397
52	0x3e2328be	0.1593351
53	0xbe7653e6	-0.24055442
54	0xbd49a5af	-0.049230274
55	0xbf1d766d	-0.6150883
56	0x3e0abf40	0.13549519
57	0x3e270ef7	0.16314302
58	0xbdc4484a	-0.095841005
59	0xbec8d55d	-0.39225283
60	0xbfae6ff3	-1.3627914
61	0x3e62360e	0.22090933
62	0x3f898e60	1.0746574
63	0xbff91192	-1.9458487
64	0xbe01639c	-0.12635654
65	0xbf2a1367	-0.66435856
66	0x3e7f7df3	0.2495039
67	0xbe1ca8e9	-0.15298809
68	0xbf6cafca	-0.9245573
69	0xbf4f0dbe	-0.80880344
70	0xbf914f8c	-1.1352401
71	0xbf5545e7	-0.8330979
72	0x3e5526b9	0.20815553
73	0x3dde8fab	0.10867246
74	0x3f8ea840	1.1145096
75	0x3f5db4a0	0.86603737
76	0x3f8ffb4c	1.1248565
77	0x3c8cedec	0.017203294
78	0xbf7e676d	-0.99376565
79	0xbf1e6c5b	-0.6188409
80	0x3f4a93e6	0.79131925
81	0xbf83ab53	-1.0286659
82	0x3f5d3361	0.86406523
83	0xbea7e7ed	-0.32794133
84	0xbfa65b51	-1.2996618
85	0xbda845f4	-0.082164675
86	0x3f005975	0.501365
87	0x3fd4eb8b	1.6634382
88	0xbf503ec5	-0.8134578
89	0xbed200bf	-0.41016194
90	0xbfd29017	-1.6450223
91	0x3fb1ffc1	1.3906175
92	0xc001d143	-2.0283973
93	0xbeb5b91f	-0.354928
94	0xbff6f4a6	-1.9293411
95	0x3fd498cf	1.6609133
96	0x3f1a03af	0.6016187
97	0x3fa26b45	1.2688986
98	0x3cb27c60	0.021787822
99	0xbf616b20	-0.88054085
100	0x3f484049	0.7822309
101	0xbe1a39a4	-0.1506105
102	0xbf14ac2a	-0.580752
103	0xbbb15dc3	-0.0054127886
104	0xbf223720	-0.63365364
105	0x3f6812f5	0.90653926
106	0xbe80ae7e	-0.25133127
107	0xbf81b336	-1.0132816
108	0xbf48ea3a	-0.784824
109	0x3f70416a	0.93849814
110	0xbe73e5e4	-0.23818165
111	0xbf67d379	-0.90557057
112	0x3f70898e	0.9395989
113	0x3f75e841	0.96057516
114	0x3ecf2814	0.40460265
115	0x3f7b8abe	0.9825858
116	0x3e8d9b90	0.27657747
117	0xbf3a579a	-0.7278992
118	0x3f982bb5	1.1888338
119	0x3eb89c1a	0.36056596
120	0xbfbded56	-1.4838054
121	0xbf26eef0	-0.6520834
122	0x3fb586ae	1.4181726
123	0x3f636dde	0.8883952
124	0x3f8b57ac	1.088613
125	0xbf421b31	-0.7582274
126	0x3e929585	0.286297
127	0x3cbd46bf	0.023105023
128	0x3f972962	1.1809504
129	0xbf5ec0e3	-0.8701307
130	0xbf93f02a	-1.1557667
131	0xbf0a9a54	-0.54141736
132	0x3e45dd7a	0.19322768
133	0x3f913b9a	1.1346314
134	0x3f6be2bf	0.9214286
135	0x3d8ee02e	0.06976353
136	0xbf015d64	-0.5053313
137	0xbff042a6	-1.877034
138	0xbf9b7684	-1.2145543
139	0xbf8658ed	-1.0495888
140	0x3f9a67e8	1.206296
141	0x3eac1f23	0.33617505
142	0xbd55efbe	-0.05223059
143	0x3e6e9c50	0.23301816
144	0x3ffd2fea	1.9780247
145	0x3f3caa1d	0.7369707
146	0xbf9f029f	-1.2422675
147	0x3f0c5da0	0.5483036
148	0xbee37b2f	-0.4442992
149	0x3fa49ff1	1.286131
150	0x3d971ad9	0.07378168
151	0x3ea8c10b	0.3295978
152	0x3e7ec57c	0.24880022
153	0x3d9c5a69	0.07634432
154	0x3f52c8eb	0.82337826
155	0xbeb65ba7	-0.356168
156	0xbf7c8005	-0.9863284
157	0xbfb1fe38	-1.3905706
158	0x3f25c3fe	0.64752185
159	0x3ebd5ea4	0.36986268
160	0x3fb6f792	1.4294302
161	0x3e6f69ff	0.23380278
162	0x3f8e0b12	1.1097128
163	0x3f30a176	0.6899637
164	0xbf79ddde	-0.9760417
165	0xbf89a393	-1.0753044
166	0x3f584c23	0.84491175
167	0xbea5e753	-0.3240305
168	0xbe2b17e2	-0.1670833
169	0xbd90a504	-0.07062724
170	0xbe9aa8b4	-0.30206835
171	0x3d2de0aa	0.042450584
172	0xbf2ea63d	-0.6822241
173	0xbf737eda	-0.95115435
174	0xbeb99487	-0.3624613
175	0x3f9753aa	1.1822407
176	0xbed6ab6a	-0.41927654
177	0xbd95fe05	-0.07323841
178	0xbddf9522	-0.10917117
179	0xbf8ad09e	-1.0844915
180	0xbf03debf	-0.5151176
181	0x3ec3a3f4	0.38211024
182	0xbf40cffb	-0.75317353
183	0x40147be9	2.3200629
184	0x3e2a1228	0.16608489
185	0xbee11c32	-0.43966824
186	0xbffd9479	-1.9810935
187	0xc006f8ed	-2.1089432
188	0x3ea9b85b	0.33148465
189	0xbf8cab12	-1.0989707
190	0xbeab586b	-0.33465895
191	0x3fbea66a	1.4894536
192	0x3fbdbdea	1.4823582
193	0xbf55439e	-0.833063
194	0xbfc07201	-1.5034791
195	0x3f051ed5	0.5200017
196	0x3e0c0377	0.13673197
197	0xbe42e8f4	-0.19034177
198	0xbf8afa87	-1.0857705
199	0x3e0ad87e	0.13559148
200	0xbe717bf1	-0.23582436
201	0x3e1804d2	0.14845589
202	0xbf6f4b71	-0.9347449
203	0x3f18d22a	0.59695685
204	0xbef4b853	-0.47796878
205	0x3f85fb06	1.0467231
206	0x3dafe59f	0.085887186
207	0xbf415056	-0.7551321
208	0x3ec47e77	0.38377735
209	0x3ea240a3	0.3168994
210	0xbfa0df5b	-1.2568163
211	0xc00a2ced	-2.158992
212	0x4019c758	2.402792
213	0xbee3097b	-0.4434317
214	0xc006b0b6	-2.1045356
215	0xbefaa3fd	-0.48953238
216	0xbe0cf549	-0.13765444
217	0xbf50b430	-0.81524944
218	0x3f5f6e3b	0.87277573
219	0x3e3d1925	0.18466623
220	0xbedec1e3	-0.435073
221	0x3de5612e	0.11200176
222	0xbf5aadbf	-0.85421365
223	0xbfd55b8f	-1.6668566
224	0x3eb0436e	0.34426445
225	0xbef352c0	-0.4752407
226	0xbf8bdce2	-1.0926783
227	0x3ef753b0	0.48306036
228	0x3f8fcfa9	1.1235248
229	0x3fac44e5	1.3458525
230	0xbd4172a4	-0.04722847
231	0xbf537776	-0.8260416
232	0x3f17fddf	0.5937175
233	0xbfaa5e94	-1.3310113
234	0xbf1ca090	-0.611825
235	0x3f58e6a9	0.8472696
236	0x3eaf937e	0.34292215
237	0xbf5a6d5b	-0.85323113
238	0xbfc20966	-1.5159118
239	0x3e8b53b6	0.27212304
240	0x3f62d976	0.8861307
241	0xbf2aa632	-0.66659844
242	0x3e15a220	0.14612627
243	0x40133b56	2.3004966
244	0x3eaea6cb	0.34111628
245	0xbfe19796	-1.7624385
246	0xbf7a547f	-0.9778518
247	0xbfe226df	-1.7668113
248	0xbf979cdb	-1.1844743
249	0xbd4d0f11	-0.050063197
250	0xbeef1dac	-0.46702325
251	0x3df406fa	0.11915393
252	0x3f9ae7ef	1.210203
253	0x3e9d381a	0.30706865
254	0xbfe8b2a7	-1.817952
255	0xbe955c7a	-0.29172117

feature_bias f4 [150]
0	0x4028bd43	2.6365516
1	0x40ae5aef	5.4486003
2	0x408b2830	4.3486557
3	0x3fa5fd9a	1.2968018
4	0x405f1d3b	3.486159
5	0x40a391ce	5.1115484
6	0x40b07a79	5.5149503
7	0x40bcee89	5.904118
8	0x3a098af9	0.0005246844
9	0x4049aa07	3.1510026
10	0x40b1dd1f	5.5582423
11	0x409df344	4.9359455
12	0x400e451f	2.2229688
13	0x402dca33	2.7154663
14	0x4051e924	3.2798548
15	0x40c7e9e8	6.247303
16	0x40b67273	5.701471
17	0x4066d6f9	3.606871
18	0x40637695	3.5541127
19	0x40ba605f	5.824264
20	0x3fb6b0ce	1.4272707
21	0x40b4644e	5.637244
22	0x4041b025	3.026376
23	0x409437e4	4.6318226
24	0x40ba05d8	5.8132133
25	0x40a4b93e	5.1476126
26	0x40b101bb	5.5314612
27	0x3fceee9e	1.616657
28	0x3f5166dd	0.8179758
29	0x3ff586e4	1.918179
30	0x3fe223c3	1.7667164
31	0x3fab7ee3	1.3398098
32	0x40095c7e	2.1462703
33	0x3f3b2f34	0.731189
34	0x409c2160	4.879074
35	0x40ae472f	5.4461894
36	0x40915acf	4.542335
37	0x3f08faae	0.53507507
38	0x3f07ecbf	0.5309562
39	0x4041c612	3.0277143
40	0x3e7d99cd	0.24765702
41	0x404d8a9c	3.211585
42	0x3f7f17f2	0.9964591
43	0x408bf95f	4.374191
44	0x3f6a3490	0.91486454
45	0x408f874c	4.4852657
46	0x3fb2cb60	1.3968315
47	0x4063a508	3.5569477
48	0x4052fca2	3.2966695
49	0x405bbaa9	3.4332678
50	0x40b218ce	5.565528
51	0x40a3512d	5.103659
52	0x3fc6a066	1.55177
53	0x3fef596b	1.8699163
54	0x4082a8bd	4.083098
55	0x40a15be4	5.042467
56	0x3f40cfa0	0.7531681
57	0x407e94f4	3.9778414
58	0x3fbdfd06	1.4842842
59	0x401c5d6d	2.4432023
60	0x3f2e5565	0.6809905
61	0x40c5a024	6.1757984
62	0x40517a3c	3.2730856
63	0x3cf5958e	0.02997854
64	0x409497ac	4.6435146
65	0x40c35657	6.1042895
66	0x4001df20	2.0292435
67	0x3da38f8a	0.07986362
68	0x409a0d2a	4.814107
69	0x400a683c	2.162612
70	0x3f5acf7b	0.8547284
71	0x4076053a	3.844069
72	0x3ffedac8	1.9910517
73	0x403f2ffd	2.987304
74	0x408628fa	4.192502
75	0x4088acec	4.2711086
76	0x3f063cce	0.5243653
77	0x40b865d0	5.7624283
78	0x408b29f2	4.3488703
79	0x409c68d0	4.8877945
80	0x3ea2a348	0.317652
81	0x40a5863e	5.172637
82	0x40369796	2.853002
83	0x40022579	2.0335371
84	0x4099fec3	4.812349
85	0x40afaf25	5.49013
86	0x40890279	4.281552
87	0x409115e4	4.533922
88	0x3f590f12	0.8478862
89	0x4005eeb0	2.0926933
90	0x3f9b685f	1.2141227
91	0x409397dc	4.6122875
92	0x3fe54f66	1.7914855
93	0x40ac9a82	5.393861
94	0x40c21c20	6.065933
95	0x3ee46c2f	0.44613788
96	0x40819a0e	4.0500555
97	0x40ba0c35	5.81399
98	0x403dd1e9	2.965937
99	0x40a12b7a	5.036557
100	0x408f503e	4.478545
101	0x40564270	3.347805
102	0x3f30dd33	0.69087523
103	0x40a18673	5.0476623
104	0x40016213	2.021611
105	0x3ffa2558	1.9542646
106	0x3fe94bbd	1.8226238
107	0x401cb4fe	2.448547
108	0x3fb83eee	1.4394205
109	0x4027e316	2.6232352
110	0x3e7e82de	0.2485461
111	0x407b8b97	3.930395
112	0x401a9a94	2.4156847
113	0x40845303	4.1351333
114	0x3ff23759	1.8923141
115	0x4036894d	2.8521302
116	0x409e65f4	4.9499454
117	0x3fc0c040	1.505867
118	0x3f77fb90	0.9686823
119	0x400a4ca5	2.160928
120	0x40b9477c	5.789976
121	0x4014270a	2.3148828
122	0x40be8d08	5.9547157
123	0x40b4a880	5.645569
124	0x3f3b5280	0.7317276
125	0x3ffcef7e	1.9760587
126	0x4054877d	3.3207695
127	0x407dea12	3.9674115
128	0x3fe04b10	1.7522907
129	0x40b62644	5.692171
130	0x3f8bea77	1.0930928
131	0x402f0338	2.7345715
132	0x3fa439ff	1.2830199
133	0x40993dc2	4.788789
134	0x405d50a5	3.4580472
135	0x3f09a745	0.5377086
136	0x402ce3dd	2.7014077
137	0x4013e78a	2.311007
138	0x4023dd44	2.56038
139	0x3f536896	0.8258146
140	0x40bbf545	5.87369
141	0x3f067071	0.5251532
142	0x40159191	2.3370097
143	0x3f92a752	1.1457312
144	0x3e28a182	0.1646786
145	0x3fbc1058	1.4692488
146	0x3ea96a08	0.33088708
147	0x4041fe6f	3.0311544
148	0x4081afb4	4.052698
149	0x4027e5bd	2.623397

linear.weight f4 [1, 150]
0	0x3f0d895e	0.5528773
1	0xbed5b60c	-0.41740453
2	0xbf0e6306	-0.5561985
3	0x3e93541d	0.2877511
4	0x3e220ffd	0.15826412
5	0xbe34484f	-0.17605709
6	0x3d41132d	0.047137428
7	0xbe642c64	-0.22282559
8	0x39e07694	0.00042812957
9	0x3e3ea717	0.18618427
10	0x3e84eac3	0.2596036
11	0xbe2df4ab	-0.16987865
12	0x3ddbdb6b	0.1073521
13	0x3e318754	0.1733678
14	0xbec1fabc	-0.37886608
15	0x3ee4fade	0.44722646
16	0xbcf89388	-0.030343786
17	0x3e4f7672	0.20260027
18	0xbe73ff0a	-0.23827758
19	0xbe17bcc0	-0.14818096
20	0x3e2298f1	0.15878655
21	0x3e0c1d20	0.13682985
22	0xbe51a9d3	-0.20474939
23	0x3ebfc30c	0.37453496
24	0xbd03056d	-0.031987596
25	0x3e7550fb	0.23956673
26	0x3e934b96	0.28768605
27	0xbf1d3fae	-0.6142529
28	0xbe8844f3	-0.26615104
29	0xbe67657e	-0.2259731
30	0xbeb5f3a8	-0.35537457
31	0xbda6baef	-0.081411235
32	0xbdf01f69	-0.11724741
33	0x3f02636a	0.50932944
34	0xbe6e9245	-0.23297985
35	0x3e086614	0.1332019
36	0x3db5f359	0.088843055
37	0xbc8299a1	-0.015942397
38	0xbe25f2b1	-0.1620586
39	0xbeb88671	-0.3604007
40	0x3e4fada6	0.20281085
41	0xbe022f47	-0.12713347
42	0xbe37fd6e	-0.1796777
43	0x3d1cf8f2	0.03832335
44	0xb9a99316	-0.0003234378
45	0xbd6dc88e	-0.058052592
46	0x3ebc699b	0.3679932
47	0xbe7ab9f7	-0.24485002
48	0x3e94d632	0.29069668
49	0x3dde191c	0.10844633
50	0xbe1bfcc0	-0.15233135
51	0xbcf3c3cc	-0.02975645
52	0xbe2bc5bf	-0.16774653
53	0x3e058286	0.13038072
54	0xbe513bb4	-0.20432931
55	0xbe30ba08	-0.17258465
56	0x3e1ac901	0.1511574
57	0x3e4664c2	0.19374374
58	0x3e8c287d	0.2737464
59	0xbef22ea9	-0.47301224
60	0x3e4d9d42	0.2007952
61	0x3edcb158	0.43104053
62	0xbedab018	-0.42712474
63	0xbebeca49	-0.37263706
64	0xbeea2f90	-0.45739412
65	0xbeac58f5	-0.3366162
66	0x3d169cc1	0.036770586
67	0x3da52486	0.08063607
68	0xbec19524	-0.37809098
69	0x3c931eda	0.017959047
70	0xbf844234	-1.0332704
71	0xbefcfdbe	-0.4941234
72	0x3d851a05	0.064991035
73	0x3e375165	0.17902143
74	0x3ee1da20	0.4411173
75	0x3cfda4f7	0.03096245
76	0xbdabcf0e	-0.08389102
77	0x3e1f544d	0.15559502
78	0x3e9a94b6	0.30191582
79	0x3eb063f8	0.3445127
80	0xbe9fba15	-0.31196657
81	0x3ed6256a	0.4182542
82	0xbeaf1e9f	-0.3420305
83	0xbc1080ae	-0.008819742
84	0x3dd7e633	0.10541954
85	0xbb8ee11c	-0.004360331
86	0xbe928a7d	-0.28621283
87	0xbeead38a	-0.45864516
88	0x3e86d35c	0.2633313
89	0xbe343ad9	-0.17600574
90	0xbed8b062	-0.4232207
91	0xbe1c8cec	-0.15288132
92	0x3e94f916	0.29096287
93	0x3df0d556	0.117594406
94	0x3e85f914	0.26166594
95	0xbc66d182	-0.0140880365
96	0xbe826726	-0.2546932
97	0xbe66fdc3	-0.2255774
98	0xbd1aba01	-0.037775043
99	0xbf0a3240	-0.53982925
100	0x3f09c67a	0.53818476
101	0x3efd9b87	0.4953272
102	0xbf4fdf21	-0.8119984
103	0x3ed0f280	0.40810013
104	0xbe4eda11	-0.20200373
105	0xbead20d2	-0.33814102
106	0xbcb2a191	-0.021805556
107	0xbd95a63e	-0.07307099
108	0xbe9110bb	-0.28333077
109	0xbe3aaa69	-0.18229069
110	0xbb960896	-0.0045786602
111	0xbeccd4df	-0.40006158
112	0xbd2ab309	-0.041674647
113	0xbcf55adc	-0.029950552
114	0xbdcdca37	-0.10048335
115	0xbdc0b495	-0.09409443
116	0xbe08c4f3	-0.1335638
117	0x3e803171	0.2503772
118	0xbe5c9014	-0.21539336
119	0xbdc7979c	-0.09745714
120	0x3eab25cf	0.33427283
121	0xbe59c66d	-0.212671
122	0x3e4d5c74	0.200548
123	0xbd564e34	-0.052320674
124	0x3e83b4f6	0.25724
125	0x3e7de37e	0.24793813
126	0x3d9a4394	0.07532421
127	0xbe9dd414	-0.30825865
128	0xbeaff954	-0.3436991
129	0x3f110daf	0.56661505
130	0x3d773ecd	0.060362626
131	0x3e915a78	0.28389335
132	0x3e952d39	0.29136065
133	0xbd5aa538	-0.05338022
134	0xbec1cc07	-0.37850973
135	0xbd548344	-0.051882997
136	0xbe9318f2	-0.2872997
137	0x3d0d378f	0.034476813
138	0xbe86cbe5	-0.26327434
139	0xbf7c91b3	-0.9865982
140	0x3efb12e5	0.49037853
141	0x3cee8371	0.02911541
142	0xbd1ed1da	-0.03877435
143	0xbf31bb03	-0.6942598
144	0xbf029805	-0.51013213
145	0x3ddd95d2	0.108195916
146	0x3eb62505	0.3557512
147	0x3e21b1e9	0.15790524
148	0x3e14bb25	0.14524515
149	0x3d2033ae	0.039111786
