results/SNGP_FINAL_RESULTS/SNGP/SNGP_R7500_LS0.25_OS2.75_10000CrazySin/model.pt (torch, 91782 bytes, 3 tensors)

feature_weight f4 [7500, 1]
00000000: ba8a 9d3f be1a c0bf 3374 303f d6e1 c8bf
00000010: 7234 a33f 3e91 31be acaa d7bf d095 81bf
00000020: 0e63 89be eeca 813f aca6 7cbe fe51 043f
00000030: 13c0 c53f e4e7 cdbf d1fc e83e c5b8 0d3f
00000040: 91b9 14bf c7ae e8bc 0c0c 9b3f 4a72 02bf
00000050: 1b66 3e3f fb41 933e 2bb6 4cbf 439f f9be
00000060: 436c 73bf 33ee c83e f44a c23e 7c00 e4be
00000070: adae 1b3f 0099 913f 9776 273f 7253 90bf
00000080: cd41 363f 287e 0fc0 ae6f e8bd 29d3 e3bf
00000090: b0c2 bc3e 664e dfbf b4fe 613d 3ea9 10be
000000a0: abd9 b5bf 9e44 c6be 576e 5e3f 7d0c e9be
000000b0: a159 ac3f 2193 003f b420 603f 66df 9bbe
000000c0: 87d6 123b 8ae9 8b3f 95f4 41bf 5e15 2abf
000000d0: 74a5 b03e ca60 1b3f c22c babe d3d0 fdbd
000000e0: b49e 2f3f 6119 c5bf 5c92 78bf bea1 823f
000000f0: 4046 813f d536 043f 240e b43e cd2e 433f
00000100: d3b9 25bf 5d8b 053f 5a93 233f b718 e23d
00000110: 6c69 f43e 01e0 013f a54f 25bf 9920 bd3f
00000120: 9e18 973e 9d6a 8c3f c091 a1bf 297e 423e
00000130: 2e2a 43be 1389 c7be b7c6 663e 564e 18bf
00000140: 78fb 463f 4598 fb3f 04ca a2bc 12f8 d9bf
00000150: 1003 f63e d9fc b2be 28df 323f 11bb e33e
00000160: 3a91 7a3d 8f94 d0bf 4140 893e 69e0 f7bd
00000170: 2abd 06bd 39ae 5dbe 046a 99bf c5eb a2be
00000180: 643b 263f 1e37 7dbe 8ddd 35bf 7903 a83e
00000190: 1a74 a4bf 2dca 4cbf a40e bb3e 1c80 83bf
000001a0: eb21 5b3f e1b2 573f 4095 133f 0d6e f43f
000001b0: d1af 06bf b066 bebf 1af2 c1bf dcb8 21bf
000001c0: 078e a2bf 94c2 2b3b e63d 04c0 ca6e 9dbc
000001d0: 3030 cf3e f23f 84bf b39c e7be 58fa 1fbe
000001e0: 3e14 403e 57e6 c43e 5ce7 54bf 62e2 e43f
000001f0: a31c b7bf 9558 563f 2a49 67bd c154 46bf
00000200: 606e f93e 6e83 0540 effb 0bbe defa c83f
00000210: 15b2 bdbf b93a 0b3f daae af3f 6369 ecbe
00000220: 6768 2d40 4844 34bf 9aa2 6f3e 499e c53f
00000230: a492 a73f 32da 2b3e c383 dcbc be5a 893d
00000240: 3e7e 88be 954b d23f af65 c63e cafd 1a3f
00000250: b684 dbbe c22e 9ebf 1ee2 d43f c62c 9abf
00000260: 5686 c43d f22e e9bd d6d0 ad3c 051d 923d
00000270: 49f3 00c0 44aa 193f af5e 763f 74b1 c43e
00000280: 05eb 0dc0 d516 513f 84a7 a7bf 810f 14bf
00000290: 5796 053e 58de cb3f b843 73bf e453 c93e
000002a0: 6f69 2abe e1f9 d8bd fa25 e33f b331 5a3e
000002b0: a6d9 61bf 1a3c 8c3e e5e7 c63e cc9c 5fbf
000002c0: a987 6f3f a534 1cbf 2a78 5f3f 16c0 cebf
000002d0: c696 44be 14e3 a13f bf4c bfbe 7501 f83d
000002e0: 5add a03f 58a6 94bf dbfa a3bf 5d1b 563e
000002f0: 886e 0dbf 4a43 6abf efd5 e3bf 26e1 bb3f
00000300: dd3d 873e 416e ae3f 8b53 c2be 7405 1740
00000310: 215c 8dbe 5824 56bf 0534 c5bf ca12 9e3f
00000320: 5bae c6bf 3d03 f33e 58ef 333f f317 d7bf
00000330: 1084 ab3e a225 f1bf 90c8 d03e 807a b0be
00000340: 1183 223f 01d2 31bc 3de5 a5bf 2ad9 d03f
00000350: 0ffb 5f3e 4112 bb3f fa76 e4bd a0f6 ca3f
00000360: 72b7 253f dec9 de3f 613c 003f a3ec 84bf
00000370: b130 a8bf 5a37 e6bd eb36 88be 553a 373f
00000380: 4476 b13e 7b9b bbbe 4265 abbe 7467 313f
00000390: 32c8 ecbf 3dbd dc3f c9a9 d13d edcb 3a3f
000003a0: 9558 7fbf c6a5 583f fff4 ba3f 65ed 853f
000003b0: 0244 963d a6d1 34bf 2985 69bf 320a 15bf
000003c0: ddba a23e 439c bbbe cf00 303f fe24 35bd
000003d0: e746 68bf 8c10 9d3f 0f46 12c0 ac82 bebd
000003e0: 6d5d 98be f654 40be 2b5b c0be 1416 0a3f
000003f0: 7301 ee3e 8f32 1abf ecc3 be3f 9911 36be
1.2307961 -1.5008161 0.68927306 -1.569392 1.275038 -0.17340562 -1.684896 -1.0123844
-0.26833385 1.0140054 -0.24672955 0.5168761 1.5449241 -1.6086392 0.45505384 0.5536006
-0.5809565 -0.028403653 1.2113051 -0.5095564 0.7437455 0.28761277 -0.79965466 -0.4875432
-0.9508707 0.39244232 0.3794781 -0.4453162 0.6081341 1.1374817 0.6541533 -1.1275465
0.71194154 -2.242075 -0.11349426 -1.7798816 0.36867285 -1.74458 0.055174544 -0.14127061
-1.4207052 -0.38724226 0.86887115 -0.4551734 1.3464853 0.502245 0.875499 -0.30443877
0.00224057 1.0930645 -0.7576383 -0.66438854 0.3450123 0.60694563 -0.36362273 -0.12393346
0.68601537 -1.539837 -0.97098327 1.020561 1.0099564 0.5164617 0.35167038 0.7624329
-0.6473667 0.52165776 0.63896716 0.1103987 0.4773668 0.5073243 -0.6457465 1.4775573
0.2951097 1.0970036 -1.2622604 0.18993439 -0.19059059 -0.38971767 0.22536741 -0.5949453
0.7772746 1.9655844 -0.01987172 -1.702883 0.48049212 -0.34958532 0.6987176 0.44478658
0.061173655 -1.6295336 0.26806834 -0.1210335 -0.032895245 -0.21648492 -1.1985478 -0.31820503
0.6493437 -0.24728057 -0.71041185 0.3281515 -1.2847931 -0.79995996 0.36534607 -1.0273471
0.8559863 0.8425732 0.5764961 1.9096085 -0.52612025 -1.4875088 -1.5152009 -0.631727
-1.2699593 0.0026208507 -2.066278 -0.019217867 0.40466452 -1.0332015 -0.4523674 -0.15622842
0.18757722 0.38456985 -0.83165526 1.7881587 -1.4305614 0.83728915 -0.05646626 -0.77473074
0.48717022 2.0861468 -0.13670324 1.5701559 -1.4819971 0.5438648 1.3725235 -0.46174154
2.7094972 -0.7041669 0.23401871 1.543893 1.3091626 0.16782454 -0.026918298 0.06706761
-0.26658815 1.6429316 0.38749453 0.605435 -0.42874688 -1.2358019 1.6631505 -1.2044914
0.09595935 -0.11385907 0.021217745 0.07134441 -2.014849 0.6002543 0.96238226 0.38416636
-2.2174695 0.81675464 -1.3097997 -0.5783616 0.13045631 1.5927229 -0.95025206 0.39321816
-0.16641782 -0.105945356 1.7745965 0.21308021 -0.8822273 0.27389604 0.38848796 -0.8734863
0.93566376 -0.6101783 0.8729273 -1.615237 -0.1919814 1.2647424 -0.3736324 0.12109653
1.2567551 -1.1613264 -1.281093 0.20908876 -0.5524678 -0.91508925 -1.7799662 1.4678085
0.26414385 1.3627397 -0.37954363 2.3597078 -0.2760935 -0.83649206 -1.54065 1.2349484
-1.5521959 0.47463408 0.70287085 -1.6804184 0.33499193 -1.883961 0.40778017 -0.3446846
0.6348124 -0.0108532915 -1.2960583 1.6316273 0.21873115 1.4614946 -0.111555055 1.5856514
0.6473304 1.7405355 0.5009213 -1.0384716 -1.313986 -0.11241026 -0.266044 0.7157338
0.34660542 -0.3664206 -0.3347569 0.6929848 -1.8498595 1.7245251 0.10237462 0.72967416
-0.9974454 0.8462795 1.4606017 1.0463072 0.0733719 -0.706324 -0.9121881 -0.5821868
0.3178319 -0.36642656 0.68751234 -0.04422473 -0.9073319 1.2270675 -2.285526 -0.093022674
-0.29758778 -0.1878241 -0.37569556 0.5393994 0.4648548 -0.60233396 1.4903541 -0.1778015

feature_bias f4 [7500]
00000000: f3a3 2740 fc00 5a40 15dc c540 a3b2 7240
00000010: c4ff 1a40 d16e 313f 757a be40 ea1d 1440
00000020: a411 0d40 dd8a 3940 058a 3440 6319 933e
00000030: be48 aa3e 8b83 d13f c100 4f3f 735d 653f
00000040: df1b ef3e 0dff 743f eca8 c53f 964d c63f
00000050: 68ee 7c40 e5b5 9c40 a8d9 b93e b56f c03d
00000060: ea7d a340 0e92 b140 98d6 9f40 2a8d b93f
00000070: 2ae1 1140 d55a 1640 bd66 3840 45ab a940
00000080: d331 763f 3685 8e40 0454 9540 feb5 c540
00000090: fb1f 1840 836b 5f40 934f 0c40 f3e6 7240
000000a0: 7e0f 6340 25c9 bf40 a99c b440 6043 5040
000000b0: 4743 a940 03ec a340 5c37 a540 1c80 c740
000000c0: b4e2 2240 1017 da3f 1a8c b040 32a7 b440
000000d0: 0395 ec3f dfb6 b640 7616 8a40 d4fb 6f40
000000e0: 408b a140 78ca 2540 720f 8140 9d6d ff3f
000000f0: 1ed6 1d40 1297 a040 3019 3e3f c27a b240
00000100: efe9 0e40 4479 dc3e fd7e 3d40 2c1c b940
00000110: 40bc 5140 f6ed 8e40 035e 4440 84f1 3940
00000120: cb3d 8e40 1895 b040 724b 3a40 4f8d 0240
00000130: ba39 9a40 dacd 5b3f a651 6f3f f7f2 8440
00000140: 4060 d23f b479 c240 c15a a340 d645 3c40
00000150: 0f0d 6640 f1e3 ac40 9bc7 bd40 34c8 3d40
00000160: d10e 3a3f 73b0 5540 b832 9140 43c3 8640
00000170: 77c1 9b3f bd33 6c40 ad97 a33f 4fea 8f40
00000180: 3d5d b540 2705 b940 38b7 8a40 fc71 9540
00000190: a1e2 b23f 27e5 6640 31ad 4540 bdce aa3f
000001a0: 1dcf bd3e 4ca9 9440 4aff 2b3f 56d5 0c3f
000001b0: 2e05 9d40 86ca 4b40 3cc8 8340 c97b 9b3f
000001c0: 1dfd 5940 42a5 093f 360d 8140 355d 6f40
000001d0: 3d70 c840 7939 353e e90e f63f 3cbf 673f
000001e0: 44a6 0e3d f0ec 1e40 3c4a 6a40 ce84 073f
000001f0: e5e5 8540 8f63 b740 4431 8b40 b50e 8440
00000200: 4e32 9a40 f174 a140 a78f 1f40 b8ef 0b40
00000210: f123 4040 2752 a740 e96c d03e 2917 9140
00000220: ffcb bd40 12f6 5140 e3f8 f23f 945b 9440
00000230: 3a6f 5540 26d2 1d40 ba89 d53e 570a b040
00000240: 984b 6940 8b9b 8540 bf0c a340 600c 463f
00000250: 0e7a 7c40 8ad1 9c40 655c 5540 8218 de3f
00000260: 0a8a 9a3f 62ec 4c40 3c3e 323f 2968 ac40
00000270: e229 b140 0e52 b740 18b5 7140 75b2 5740
00000280: 124d 363f 9b1b ba3f 6a7d 8440 7e7c 583f
00000290: a597 883e 3f6f 5040 051a 8440 e452 b240
000002a0: 2219 3540 9691 8d3f e618 c840 ca10 0840
000002b0: bbbd d03f 0abe a73d 6862 c440 5751 6a40
000002c0: d2df 3b3d a8df bc40 73fb 2e40 48e2 8340
000002d0: 8bde 0740 dfc5 7040 255c 1c40 74b2 9b3f
000002e0: 4804 1340 e762 003f a644 6640 ba6d c240
000002f0: 7327 1040 b248 9c40 56cf b640 1b79 1440
00000300: c210 6a40 c82a 1f40 0e56 3240 58f7 3a40
00000310: 2877 7140 d876 043f 8db5 a840 3b44 b03f
00000320: 95b9 7d3f cd02 1f40 4dd1 853f 6489 2f40
00000330: 4ac5 3f40 8570 873f 9e7c 9f40 27f6 b840
00000340: 7236 4f40 359d ca3f 9467 a540 bcaa 8440
00000350: 9075 3c3f 9885 1c3f 3388 8a3f 4309 2940
00000360: ed91 8540 3409 6140 bfea b540 c79f a040
00000370: 668e 793f b454 8540 100c b540 6879 ea3f
00000380: 5781 2c40 a924 8540 a809 6f40 5bec 9640
00000390: 630a 5940 9194 e73f 753b e23f 928f 903f
000003a0: 7bfd 323f 6ea1 8440 50df 9140 1ff6 6140
000003b0: aa2a 9840 3964 7640 3573 763f d6f2 493d
000003c0: 5970 8f3f c3f2 6540 f2a1 bb3f 5034 0b3f
000003d0: b3ce 6d40 dfd5 8c40 fe98 bb40 8b61 bc40
000003e0: e8ed 843f 08b3 8f40 6078 f23f 1c88 253f
000003f0: da6e 8440 7c99 ee3f a576 243f 9f7a b540
2.6193817 3.40631 6.1831155 3.7921531 2.4218607 0.6930972 5.9524484 2.3143258
2.2042017 2.8991005 2.820924 0.28730306 0.33258623 1.6368269 0.80860525 0.8959572
0.4670095 0.95701677 1.5442176 1.5492427 3.9520512 4.897204 0.3629887 0.093963064
5.1091204 5.549079 4.9949455 1.4496205 2.279368 2.349294 2.8812706 5.302157
0.96169776 4.453761 4.666506 6.178466 2.376952 3.490937 2.1923568 3.795346
3.5478206 5.993304 5.6441236 3.2541122 5.2894626 5.12256 5.1630077 6.2343884
2.5450869 1.7038288 5.5171022 5.6454096 1.8482975 5.709823 4.315242 3.7497454
5.0482483 2.5904827 4.0331354 1.9955326 2.4661937 5.018441 0.74257183 5.577485
2.2330282 0.43061268 2.9608757 5.784689 3.2771149 4.466548 3.068238 2.905366
4.445043 5.5182 2.9108548 2.0398748 4.8195467 0.8586098 0.9348396 4.154659
1.6435623 6.0773563 5.1048284 2.9417624 3.594547 5.402825 5.930616 2.9653444
0.7267886 3.3388946 4.5374413 4.2113357 1.2168416 3.6906579 1.2780663 4.497352
5.6676316 5.781879 4.3348656 4.670164 1.3975412 3.6077363 3.0886958 1.3344342
0.37072077 4.645666 0.67186415 0.55013025 4.9068823 3.184236 4.1181927 1.2147151
3.4060738 0.5376779 4.0328627 3.740064 6.263701 0.17697705 1.92233 0.90526175
0.034826532 2.4832115 3.660781 0.5293702 4.1843133 5.730903 4.349764 4.1267953
4.8186407 5.045525 2.4931428 2.1865063 3.0021937 5.2287784 0.40708092 4.534077
5.931152 3.280644 1.8982204 4.636179 3.3349137 2.4659514 0.4170664 5.501262
3.6452389 4.175237 5.095306 0.7736263 3.9449496 4.9005785 3.3337643 1.7351229
1.2073376 3.2019277 0.6962621 5.387715 5.5363626 5.7287664 3.776678 3.3702672
0.7121135 1.4539675 4.1403093 0.8456496 0.26678196 3.25679 4.128176 5.5726185
2.829659 1.1060054 6.2530394 2.1260247 1.6307901 0.08190544 6.1370125 3.6612146
0.04586775 5.902302 2.7340972 4.121372 2.122958 3.762077 2.443124 1.2163835
2.2971363 0.50150913 3.59794 6.0758944 2.2524078 4.883874 5.7128096 2.3198917
3.6572728 2.4869862 2.7865024 2.9213467 3.7728977 0.5174384 5.272162 1.3770822
0.991113 2.484546 1.0454499 2.7427607 2.9964166 1.0581213 4.983962 5.780048
3.237698 1.5829226 5.168894 4.1458416 0.73616886 0.6114135 1.0822815 2.6411903
4.174063 3.5161867 5.6849055 5.019504 0.9748291 4.1665897 5.6577225 1.83183
2.6953943 4.160725 3.7349644 4.716352 3.391259 1.8092214 1.7674395 1.1293814
0.6991803 4.144706 4.55851 3.530647 4.755208 3.849867 0.9626954 0.049303852
1.1206161 3.592942 1.4658797 0.543767 3.715741 4.4011073 5.862426 5.886907
1.0385103 4.4906044 1.8942986 0.6466081 4.1385317 1.864059 0.6424354 5.6712184

linear.weight f4 [1, 7500]
00000000: d7e2 9d3b 353e 58bc 86f9 03bc 446b 523d
00000010: 89f2 85bc 435c 45bc a4d0 c6bd 1af1 f7bb
00000020: dcff 79bb 3d9c a239 e552 deba b2e4 563c
00000030: 66ea 3fbc 7ac4 ddbc 52ea 88bb 24cb 28bb
00000040: c444 0ebc 53b1 0a3c 09b4 a33b 04fb 453b
00000050: 22a8 4b3c 97b5 123c 5e4a 1d3c 5ec4 613c
00000060: 800d 5dbc 9754 d23b 7396 d1b7 f767 863a
00000070: 7b99 ac3a 5b05 a33c 27df 6abb fb50 093c
00000080: f93b d83a 86c4 1dbc 4bb0 9a3c 6b16 11be
00000090: ac93 f6ba 75fd f33d cf37 453c 317c dd3b
000000a0: be4c f0bc b6a0 3ebc 0c77 9b3c 1e8e c9bb
000000b0: deba 293d 3ce7 293c a17a 873c be76 47bc
000000c0: 0a0d 04ba bd84 a43c 8bbf a7ba f38f 74bb
000000d0: af88 81bb c503 a53a 57b8 7cbc 2258 0f3c
000000e0: 8e18 e8bb 9084 853b ab76 eebb 404d 943b
000000f0: a15d ea3b 4225 b0b9 25e4 11bc b2fe 67bb
00000100: 91a2 8ebc ffed a3bb 9d64 b63a 00a5 d938
00000110: 023d 463b dc63 ba3a d02b d9ba c5c7 a1bc
00000120: 0607 90bb cd70 9dbc 6228 babb 9c9e 12bb
00000130: 61c0 13bb 5abc 583a 1dfa f13b d6e6 013c
00000140: 5e12 0dbc 2f60 eabb 0a85 103b edda d43d
00000150: 1225 a1bb 2f1f 1fbc fbe2 1cbb a878 75bb
00000160: 9874 c9ba 50bc b03d eedb e13b b8cd 543c
00000170: f1cc 3dba 79c8 c63b 8f8b 41bb ce41 a1bc
00000180: c35b 77ba 570d 89bb a12f 723c 5a8f 823c
00000190: d673 de3b 7a55 123b e74b a339 91f0 9dbc
000001a0: 5bda 53bc d994 983c eefd 2a3c 2c2a b1bd
000001b0: aa5d bd3b d4b3 9cbc 382a 983b 573c 66bc
000001c0: 5067 cfbb 3306 583b abc6 003d e7b3 10bb
000001d0: dd1f debb 2599 ae3b 7b51 bb3b 3bb7 89bc
000001e0: b0aa 1e3a 9d00 0e3b b19b 8cbc 36f3 0dbe
000001f0: ce89 e3bc 648e ac3a d7b0 833c f519 16bc
00000200: 570c 1bbc 55df 9ebd 0248 7dbc 5177 1a3d
00000210: f186 bfbc 59d7 37bc 4afd 473b d853 67bc
00000220: 2342 a23d 65a3 a43b 8fae 65bb 4e42 8dbc
00000230: 4939 24bb ce7d af3a a7cb 13bc 384d 35bb
00000240: e5fa 26bb 8f21 8a3c d434 853b d59d c33b
00000250: 5e1e 2bbc 7ce3 033a f283 ba3d c560 21bb
00000260: 1591 983c 48c1 f7bb 18be 403c efcd fbbb
00000270: f7f2 b03c 94bd 88bc a3a5 bebb 4224 39bc
00000280: f67f 6ebc 1741 a5bc 9823 c0bc 81cf 83bc
00000290: e133 4d3b 6302 583d aa78 ffbb a147 7b3c
000002a0: a517 0a3c f3ed 40bc d68a f8bd 3d54 5c3c
000002b0: e77e c93c 39b1 1fba d04c 603b 06c1 aabc
000002c0: 5cf2 423c 1e4a a0bb 7275 74bc 5704 9f3d
000002d0: 2333 4e3b eaf8 6a3c cbfe 5a3b 0e58 653c
000002e0: d416 71ba 75f4 4cbc 4c1f f1bb bde3 9a3b
000002f0: 3b8a 9dbc 9d59 5abb e6dd fabd 0453 dbbb
00000300: 9b97 633c 4912 e8bc 6e44 eebb 6afa 93bd
00000310: 9e5b ffbb 809b cb3b 2857 b63c 8ff3 cebb
00000320: 5fd6 d2bc d6ab 303b f131 94b9 3100 a93d
00000330: 3c46 1f3b 73b9 653c 2172 853b 41f3 a93a
00000340: 21bc fcbb 05ac b23a 8eb5 11bc 1ee6 ceb9
00000350: 0ab5 b63b 42cb 7f3b 0f5f 533a 2e08 843d
00000360: cea3 61bc 8400 053e 4874 0b3c 3510 b93b
00000370: 8a1c fa3c 9237 423c aebc a23b 5a27 403c
00000380: 06b5 d63a 8c57 63bc 72d4 6fbc d89e 123b
00000390: f261 ab3d 285f e63c 7564 7d3b a7c7 f8b8
000003a0: 77ab 593c e9ed bd3a 5c54 9d3b a70a 933b
000003b0: 4a85 bdbb bd5a 943b 51ef 9e3c e29b 1f3b
000003c0: 55f6 9bbc 8fbb 763b 33f3 4d3c ea02 a5bb
000003d0: b195 a9bc a2e5 fcba 1151 82bd 568f 7a3c
000003e0: 81c9 79bb 62b4 4d3c 63b5 99ba 0d2a 033c
000003f0: 4f68 3d3c 4f61 33bb 0b69 02bb 6715 1d3a
0.004818301 -0.013198425 -0.0080550965 0.051371828 -0.016351001 -0.012045923 -0.09707764 -0.0075665833
-0.003814689 0.00031015454 -0.001696196 0.013116049 -0.0117136 -0.027071226 -0.004178324 -0.0025755847
-0.008683387 0.008465129 0.004995827 0.0030209431 0.012430223 0.008954427 0.00960025 0.013779728
-0.013491988 0.0064187753 -2.49848e-05 0.0010254373 0.0013168299 0.019900015 -0.0035838576 0.008381124
0.0016497365 -0.009629374 0.018882891 -0.14168708 -0.001881232 0.119135775 0.012037232 0.0067591895
-0.029333469 -0.011634996 0.018977664 -0.006150975 0.041437976 0.010370072 0.016537966 -0.012174306
-0.00050373434 0.020082826 -0.0012798173 -0.0037317246 -0.0039530615 0.0012589624 -0.015424809 0.00874904
-0.0070830053 0.0040746406 -0.00727733 0.0045258105 0.0071522747 -0.00033597095 -0.008904492 -0.0035399613
-0.017411502 -0.0050027366 0.0013915483 0.000103781 0.0030248766 0.0014220434 -0.0016568843 -0.019748578
-0.0043953685 -0.019218827 -0.0056810835 -0.002237237 -0.0022545087 0.00082678127 0.007384552 0.007928571
-0.008610336 -0.0071525793 0.0022051954 0.10393319 -0.004917749 -0.009712025 -0.0023939002 -0.003745595
-0.0015369831 0.08629668 0.0068926727 0.0129885 -0.00072403165 0.0060663787 -0.0029532646 -0.019684698
-0.0009435976 -0.0041824984 0.014781863 0.015937496 0.006788711 0.002232878 0.00031146334 -0.01927975
-0.012930478 0.018625664 0.010436518 -0.08650622 0.005778988 -0.019128717 0.0046437047 -0.014052472
-0.0063294545 0.003296268 0.031439465 -0.0022079886 -0.0067787007 0.005328315 0.0057165003 -0.016811004
0.0006052656 0.0021667846 -0.017164083 -0.13862309 -0.027775671 0.0013164994 0.016075535 -0.009161462
-0.009463391 -0.07757441 -0.0154590625 0.037711445 -0.023379775 -0.0112207765 0.0030515962 -0.014119111
0.07922771 0.005024361 -0.0035046672 -0.01724353 -0.0025058559 0.0013388933 -0.0090207225 -0.0027664434
-0.0025479135 0.016861705 0.0040651355 0.005969743 -0.010444252 0.0005031151 0.09107198 -0.002462433
0.018623868 -0.0075608827 0.011764072 -0.0076844613 0.02160023 -0.01669196 -0.0058180853 -0.011300148
-0.014556875 -0.020172639 -0.023454472 -0.016090157 0.003131144 0.05273665 -0.0077963667 0.015336902
0.008428489 -0.0117754815 -0.12135856 0.013447818 0.024596645 -0.0006091777 0.0034225471 -0.020843994
0.011898603 -0.004891648 -0.014920579 0.077645 0.0031463585 0.014341572 0.0033416029 0.013998045
-0.0009196822 -0.012509455 -0.007358467 0.0047268555 -0.019230952 -0.0033317574 -0.12249355 -0.006693246
0.013891126 -0.028329032 -0.007271341 -0.07225497 -0.007792904 0.0062136054 0.022258356 -0.0063156555
-0.025736986 0.002695789 -0.0002826597 0.0825199 0.0024303338 0.014021265 0.004072443 0.0012966172
-0.0077128564 0.0013631588 -0.008893384 -0.00039462833 0.0055757808 0.0039031063 0.0008063176 0.06446873
-0.013771964 0.12988478 0.00851161 0.005647684 0.030531187 0.011854069 0.00496634 0.011728132
0.0016380853 -0.013875853 -0.014638053 0.002237251 0.08368291 0.028121546 0.0038664613 -0.0001186275
0.013285509 0.0014490458 0.004801316 0.004487354 -0.0057837116 0.0045274184 0.019401224 0.0024354388
-0.019038359 0.0037648415 0.01257019 -0.005035748 -0.020701261 -0.001929451 -0.063631184 0.015292963
-0.003811449 0.012555214 -0.0011727031 0.008005631 0.011560514 -0.0027371233 -0.0019899036 0.0005992264
