results/SNGP_FINAL_RESULTS/SNGP/SNGP_R1250_LS0.25_OS2.75_25000CrazySin/model.pt (torch, 16902 bytes, 3 tensors)

feature_weight f4 [1250, 1]
00000000: 3372 343e efdd fabf 5e4b 2fbf 3345 843f
00000010: b8c5 67bf 9237 bd3f a070 f7be 4151 b33e
00000020: c938 8d3f 853d efbe 5e04 b93e bf5f 4b3f
00000030: a5ff dbbf fac2 4abe e18e 36bf b4e7 5b3f
00000040: 8cad c8bf 8452 db3e 390c c73e 250a 2f3f
00000050: 2e3a 89bf 5458 3dbf f612 61bf 9eaa 2dbf
00000060: 0d3a 80bf fdb6 9e3e 6755 8f3f 9d03 0dbf
00000070: dd92 c93f f517 86be d6c4 f53f 0567 8d3f
00000080: d4dd d4be e4c6 e43f 525b 5e3e 6621 19bf
00000090: 64f9 3ebf 8b4d cfbe 4661 c93d d0cd 543f
000000a0: 6891 ff3e 3817 19bf aa44 3bbf 2cd3 223f
000000b0: e0f7 713f b8d3 fc3e 935b 20c0 2198 eb3f
000000c0: 3063 ebbd 7478 c53e 4852 d4bf 8b49 a33f
000000d0: b948 0cbf 46d8 893d 1af3 c0bd 35f4 183f
000000e0: dba3 923f f859 223e 213b a5bf 1f33 01bf
000000f0: 310c 20bf c9c1 49bf d5c1 bcbe 0d32 683f
00000100: de2c 6a3f 3484 24bf 2cce 6abf 46e6 89be
00000110: 76c7 09c0 3cf8 29c0 31cd cd3f 9c14 1b3f
00000120: 9485 a1be 2475 0c3f f7ef 10bd ac48 fe3f
00000130: e255 1e3f ea49 023d 996b f43f 1b57 983f
00000140: f67f 64be d1b2 38be 19f4 c0bf 6dfc cd3c
00000150: b3bb 943f c4cf e1be 5c83 26bf ce8f 213e
00000160: a5b8 76bf 2300 55bf c075 3f3f d294 1a3e
00000170: 8184 923f 1f98 2140 f429 2b40 9c48 0dc0
00000180: fe9a 1f3e 737b 9bbe 6ee0 4b3e 467b bcbf
00000190: beee 3abf 8367 ac3f c9dc af3d 71f2 1f3e
000001a0: 575c ddbe acdf a73f 3c20 73bf 9c74 da3f
000001b0: b5be 7d3f 5a99 f3bf af1e 053f e734 963f
000001c0: dcbd 1b3f 3f91 62bf 2010 46be 8c68 afbe
000001d0: 839e c6be fc12 afbc f87e d13d 339e b83f
000001e0: b184 e1bf a041 b6be 1270 323f 5427 d53e
000001f0: 6c0c 933f e50e 2c40 c0d3 a2be 763c 3a3e
00000200: a50c ee3e a107 fb3f de69 7abe 4ba1 6bbf
00000210: bf08 303e de5a 683e cedc cdbe 26e6 e23e
00000220: 9910 173f 14a3 0040 7bed 943d ec28 d6bd
00000230: 301e 823f 279f 8bbe c95a 8cbf f508 8e3e
00000240: b1df 91bf 3862 2dbf 07db 4f40 f07e 323f
00000250: 7fae 2fbf 30ad 113f 975c b1be 2dbd 843f
00000260: 0031 afbe 88a8 2e3f 097c 0240 4458 893f
00000270: 7c12 033f 4c49 d83f 64d8 5abe 1c8f a83e
00000280: 5f3e a43e 98c2 35be 498a 073e 912a 1d3d
00000290: 1f9e e93f f367 81be 1e52 cb3f fb0e 0ebd
000002a0: b631 5ebe d6b3 933f ba4b ec3f e97b 803e
000002b0: 908c 09bf 700e 703f fbc9 04bf cea0 373f
000002c0: 56f1 d53e 18d4 5d3f 15e1 7e3f 963e c63d
000002d0: a5cf 91be c171 8cbf b7f9 f83d e45c c5be
000002e0: 0b7e b5bf 840c 57bf e9df b6be c651 19c0
000002f0: deba 8e3f 3e3d f03d 0de9 e2bd c5b3 393f
00000300: c893 673f 89b1 5fbe 80a5 ab3e 7b92 65bf
00000310: b963 593f 9557 223f 4aa6 8d3f f657 a23e
00000320: b143 12c0 0fc9 3fbf 593c 003f a33c 013f
00000330: ef7d 9f3f dc79 48bf cbd4 e4bf 64fb 3bbe
00000340: 5665 efbd c127 aa3f 0db5 0ac0 d6e1 303f
00000350: a160 7cbf 486a 9f3f f073 4bbf 259a 743f
00000360: 4418 4c3f 091d 9dbf bfc2 5c3f d687 8c3d
00000370: 7d6d dbbe c52e da3e 9637 ed3c e3d5 ef3f
00000380: 6a9a 2cbf f4e9 44be 7359 00bf 3d86 883f
00000390: 519f 7e3e bc58 883f 4707 7a3f 2dd9 c9be
000003a0: aff1 a73f fe83 a6bf e885 613e b0ea 913f
000003b0: 1298 82bf e81d 0f40 856d d23e e190 71bf
000003c0: 16c6 babc 3f12 35bf debf 60be 6368 92be
000003d0: 66c6 b8bf dcbf 0bbf 4fab 2cbe 0313 b93e
000003e0: 66d5 0040 e13d 983f 7efa 1c3e ae41 6f3f
000003f0: a696 1c3f e320 2fbf 813e 92be 3671 e83b
0.17621689 -1.9598979 -0.68474376 1.0333618 -0.9053607 1.4782584 -0.48328114 0.3502293
1.1032954 -0.46726623 0.36136144 0.7944297 -1.7187392 -0.1980094 -0.71311766 0.85900426
-1.5677962 0.42836392 0.38876513 0.68374854 -1.072088 -0.73962903 -0.8791956 -0.67838466
-1.0017716 0.30998984 1.1197938 -0.5508364 1.5747944 -0.26190153 1.9200695 1.1047064
-0.4157549 1.7873197 0.21714523 -0.59816587 -0.7459929 -0.40488848 0.098330066 0.83126545
0.49915624 -0.59801054 -0.7315165 0.6360347 0.9451885 0.4938028 -2.5055892 1.8405801
-0.11493528 0.3856846 -1.658761 1.2756819 -0.54798466 0.06730704 -0.09421368 0.5974763
1.1456255 0.15854633 -1.290867 -0.5046863 -0.625186 -0.7881132 -0.36866632 0.9070137
0.9147471 -0.64264226 -0.91720843 -0.26933497 -2.1527991 -2.655776 1.6078244 0.6057832
-0.31547225 0.5486624 -0.0353851 1.9865928 0.61849797 0.03180877 1.9095336 1.1901582
-0.22314438 -0.18036963 -1.5074493 0.02514478 1.1619781 -0.44103825 -0.6504419 0.15777513
-0.96375495 -0.83203334 0.7478905 0.15095833 1.1446687 2.5249097 2.6744356 -2.2075567
0.15586469 -0.30367622 0.19909832 -1.472512 -0.7302054 1.3469089 0.08587033 0.15619828
-0.43234512 1.3115134 -0.9497106 1.7066836 0.9911912 -1.9031174 0.51999944 1.1734895
0.6083658 -0.8850288 -0.19342089 -0.3425945 -0.3879281 -0.021371357 0.102292955 1.4423279
-1.7618619 -0.35596943 0.69702256 0.41631567 1.1488166 2.688409 -0.31802177 0.18187127
0.46494022 1.9611703 -0.24454448 -0.9204299 0.17190836 0.22690913 -0.40207523 0.44316214
0.590097 2.0099535 0.07271858 -0.10457024 1.0165462 -0.2726986 -1.0965205 0.2774121
-1.139639 -0.67727995 3.2477434 0.6972494 -0.68625635 0.5690489 -0.34640953 1.0370232
-0.34217072 0.6822591 2.0388205 1.0730062 0.5120008 1.6897368 -0.21371609 0.32921684
0.32078835 -0.17750013 0.13236345 0.038370673 1.825138 -0.2527462 1.5884435 -0.034682255
-0.2169865 1.1539257 1.846061 0.25094536 -0.53730106 0.9377203 -0.518707 0.71729743
0.41785687 0.86651754 0.995622 0.09679906 -0.28478733 -1.0972215 0.12157004 -0.38547432
-1.417909 -0.8400347 -0.35717705 -2.395616 1.1150777 0.11730431 -0.11079607 0.7253993
0.9045987 -0.21845068 0.33524704 -0.89676636 0.8491779 0.6341489 1.1066372 0.31707734
-2.2853816 -0.74916166 0.50092083 0.5048315 1.2460307 -0.7831094 -1.7877439 -0.18357617
-0.1168925 1.3293382 -2.1673005 0.690946 -0.98584944 1.245431 -0.7947378 0.95547706
0.79724526 -1.2274486 0.8623466 0.06861846 -0.4285697 0.42613807 0.02895717 1.8737148
-0.6742312 -0.19229871 -0.5013649 1.0665966 0.24865462 1.065208 0.97667354 -0.39423504
1.3120631 -1.3009031 0.22023737 1.1399746 -1.0202658 2.2362003 0.41099182 -0.9436169
-0.022799533 -0.70730966 -0.21948192 -0.28595266 -1.4435546 -0.5458963 -0.16862224 0.36147317
2.0130248 1.1893884 0.1532993 0.93459594 0.6116737 -0.68409556 -0.28563312 0.007093574

feature_bias f4 [1250]
00000000: a87b c33e 4b10 0240 8465 1340 f239 bf40
00000010: bf3e 0740 0a0a 0840 275d bf3f 7c99 0340
00000020: 399b b040 9156 143f a013 e73f e2a7 6540
00000030: 6d78 a040 1d41 b140 ce9d 0840 8723 ee3f
00000040: a254 9340 2264 7040 8b56 293e b7b3 7840
00000050: 30fe 9740 6da6 4c40 6340 7340 0f0c a940
00000060: 8433 973f a9c9 0e3f 6b95 7240 fe8c a540
00000070: fc4c b740 c99e 9240 b6f6 2a40 b31c 963f
00000080: ab74 b03f 706f 8f40 7583 ea3f 4824 1740
00000090: 17e9 9240 c0ca 3f40 bd4b 8e3f 6506 2d3f
000000a0: a66e a740 bfd3 6e40 a4b4 d93f 9dec fa3f
000000b0: d7fd 063f d340 4040 e5d9 be40 932c c740
000000c0: fd5c cf3f 429f 5940 721a 553e e508 1740
000000d0: c6c9 9440 6bf5 1740 c99b 8140 4ad1 7c40
000000e0: ba84 a23f 979d 8740 3159 8a40 6d8a 8b40
000000f0: dde1 3d3c 924a 2e3e 75a1 9440 c755 5b40
00000100: 12a1 5c40 b0a3 a63c 0fac c540 e90a 1e40
00000110: 74e0 be40 8fab fe3e 1bc1 8a3e 40ea a340
00000120: 5816 3640 9885 9d40 d3ae 6e3f 9570 8c3f
00000130: 56a6 ce3f 327a 6140 5ffa c13f 3c10 753f
00000140: fe54 f13d 2eb9 f53f 3088 bb3f 8bdb 8640
00000150: 4911 583f 5a96 7140 ca40 3540 eda0 8840
00000160: 9a59 a23e 8c85 853f b493 c03f ced6 2140
00000170: 100d 463f 08dc 9940 13d0 1840 634f ae40
00000180: 5946 a140 16f5 4c40 73f1 bf40 8620 213e
00000190: 3b83 a640 0075 8440 1f81 7d40 21fa 8540
000001a0: 447f 1440 aabd ca3d cede 9e40 bece cd3f
000001b0: 671c af40 eded 7640 be47 b13f 8432 2540
000001c0: e4d8 ac3f 251f 1e40 a692 9740 9144 da3f
000001d0: cde5 1940 edbf f03f 90ed a340 c0a2 2b40
000001e0: d193 ae40 e255 f33f 4a65 c83f 7cea bf3f
000001f0: 5754 3b3f 3c53 0c40 6975 9440 da4f 9c40
00000200: 85d2 9540 0b42 8d40 8c20 463f 0667 7940
00000210: fb9a c640 3b30 213f a80a f33d 2433 0340
00000220: b94a 723f 5f61 9f40 dcf4 7e40 850f 6a40
00000230: 4256 9a40 1c4c c040 1e35 a840 c0a4 c53f
00000240: 7fe8 0b40 0027 b940 80c0 1540 7454 2a40
00000250: 19c7 e93e 2190 a840 22b2 e03f 27fb 8e40
00000260: 7e17 0340 106c b340 17af a740 996a b63d
00000270: b695 9a3f e61b b540 b397 1840 8f04 8140
00000280: 5ca5 7f40 1b4f 9540 d093 ba40 e784 7e3f
00000290: 5447 3440 f7a1 1a40 3e7e 6240 6f01 0740
000002a0: 2371 5e40 3f1b c340 e432 b03e dfc2 7440
000002b0: 47f6 ba40 9706 8840 9971 3a40 2a05 a840
000002c0: f5c0 8f40 b0b8 543f 3474 3b40 3c0b 9a3d
000002d0: 9a87 b240 59fb b840 9ab8 c33f 2c55 533e
000002e0: a12d bf40 1d70 b43f 8be6 8a40 5ee8 903f
000002f0: 3533 0e40 f313 9640 f796 b340 333f 663f
00000300: e977 3f40 8495 e03f 4350 893e c996 8540
00000310: 808f be3f ed49 b040 9123 c040 a0ea 9940
00000320: 0a2d 1440 0420 1540 24d9 5840 8363 c440
00000330: a6a7 b940 179e 853f 0466 a440 47a0 ab3f
00000340: 34a0 4b3f 9775 9840 0f76 0b40 0a60 c13f
00000350: 68f5 f83f b75f ad40 9fa4 a240 79f0 153f
00000360: affe 2a3f 9898 d33f fa7b c040 ad50 af40
00000370: 5657 3340 4cb0 c13e 729d 1740 a538 b040
00000380: b6d3 8f3e c3c0 9140 20ae 973f a2ac c640
00000390: 5466 c140 4352 2e40 9532 3140 fc94 5f40
000003a0: 69a8 d73f 5843 1840 e77d 5f40 2770 0b3e
000003b0: a596 1f3e d397 9840 c155 9040 4c97 5d40
000003c0: fa94 bb3f 5ddd 9b40 1d1a a940 f912 5c40
000003d0: 68fd 9140 ed55 873f eaef a740 5a28 ae40
000003e0: f446 0240 756f a540 af2e 9d40 33d0 ab3f
000003f0: 909d ad40 2d84 cb3a cf96 8c3f 5d6f d03d
0.3818028 2.0322444 2.303071 5.9758234 2.1132047 2.1256127 1.4950303 2.056243
5.518948 0.5794459 1.8052864 3.5883718 5.0147004 5.5391984 2.1346316 1.8604592
4.604081 3.7561116 0.1653692 3.885969 4.7497787 3.1976578 3.8008049 5.282722
1.1812596 0.5577646 3.7903697 5.173461 5.7281475 4.581883 2.671308 1.1727508
1.3785604 4.482353 1.8321368 2.3615894 4.5909534 2.9967499 1.1116863 0.6758788
5.232257 3.731674 1.7008252 1.9603459 0.5273108 3.0039566 5.9640985 6.224191
1.6200253 3.4003453 0.2081087 2.3599179 4.6496305 2.3743541 4.0502667 3.950274
1.2696755 4.237987 4.3233876 4.3606477 0.0115894945 0.17020634 4.644709 3.4271104
3.447331 0.020341724 6.1772532 2.469416 5.964899 0.49740264 0.27100453 5.122345
2.8451138 4.922558 0.9323551 1.0971857 1.6144512 3.5230832 1.5154532 0.95727897
0.11783789 1.9197137 1.4650936 4.2142997 0.84401375 3.7748017 2.8320794 4.2696443
0.31708986 1.043138 1.5045075 2.5287356 0.7736368 4.8081093 2.3876998 5.4471908
5.0398374 3.2024589 5.998224 0.15735063 5.2035193 4.139282 3.961006 4.1867833
2.3202677 0.09899457 4.964698 1.6078718 5.472217 3.8582718 1.3850019 2.5812082
1.350369 2.470651 4.7366514 1.7052175 2.404651 1.8808571 5.1227493 2.6818085
5.455544 1.9010584 1.5655911 1.4993434 0.7317557 2.1925802 4.6393323 4.8847475
4.681948 4.414312 0.7739341 3.896913 6.2064185 0.6296422 0.11867267 2.0499964
0.9464527 4.980636 3.983695 3.6571972 4.8230295 6.0092907 5.256484 1.5440903
2.1860654 5.7860107 2.3398743 2.6614046 0.45659712 5.267594 1.7554362 4.4681582
2.0483088 5.606941 5.2401233 0.08907051 1.2076938 5.6596556 2.384259 4.0318065
3.9944677 4.6659064 5.8305435 0.9942154 2.8168535 2.4161355 3.5389552 2.1094625
3.4756553 6.097076 0.34413826 3.824394 5.842563 4.2508044 2.9131835 5.2506304
4.4923043 0.8309431 2.9289675 0.07521674 5.579053 5.780682 1.5290711 0.20637959
5.97432 1.4096714 4.3406425 1.1320913 2.2218754 4.689935 5.6121783 0.89940184
2.9916937 1.7545629 0.26819047 4.1746564 1.4887543 5.509024 6.0043416 4.8098907
2.315249 2.330079 3.3882532 6.1371474 5.801715 1.043887 5.137453 1.3408288
0.79541326 4.764354 2.1790807 1.5107434 1.9449892 5.417934 5.0825953 0.5857006
0.66794866 1.6530943 6.015134 5.478598 2.8022056 0.37829816 2.3689847 5.5069146
0.2809121 4.5547805 1.1850014 6.2085733 6.043741 2.7237709 2.7687123 3.4934683
1.684827 2.3791103 3.4920595 0.13617001 0.1558481 4.768533 4.510468 3.4623594
1.4654839 4.870772 5.2844377 3.438658 4.5621834 1.0573097 5.2480364 5.4424257
2.0355806 5.1698556 4.9119487 1.3422912 5.4254837 0.0015527062 1.0983523 0.10177491

linear.weight f4 [1, 1250]
00000000: 4fc0 3b3c 625e e53d 6a5d 9bbc 941d 8abc
00000010: 93dc 36bc 2c65 1fbd 499b f83c b125 bbbc
00000020: e9ea 89bd 3556 553c cc15 3c3b 2dfb 53ba
00000030: 1ed6 64bd 64fd 90bc c8c0 0e3c c7b5 28bd
00000040: 9b38 803d 2ecd bdbc 9205 abbb b301 193c
00000050: 8eb1 4b3c ae24 0b3d b7bf 2dbb 04fb 02bc
00000060: 3059 6ebc 48f9 10bd e242 ceba 0a06 b73c
00000070: 1dc8 debd fe64 8cbc 3619 673d c32d 273d
00000080: 82bb 243d 5a37 f73d 107b ba3b 7b47 e5bc
00000090: 8b42 d93c 0efb b5bb 8991 9aba 8711 01bd
000000a0: 70a9 463c 44f2 b33c f54c e8bc ea33 0b3d
000000b0: f3e4 0a3d 2859 dabb 02e3 f3be e363 71be
000000c0: 18f4 1abd af31 68bc 6e2a 80be 4e68 adbb
000000d0: 13a2 a13c f548 e93b 3552 263c cbac 88bc
000000e0: ea84 3f3d b570 00bd f04f 283b 60c3 483c
000000f0: d779 19bd 05c3 483c db5f 5abc df43 b9bc
00000100: 16ae ecbc eb14 91bb 24c9 313d a39c 663c
00000110: e035 1b3d 704a 153f cd68 09be f753 423b
00000120: 482e 7539 ee95 33bc 3bb4 69bc 9cbc 10bd
00000130: b50a b63c 06c2 1dbd e6bb 3bbe ead9 433b
00000140: 8b22 a939 a7ab b9bc 909a 893c 843d 5fbb
00000150: 5a8b 7d3c d251 08bd d31a 45bc f7ee d2bc
00000160: 38d0 223d 73c6 0f3d 3c30 34bc c74e 123b
00000170: e436 963c 3b13 d93f ac1c 27bf 9138 1d3e
00000180: 30e8 843b a79e e83b 61b1 2bbd a3d2 463d
00000190: c42b 843c d9e1 e73c b8f9 03bd b20e 243c
000001a0: 1189 e3bc dbb8 c0bb 632e 213c e67b 7a3d
000001b0: b2df d83c 4c0f 8c3c 9f85 8b3c efae 9c3d
000001c0: 05f6 d73c cfd6 91bc 7a27 103d 0a09 37bb
000001d0: 8947 373c 5a99 7c3c e8c4 263c 7cb7 1dbd
000001e0: 7dea 7dbe d1dc d73a 55e4 3fbc 7388 8abc
000001f0: 1982 82bb 3fea 2bbf 975a 783c ec02 14bb
00000200: 0e2a f23c 56f5 0b3e 917c 753b 82f9 0dbd
00000210: ea63 00bd 3ece 943c a85b e63c cd83 13bd
00000220: d121 cf3c 3183 423d 31ef 8abc 597a eb3c
00000230: 9489 43b9 cc48 88bc fcbd b2ba 60cb e4bc
00000240: 2d93 a13b 9379 2ebc 8a82 69be c1c3 013c
00000250: a474 ddbb 0c51 8ebc 8f78 283d 9904 66bc
00000260: b3e0 cd3c 04eb 38bd b5f9 adbc caf5 1cbd
00000270: 07da bb3c 9efc 84be a879 e43c 7ffd 0b3d
00000280: 48ff de39 719c 083c 13f6 14bd c6bd 083d
00000290: 27e0 823e 306d 3e3c 2fd0 b73d 5295 bfbc
000002a0: a7a2 bfbb 057c 22bd def4 98be 57e8 843c
000002b0: b39d 7fbc 943f 7fbc e58b 483b 6be9 8cbc
000002c0: 778d 0e3d 8059 bdbc 643d 0dbd a485 2ebc
000002d0: f355 f7bc 298d c8bc 37fa 1abc 4bdb 113c
000002e0: 52c5 573d 7b77 353d 7fe8 c8bb 095e 503f
000002f0: ea1f c93c 2440 c43b 2339 fd3b 55a3 723c
00000300: 4e06 11bd 579b 35bc 6198 97bc 5772 cbbb
00000310: 59a7 42bc 426f 91bc bfa1 68bd 1d3b 08bc
00000320: 7919 123e f22a cdbb f8c6 21bc 2311 133d
00000330: e7fb f33a 821d a73a 400c 53be 94c2 9abc
00000340: 9b70 86ba 17b9 763c 8913 50be 02b6 023d
00000350: 6629 f7bc 227f afbc a3e2 1bbd 2ff3 c13c
00000360: 1d19 e63a d817 aabc 39ad d1ba 05aa 0c3c
00000370: e8d3 debc 4863 f33b adab b7bc 7f64 86bc
00000380: b1c1 1fbd 67a6 fd3c 9c51 e13c 1efb e73b
00000390: e2b8 b6bc 1c36 573b b82c f8bc 2923 3bbc
000003a0: 848b 24bd 2a84 2abc 5431 25bb 7e34 4abc
000003b0: 6471 40bc cd29 58be b86c 9d3b 71e9 1dbc
000003c0: 1d36 9bbc dda2 76ba 5181 7a3c 0fef 8e3c
000003d0: d177 c3bc 6f76 363c 6f5a b0ba 146e bf3c
000003e0: 9b65 d5bc ebfa 3fbd b122 d43b 0622 9abb
000003f0: eaf5 99bb 4df1 11bd cb41 703c 1239 08bc
0.011459424 0.11199643 -0.018965442 -0.016859807 -0.011160987 -0.038914844 0.030347483 -0.022845121
-0.06734259 0.013021042 0.0028699515 -0.00080864393 -0.05586826 -0.017698951 0.008712955 -0.04118898
0.06260797 -0.023169126 -0.00521917 0.009338784 0.012432469 0.033970527 -0.0026511976 -0.007994417
-0.014547631 -0.035393983 -0.0015736485 0.022341747 -0.10878012 -0.017138 0.056420527 0.040815126
0.040217884 0.12071104 0.0056909397 -0.027988186 0.026520988 -0.0055536097 -0.001179264 -0.031510856
0.012125358 0.021966107 -0.028357008 0.033985056 0.03390975 -0.0066634603 -0.4763413 -0.2357326
-0.037830442 -0.014172002 -0.2503237 -0.005291975 0.019730603 0.007119293 0.010151436 -0.016683957
0.046757616 -0.031357486 0.0025682412 0.012253612 -0.03746971 0.0122535275 -0.013328518 -0.022615371
-0.028891604 -0.0044275424 0.043404713 0.014075431 0.037893176 0.5831671 -0.13418885 0.0029652098
0.00023382262 -0.010961039 -0.014264162 -0.035336122 0.022221902 -0.038515113 -0.18333396 0.0029884526
0.00032259928 -0.022664858 0.016797334 -0.0034063766 0.0154751185 -0.033281155 -0.012030321 -0.025748713
0.039749354 0.035101365 -0.010997828 0.0022324787 0.01833672 1.6958994 -0.65278125 0.1535361
0.004055999 0.007098991 -0.04191721 0.048540723 0.01613415 0.028305935 -0.032220572 0.010013269
-0.02777532 -0.0058814115 0.00983772 0.061153315 0.026473854 0.017097138 0.017031489 0.076505534
0.026362428 -0.017802624 0.035193898 -0.0027928972 0.011186489 0.015417421 0.010178782 -0.038505062
-0.24796481 0.0016469007 -0.011712153 -0.016910767 -0.003982794 -0.67154306 0.015158317 -0.002258475
0.029561069 0.13667807 0.003745828 -0.034661777 -0.031345285 0.01816475 0.028119877 -0.036014367
0.02528468 0.047488395 -0.016959758 0.028744863 -0.00018647901 -0.016636275 -0.0013636942 -0.027929008
0.004930875 -0.010649103 -0.22803703 0.0079202065 -0.0067582894 -0.01737263 0.0411306 -0.014039182
0.025131559 -0.045146003 -0.021237234 -0.03832034 0.022931112 -0.25973982 0.027890041 0.0341773
0.0004253334 0.00833808 -0.036367487 0.033384107 0.2556164 0.011622712 0.08975255 -0.023386631
-0.005848247 -0.039669055 -0.2987432 0.01622407 -0.015601563 -0.015579123 0.0030600962 -0.017201146
0.03480288 -0.023113966 -0.034482375 -0.01065198 -0.030192351 -0.024481373 -0.00945907 0.008902381
0.052678414 0.0443034 -0.0061312313 0.81393486 0.02455135 0.0059890915 0.0077277585 0.014809449
-0.035406403 -0.011084399 -0.018505277 -0.0062086987 -0.011880719 -0.017753247 -0.056794878 -0.008314875
0.1426753 -0.006261223 -0.009874098 0.035905015 0.0018614501 0.0012749883 -0.20610142 -0.01889161
-0.0010256948 0.015058777 -0.20319952 0.031911857 -0.030171108 -0.021422926 -0.038057934 0.02367553
0.0017555092 -0.020763323 -0.0015997059 0.008585458 -0.027200654 0.0074276067 -0.022420729 -0.016405342
-0.039003078 0.030963136 0.027504735 0.007079496 -0.022304956 0.0032838648 -0.030294761 -0.011421957
-0.040172115 -0.010407487 -0.0025206404 -0.012341617 -0.011745784 -0.21109696 0.00480422 -0.009638176
-0.018946702 -0.0009408424 0.0152896205 0.017447976 -0.023860844 0.011136635 -0.0013454686 0.023367919
-0.026049426 -0.046870153 0.006473862 -0.004703763 -0.0046985047 -0.035630513 0.014664124 -0.008314388
